trained_models/mod7.ckpt (torch, 856907 bytes, 9 tensors)

model.cell_list.0.conv_cc.weight f4 [80, 31, 5, 5]
0	0xbd7bb86e	-0.061455183
1	0xbd934187	-0.07190233
2	0xbd811df5	-0.06304542
3	0xbd4de4d2	-0.05026705
4	0xbd721eb9	-0.05911133
5	0xbd8458da	-0.064622596
6	0xbd9779b2	-0.073962584
7	0xbd6e120e	-0.058122687
8	0xbd64a523	-0.05582155
9	0xbd53c6f1	-0.051703397
10	0xbd8d0aa2	-0.06886794
11	0xbd940705	-0.07227901
12	0xbd77acb6	-0.060467444
13	0xbd6e9899	-0.058250997
14	0xbd49ec65	-0.04929771
15	0xbd8822bf	-0.06647252
16	0xbd854389	-0.06507022
17	0xbd7149b6	-0.058908187
18	0xbd1e0d62	-0.03858698
19	0xbd185c0c	-0.037197158
20	0xbd6fe8ac	-0.058571503
21	0xbd79458e	-0.06085735
22	0xbd4ae3d0	-0.049533665
23	0xbd353f06	-0.044249557
24	0xbd109d0e	-0.03530603
25	0xbcc0ed07	-0.023550523
26	0xbc5a6e4f	-0.013331964
27	0xbb89731c	-0.0041946303
28	0xbc95f68a	-0.018306036
29	0xbb8c2b1d	-0.0042776004
30	0xbcabc608	-0.020968452
31	0xbc078693	-0.008271831
32	0x3b4a5f18	0.0030879434
33	0xbc4ac987	-0.012377149
34	0xbc8ec118	-0.017426059
35	0xbcea11b4	-0.028572895
36	0xbbcd2742	-0.0062607834
37	0xbb147f24	-0.002265879
38	0x3c08ba94	0.008345265
39	0xbc10e58b	-0.00884379
40	0xbc32d2ba	-0.010914499
41	0xbc9557d3	-0.018230354
42	0x3bb7f836	0.005614306
43	0x3b6d5b28	0.0036217663
44	0xbbdf9234	-0.0068228487
45	0xbc37b7bb	-0.011213238
46	0xbc87e902	-0.016590599
47	0x3ab25eec	0.0013608611
48	0xba9690cf	-0.0011487248
49	0xb909c5e0	-0.00013139052
50	0x3c8c4523	0.01712281
51	0x3ce38e71	0.027777882
52	0x3d48a7d4	0.04898818
53	0x3d34dd64	0.044156447
54	0x3d68d734	0.05684586
55	0x3d28470d	0.041083384
56	0x3d2fc111	0.04290873
57	0x3d579079	0.052628014
58	0x3d8774ec	0.06614098
59	0x3d6c537b	0.0576968
60	0x3cdaf68d	0.026728893
61	0x3d652de2	0.05595196
62	0x3d966ad7	0.07344597
63	0x3da22309	0.07916839
64	0x3d58c34c	0.052920625
65	0x3cfe48ac	0.031040512
66	0x3d3b03e9	0.045658026
67	0x3d7f6b4b	0.062358182
68	0x3d682b61	0.056681994
69	0x3d48c48e	0.049015574
70	0x3d22a56b	0.039708536
71	0x3d220510	0.03955561
72	0x3d78761d	0.060659517
73	0x3d727489	0.059193168
74	0x3d6e9203	0.058244716
75	0xbcb6221e	-0.022233065
76	0xbba8c729	-0.005150695
77	0x3b6e1195	0.0036326398
78	0xbc87f65d	-0.016596967
79	0xbc597ef4	-0.013274897
80	0xbce085c6	-0.027407538
81	0xbc003c7b	-0.00782692
82	0x3c5ba62d	0.013406319
83	0x3aa15ede	0.0012311598
84	0xbbdd529c	-0.0067542326
85	0xbcb267e9	-0.021778064
86	0xbb3a29d4	-0.002840628
87	0x3cdee6cf	0.027209667
88	0x3c10195b	0.008795108
89	0xbaf12d47	-0.0018400335
90	0xbc880e51	-0.01660839
91	0xbbf8a1f1	-0.0075876643
92	0x3c497009	0.012294778
93	0x3bd09a52	0.0063660527
94	0xbc855bc5	-0.01627911
95	0xbceb811b	-0.028748086
96	0xbb9485ad	-0.004532537
97	0xbaab6a27	-0.00130779
98	0xbc303c6c	-0.010756593
99	0xbc5c6254	-0.013451178
100	0xbc4480c1	-0.011993588
101	0xbc5c7ff5	-0.013458242
102	0xbb2b0bb2	-0.00260995
103	0xbbc9b745	-0.0061558806
104	0xbcdb4a5b	-0.026768854
105	0xbcd690bc	-0.026192062
106	0xba80c972	-0.000982566
107	0xbc2afad9	-0.010435783
108	0xbb505bd3	-0.0031793013
109	0xbc7c15cc	-0.015386056
110	0xbc86f59f	-0.016474543
111	0xbc129195	-0.008945842
112	0xbbcfa7bc	-0.006337134
113	0xbca2c43b	-0.01986896
114	0xbc91be07	-0.017790807
115	0xbc732fb5	-0.014842917
116	0xbc22fb81	-0.0099476585
117	0xbc4b4ca7	-0.012408412
118	0xbcd98782	-0.026553873
119	0xbd0a71a5	-0.033799786
120	0xbd267d30	-0.04064673
121	0xbcdf47ad	-0.027255857
122	0xbc969205	-0.018380174
123	0xbd0da11f	-0.034577485
124	0xbcfcd37d	-0.030862564
125	0xbcbf54f1	-0.023355933
126	0xbce254e5	-0.027628371
127	0xbca32bfa	-0.01991843
128	0xbc3816c2	-0.011235895
129	0xbbde3fc8	-0.0067825057
130	0xbcaf3bb0	-0.021390766
131	0xbc52d489	-0.012868055
132	0xbbc595bd	-0.006029813
133	0xbbfc2187	-0.0076944265
134	0xbbf0df12	-0.007350811
135	0xbb912410	-0.004429348
136	0xbbb32eac	-0.00546821
137	0xbc1844f9	-0.009293788
138	0xbc996c20	-0.018728316
139	0xbca0d8c2	-0.019634608
140	0xbc59fd01	-0.01330495
141	0xbc22dd1f	-0.009940415
142	0xbc768351	-0.015045957
143	0xbb915f34	-0.004436398
144	0xbb8e3809	-0.004340176
145	0xbbf1c583	-0.0073782816
146	0xba9aa00a	-0.0011796963
147	0xbae36774	-0.0017349557
148	0x3ad62232	0.0016337095
149	0x3b407a5d	0.002936981
150	0x3d3d8ae2	0.046275027
151	0x3d765c35	0.06014653
152	0x3d483159	0.048875187
153	0x3d4c41f9	0.049867604
154	0x3d25ea0d	0.04050641
155	0x3d309d19	0.04311857
156	0x3d33aac1	0.043864015
157	0x3d3af166	0.04564037
158	0x3d6c456d	0.057683397
159	0x3d406848	0.04697445
160	0x3d2c4d28	0.04206577
161	0x3d5d3fdf	0.05401599
162	0x3d5b12b3	0.05348463
163	0x3d69ae2e	0.057050876
164	0x3d3865b8	0.04501888
165	0x3d55d03c	0.05220054
166	0x3d3d78a0	0.046257615
167	0x3d440331	0.047854606
168	0x3d2c23ea	0.042026438
169	0x3d3b4a90	0.045725405
170	0x3d3fca4b	0.04682378
171	0x3d5fb430	0.0546152
172	0x3d55cec7	0.05219915
173	0x3d5925f4	0.05301471
174	0x3d79daa9	0.060999546
175	0xbb024185	-0.0019875478
176	0xbb98ec50	-0.0046668425
177	0xbc33bdbb	-0.010970528
178	0xbc9d737a	-0.019220103
179	0xbb8b4200	-0.004249811
180	0xbc84bfe8	-0.01620479
181	0xbc66626e	-0.014061553
182	0xbcb1ff8a	-0.021728296
183	0xbc7db185	-0.0154842185
184	0xbca89570	-0.02057907
185	0xbbdbccab	-0.006707748
186	0xbccc7c93	-0.024961745
187	0xbcc13fa6	-0.02358992
188	0xbc871c3b	-0.016492954
189	0xbcb5f443	-0.0222112
190	0xbc886a16	-0.016652148
191	0xbcc4ed7b	-0.02403902
192	0xbcc8426c	-0.024445735
193	0xbca0e7c0	-0.019641757
194	0xbc56b6d9	-0.013105118
195	0xbd01e0fa	-0.031708695
196	0xbc9c63f3	-0.019090628
197	0xbc89b61c	-0.01681047
198	0xbc657efd	-0.014007327
199	0xbd02f966	-0.031976126
200	0xbd32c5db	-0.04364572
201	0xbd5cbc3f	-0.053890463
202	0xbd188bcb	-0.037242692
203	0xbd4da5d5	-0.050206978
204	0xbd234a1f	-0.03986561
205	0xbd3bdcfc	-0.045865044
206	0xbd406fb0	-0.046981514
207	0xbd3e6bb2	-0.046489425
208	0xbd35c6cb	-0.044379037
209	0xbd28e23a	-0.04123137
210	0xbd36397a	-0.044488408
211	0xbd3001dc	-0.042970523
212	0xbd638009	-0.055542026
213	0xbd1dd8b6	-0.03853675
214	0xbd17b665	-0.03703918
215	0xbd19ac5c	-0.03751789
216	0xbd1d6310	-0.03842455
217	0xbd5bd741	-0.05367208
218	0xbd4cd169	-0.050004397
219	0xbd173e7d	-0.036924828
220	0xbd5d97f2	-0.054099984
221	0xbd162d9d	-0.036664594
222	0xbd5e995e	-0.05434548
223	0xbd5b1302	-0.053484924
224	0xbd280421	-0.041019563
225	0xbd435bf9	-0.047695134
226	0xbd2e6ed0	-0.042586148
227	0xbd0584e7	-0.03259745
228	0xbd02c53d	-0.031926382
229	0xbcf86dbd	-0.030325765
230	0xbd2d4cbd	-0.04230951
231	0xbd45df61	-0.048308734
232	0xbcf4fb62	-0.029905025
233	0xbd2dc00b	-0.042419475
234	0xbd3643ae	-0.044498138
235	0xbd1a223f	-0.037630316
236	0xbd427df3	-0.047483396
237	0xbd087505	-0.033314724
238	0xbd09c99d	-0.03363954
239	0xbd468f76	-0.04847666
240	0xbd47a70a	-0.048743285
241	0xbd28468e	-0.04108291
242	0xbd128f72	-0.03578133
243	0xbd25c7cd	-0.040473748
244	0xbd3a3f9f	-0.04547083
245	0xbd237f67	-0.039916422
246	0xbd4cb367	-0.04997578
247	0xbd42b8e2	-0.0475396
248	0xbd40fcaf	-0.047115978
249	0xbd014d2d	-0.03156774
250	0xb8d6301a	-0.00010213275
251	0xbc525bd9	-0.012839281
252	0xbc103073	-0.008800614
253	0xbb96a271	-0.0045970012
254	0xbc02f733	-0.007993507
255	0xbc6e2d14	-0.014537115

model.cell_list.0.conv_cc.bias f4 [80]
0	0x3d232990	0.03983456
1	0xbddaed8e	-0.10689841
2	0x3e3667ad	0.17812987
3	0x3c86fa99	0.016476916
4	0xbcf932e6	-0.030419778
5	0x3d66e3ff	0.056369778
6	0xbd70108c	-0.05860953
7	0x3e20cce2	0.15703157
8	0xbd52daa3	-0.05147804
9	0xbe59406c	-0.21215981
10	0x3c6c0b4e	0.014406992
11	0xbe0a07fd	-0.1347961
12	0x3e26f9d1	0.16306235
13	0x3db0b25b	0.086277686
14	0x3e3c595c	0.18393463
15	0xbbd7c9a1	-0.0065853153
16	0xbccd647d	-0.02507233
17	0x3e40330b	0.18769471
18	0xbd4b19bc	-0.04958509
19	0x3e124e38	0.1428765
20	0xbd3841d0	-0.04498464
21	0x3d8658fe	0.06559943
22	0x3e2b5ed9	0.167354
23	0x3e030813	0.12796049
24	0x3d4347e6	0.04767599
25	0x3df5e08c	0.120057195
26	0xbdefe476	-0.11713497
27	0x3dd72736	0.10505526
28	0x3d25005f	0.040283557
29	0xbcc7e80a	-0.024402637
30	0x3d71dabd	0.059046496
31	0x3d8f7ae2	0.0700586
32	0x3dcf065c	0.10108635
33	0xbd98311a	-0.074312404
34	0x3e3f3542	0.1867266
35	0xbd5953dc	-0.05305849
36	0xbd905823	-0.07048061
37	0x3dd0b9f5	0.101917185
38	0xbc4d55ac	-0.012532633
39	0x3e1ac7e4	0.15115315
40	0xbc4d78aa	-0.012540976
41	0x3dc873d4	0.097877175
42	0x3df0134d	0.11722431
43	0xbc33bfad	-0.010970992
44	0xbc885f83	-0.016647106
45	0x3b80639f	0.0039181258
46	0x3d8c33c9	0.06845815
47	0x3e10ab4e	0.14127848
48	0x3dd1d4e9	0.102456875
49	0xbe136bb3	-0.14396553
50	0xbe504560	-0.20338964
51	0x3d74a8de	0.059731357
52	0x3e03df62	0.12878183
53	0xbcbb734d	-0.022882128
54	0xbe19fb53	-0.15037279
55	0xbe65ab69	-0.22428669
56	0x3dec4347	0.1153627
57	0xbda5ba86	-0.08092217
58	0xbd889092	-0.066681996
59	0x3d982e47	0.07430702
60	0x3da049f2	0.07826604
61	0xbd8723eb	-0.06598648
62	0x3e28ffc3	0.16503815
63	0xbd462849	-0.048378263
64	0x3b3d1541	0.002885178
65	0x39fcfb44	0.00048252393
66	0xbdc1158d	-0.094279386
67	0x3e1330a0	0.14374018
68	0x3c97d1f0	0.018532723
69	0x3de7bcb9	0.11315293
70	0xbcaa973f	-0.020824073
71	0x3c9d7e30	0.01922521
72	0x3df19e69	0.117977925
73	0x3e087741	0.13326742
74	0x3e1f3ceb	0.15550582
75	0x3cd38f47	0.025825156
76	0xbc427dd5	-0.011870821
77	0x3d0d190f	0.034447726
78	0x3d46fb15	0.048579294
79	0x3dcaa489	0.09894664

model.cell_list.0.conv_ll.weight f4 [60, 20, 5, 5]
0	0xbe39ce64	-0.18145138
1	0xbe261aa1	-0.16221096
2	0xbe1e2586	-0.15444002
3	0xbe1d6761	-0.15371467
4	0xbe290476	-0.16505608
5	0xbe1e95f8	-0.15486896
6	0xbe0f9be0	-0.14024305
7	0xbe1961b2	-0.14978674
8	0xbe0df08a	-0.1386129
9	0xbe1f1f2d	-0.15539236
10	0xbe1698e9	-0.14706768
11	0xbe048cda	-0.12944356
12	0xbe0af111	-0.13568522
13	0xbe09c431	-0.13453747
14	0xbe15597b	-0.14584915
15	0xbe1c8904	-0.15286642
16	0xbdfb0f5d	-0.1225879
17	0xbe08e1f5	-0.13367446
18	0xbe1261ea	-0.14295164
19	0xbe11dad0	-0.14243627
20	0xbe1686c1	-0.14699842
21	0xbe0c4db6	-0.1370152
22	0xbe218e41	-0.15776922
23	0xbe0b2c2e	-0.13591072
24	0xbe1a9947	-0.15097533
25	0x3da29c4a	0.07939966
26	0x3d854f7e	0.065093026
27	0x3d181cf6	0.037136994
28	0x3cd2aa22	0.025715891
29	0x3d1873d5	0.03721984
30	0x3d9c3b88	0.07628542
31	0x3d6b56b0	0.05745572
32	0x3d29275f	0.041297313
33	0x3cc70022	0.024292056
34	0x3d0fae9b	0.035078626
35	0x3d8d3574	0.06894961
36	0x3cd457f8	0.025920853
37	0x3c9c6453	0.019090807
38	0x3cc69d38	0.02424489
39	0x3d0f5fbc	0.03500341
40	0x3d2a3e9a	0.041563608
41	0x3cff6400	0.031175613
42	0x3cf904c5	0.030397782
43	0x3c79713d	0.015224752
44	0x3ca59ad4	0.02021543
45	0x3d6f3213	0.058397364
46	0x3d159515	0.03651913
47	0x3c0686a9	0.008210816
48	0x3c8e67d2	0.01738349
49	0x3cd34ce5	0.025793502
50	0xbd2a22ae	-0.04153698
51	0xbd47f226	-0.048814915
52	0xbd3034df	-0.04301917
53	0xbd0004a0	-0.03125441
54	0xbd319e1e	-0.043363683
55	0xbcfab167	-0.03060217
56	0xbd1cd45c	-0.03828846
57	0xbcf2c04e	-0.029632714
58	0xbc859efd	-0.016311163
59	0xbcd16f69	-0.02556582
60	0xbd12bd45	-0.035825033
61	0xbc8a8c37	-0.016912563
62	0xbcafa50b	-0.021441003
63	0xbc2129ed	-0.009836656
64	0xbc51a652	-0.0127960015
65	0xbcb20a6e	-0.021733489
66	0xba89a18c	-0.0010500415
67	0x39524b2a	0.00020055161
68	0xbc550106	-0.013000732
69	0xbc9af5ad	-0.018915975
70	0xbca11630	-0.0196639
71	0xbb90c589	-0.0044180793
72	0xbc136b7b	-0.008997793
73	0xbba54f27	-0.005044836
74	0xbc70ffa8	-0.014709391
75	0xbcad0241	-0.021119239
76	0xbd21fe69	-0.039549265
77	0xbd57a3b9	-0.052646372
78	0xbcfd4005	-0.030914316
79	0xbc6f0ba5	-0.014590179
80	0xbd2d5dff	-0.04232597
81	0xbd76fcbf	-0.06029963
82	0xbdb4fe6c	-0.088375896
83	0xbd885a6f	-0.06657874
84	0xbd2fa5c8	-0.04288271
85	0xbd276041	-0.04086328
86	0xbd89a997	-0.067218
87	0xbdb93f88	-0.09045321
88	0xbdac25a1	-0.08405615
89	0xbd67b613	-0.056570124
90	0xbd00806d	-0.031372476
91	0xbd45f282	-0.048326977
92	0xbd5cb71e	-0.05388557
93	0xbd5d7c40	-0.054073572
94	0xbd6373f3	-0.0555305
95	0xbcadee8e	-0.021231916
96	0xbccb5f24	-0.02482564
97	0xbd238d85	-0.039929885
98	0xbd4f0fe9	-0.050552282
99	0xbd357851	-0.044304196
100	0x3b5099f6	0.003183005
101	0x3cf19385	0.029489288
102	0x3d283379	0.041064713
103	0x3bb68f0f	0.005571253
104	0xbd6ef704	-0.05834104
105	0x3cac05d3	0.020998871
106	0x3d95fc6e	0.07323538
107	0x3d7f4887	0.062325027
108	0x3d1051c1	0.035234217
109	0xbd2342a7	-0.039858487
110	0x3b62df59	0.003461799
111	0x3d77bb7b	0.06048153
112	0x3d828bf3	0.063743494
113	0x3d4e637c	0.050387844
114	0xbd1b79af	-0.037957843
115	0xbc3db974	-0.01157986
116	0x3cbfad8c	0.023398183
117	0x3d6fe17d	0.05856465
118	0x3c9aa6e1	0.018878402
119	0xbd066221	-0.032808427
120	0xbc658fcf	-0.014011337
121	0xbb01769c	-0.0019754535
122	0x3d03aa76	0.032144986
123	0x3c5e020e	0.013550295
124	0xbd2c855b	-0.042119365
125	0x3de5c0ce	0.11218415
126	0x3dcf8d26	0.10134344
127	0x3dbffb54	0.09374109
128	0x3d9dc2e7	0.0770319
129	0x3ddb442f	0.10706364
130	0x3db3c3e6	0.08777599
131	0x3d937589	0.072001524
132	0x3d8f407a	0.0699472
133	0x3d983ab8	0.07433075
134	0x3d9bda2c	0.07609972
135	0x3db3927a	0.087681726
136	0x3d75b4f4	0.059987023
137	0x3d7d4141	0.06182981
138	0x3d8c76b1	0.06858576
139	0x3d9ebda5	0.077510156
140	0x3daeea97	0.08540838
141	0x3da5f1c4	0.08102754
142	0x3d8d42aa	0.06897481
143	0x3dbd26ca	0.09235914
144	0x3dd1302a	0.10214265
145	0x3dd89d34	0.10576859
146	0x3dcfe781	0.10151578
147	0x3daeb352	0.085302964
148	0x3dbaf8d5	0.09129492
149	0x3def24a3	0.1167691
150	0x3dd6e66d	0.10493169
151	0x3dad6c0e	0.084678754
152	0x3d839a63	0.06425931
153	0x3d35bd24	0.04436983
154	0x3d46b85d	0.048515666
155	0x3d91bfa2	0.07116629
156	0x3d27387d	0.040825356
157	0x3d161571	0.036641542
158	0x3d0cfcac	0.034420654
159	0x3d332a6a	0.04374162
160	0x3d9423e9	0.07233412
161	0x3cfa7e5a	0.030577827
162	0x3c030f0a	0.007999191
163	0x3c126cfa	0.008937115
164	0x3ce7a793	0.028278148
165	0x3db95e23	0.09051158
166	0x3d1ea116	0.038727842
167	0x3c863e4c	0.016387127
168	0x3cde67a0	0.027149022
169	0x3d3aa0af	0.045563396
170	0x3dc8c05d	0.098023154
171	0x3d8fbf1a	0.070188716
172	0x3d4b84b1	0.04968709
173	0x3d59a9ed	0.05314057
174	0x3da44ff6	0.08023064
175	0x3cdc0c1a	0.02686124
176	0x3ca18b67	0.019719793
177	0x3d0c948f	0.034321364
178	0x3cf4d881	0.029888393
179	0x3b20cc67	0.0024535896
180	0x3c7bc819	0.015367531
181	0x3d080c9c	0.03321515
182	0x3d2809c4	0.04102494
183	0x3ccbb39d	0.02486592
184	0xbb37bd36	-0.0028036362
185	0x3cc03dac	0.023466907
186	0x3d069aa7	0.03286233
187	0x3c968ff0	0.018379182
188	0x3b8809e8	0.0041515715
189	0xbc66fe29	-0.014098682
190	0x3b3b294f	0.0028558557
191	0x3bdd4719	0.0067528603
192	0xbb9e2728	-0.004826445
193	0xbb91eff9	-0.004453656
194	0xbcdb01f0	-0.026734322
195	0xbcbba3a1	-0.022905173
196	0xba2e15af	-0.00066408043
197	0xbcb65013	-0.02225498
198	0xbcdc3f1c	-0.026885562
199	0xbd1098a7	-0.03530183
200	0xbbd9d4a5	-0.0066476637
201	0xbb1c8d99	-0.002388811
202	0xbca71b45	-0.020398745
203	0xbbbca7e8	-0.0057573207
204	0x3a99e4d7	0.0011741173
205	0xbbad29dd	-0.0052845315
206	0xbd3ac2f8	-0.045596093
207	0xbda04625	-0.07825879
208	0xbd731cdd	-0.059353698
209	0xbbc00bb4	-0.00586077
210	0xbc004081	-0.007827879
211	0xbd9277cf	-0.07151758
212	0xbdb7421d	-0.08948157
213	0xbd9b146d	-0.07572255
214	0xbc9ca7b2	-0.019122932
215	0xbc367b8b	-0.011137853
216	0xbd42a91d	-0.04752456
217	0xbdb0dfef	-0.08636462
218	0xbda7c38e	-0.08191596
219	0xbd179888	-0.0370107
220	0xbcf7159b	-0.03016167
221	0xbd6d0a40	-0.057871103
222	0xbd49a476	-0.049229108
223	0xbd501e4b	-0.05081014
224	0xbd0bbf68	-0.034118086
225	0xbd06bee4	-0.03289689
226	0xbd8ff2fa	-0.07028766
227	0xbdbb4ce3	-0.09145524
228	0xbda2d30b	-0.079504095
229	0xbd351943	-0.044213545
230	0xbda634d9	-0.08115549
231	0xbde048ee	-0.1095141
232	0xbe015c0e	-0.12632772
233	0xbdf231d6	-0.11825912
234	0xbdb07a2c	-0.086170524
235	0xbd973e88	-0.07384974
236	0xbdf6008b	-0.12011822
237	0xbe1b6508	-0.15175259
238	0xbe02541b	-0.12727396
239	0xbd9de9ac	-0.07710585
240	0xbda0b577	-0.07847112
241	0xbdcc0903	-0.09962656
242	0xbdf7f904	-0.12108043
243	0xbdfbf46f	-0.123024814
244	0xbd99636c	-0.07489666
245	0xbd10ec00	-0.035381317
246	0xbd89beba	-0.06725831
247	0xbda8a8af	-0.08235299
248	0xbdaa203b	-0.08306929
249	0xbd38e95c	-0.045144424
250	0x3d8518bf	0.064988606
251	0x3d0586ae	0.032599144
252	0x3ab7242b	0.0013972571
253	0x3c5b2aac	0.013376873
254	0x3d1b6522	0.037938245
255	0x3d0b0c6a	0.033947386

model.cell_list.1.conv_cc.weight f4 [80, 40, 5, 5]
0	0x3d80ced1	0.06289447
1	0x3d84ee36	0.06490748
2	0x3da164db	0.07880565
3	0x3d797516	0.060902677
4	0x3d8642cd	0.0655571
5	0x3d6b1102	0.057389267
6	0x3da45202	0.08023454
7	0x3dafbaae	0.08580528
8	0x3d9206ba	0.07130189
9	0x3d859dd4	0.06524244
10	0x3d595d7a	0.05306766
11	0x3d92eeb6	0.07174437
12	0x3dbf96e2	0.093549505
13	0x3db07629	0.08616287
14	0x3d831cfc	0.06402013
15	0x3d710851	0.05884582
16	0x3d80976a	0.0627888
17	0x3d9e6f4e	0.077360734
18	0x3da37bf7	0.07982629
19	0x3d9b3c0f	0.07579815
20	0x3d75a551	0.05997211
21	0x3d8fb157	0.07016247
22	0x3d91e304	0.07123378
23	0x3da8751e	0.08225463
24	0x3dae60bf	0.085145466
25	0x3e0b8fad	0.13629027
26	0x3d7f1f65	0.0622858
27	0x3d3c63d1	0.04599363
28	0x3d9f0e22	0.077663675
29	0x3e197266	0.14985046
30	0x3d59f358	0.053210586
31	0xbd7107f7	-0.058845486
32	0xbdccef5f	-0.10006594
33	0xbc8937a8	-0.016750172
34	0x3da6d5ca	0.08146246
35	0x3cf7e395	0.030259887
36	0xbdc2e4c5	-0.095162906
37	0xbe1eaff5	-0.1549681
38	0xbda2ec17	-0.07955187
39	0x3cec3e3c	0.02883827
40	0x3d4da931	0.05021018
41	0xbd814b67	-0.0631321
42	0xbdf0faee	-0.11766611
43	0xbd63e689	-0.055639777
44	0x3c78746f	0.015164479
45	0x3d9a505b	0.07534858
46	0xbb56284e	-0.0032677832
47	0xbd128144	-0.03576781
48	0x3aa8f939	0.0012891657
49	0x3d7a66fa	0.061133362
50	0xbdf729ea	-0.12068541
51	0xbdf25ad5	-0.11833731
52	0xbddda405	-0.108223
53	0xbdd8d8df	-0.1058824
54	0xbdee85df	-0.11646628
55	0xbdc8bb98	-0.09801406
56	0xbda3163d	-0.07963226
57	0xbda508aa	-0.08058293
58	0xbdb0ddc6	-0.0863605
59	0xbdddf885	-0.10838417
60	0xbdb5cd98	-0.088771045
61	0xbdadfdf3	-0.084957026
62	0xbd8f4953	-0.06996407
63	0xbda26739	-0.079298444
64	0xbdca695f	-0.09883379
65	0xbdc7a63b	-0.09748503
66	0xbdb3b0b2	-0.08773936
67	0xbda453f3	-0.080238245
68	0xbda1f545	-0.079081096
69	0xbdb19946	-0.08671813
70	0xbdc6caef	-0.09706675
71	0xbd9bc35e	-0.07605623
72	0xbd897b4d	-0.06712971
73	0xbd9d0bfe	-0.07668303
74	0xbdaa8c47	-0.08327537
75	0x3e308e4b	0.1724178
76	0x3e5fc992	0.21854237
77	0x3e6fa7c6	0.23403844
78	0x3e62971e	0.22127959
79	0x3e4d571e	0.20052764
80	0x3e47e153	0.19519548
81	0x3e851929	0.25995758
82	0x3e9292df	0.2862768
83	0x3e86f87f	0.26361462
84	0x3e5f11f0	0.21784186
85	0x3e60cf2c	0.2195403
86	0x3e956bc3	0.29183778
87	0x3e9da980	0.3079338
88	0x3e84734e	0.2586922
89	0x3e538a44	0.20658213
90	0x3e461b7d	0.19346423
91	0x3e76e7f7	0.24111925
92	0x3e843fc7	0.25829908
93	0x3e54431a	0.20728722
94	0x3e2947bc	0.1653127
95	0x3e102558	0.14076746
96	0x3e35c5d7	0.17751251
97	0x3e2b30a5	0.16717775
98	0x3e1aca57	0.15116249
99	0x3e07ccbc	0.13261694
100	0x3e4e55cb	0.20149915
101	0x3e3fdad6	0.18735823
102	0x3e43198f	0.19052719
103	0x3e4631c1	0.19354917
104	0x3e624a85	0.2209874
105	0x3e3f1906	0.1866189
106	0x3e43601d	0.19079633
107	0x3e412df4	0.18865186
108	0x3e4bc2cd	0.1989853
109	0x3e693fa9	0.2277819
110	0x3e37829c	0.17920917
111	0x3e44b207	0.19208537
112	0x3e4520a4	0.19250733
113	0x3e5bc2d6	0.21461043
114	0x3e7502e0	0.23926878
115	0x3e3afa43	0.1825953
116	0x3e4cb1d4	0.19989711
117	0x3e5d8bd8	0.21635377
118	0x3e8330a5	0.2562305
119	0x3e8c1d64	0.27366173
120	0x3e452b9b	0.19254915
121	0x3e7223c5	0.23646457
122	0x3e85562a	0.260423
123	0x3e91e467	0.2849457
124	0x3e99bac6	0.3002531
125	0xbd3193d4	-0.04335387
126	0xbd874743	-0.06605389
127	0xbdaee8df	-0.085405104
128	0xbd9c937f	-0.0764532
129	0xbd88fd46	-0.06688933
130	0xbda56af3	-0.080770396
131	0xbddacb7f	-0.10683345
132	0xbde1e976	-0.11030857
133	0xbde5584d	-0.11198483
134	0xbdb69b79	-0.08916373
135	0xbde40a15	-0.111347355
136	0xbe0c056c	-0.13673943
137	0xbe156c91	-0.14592196
138	0xbe03720c	-0.12836474
139	0xbdac4a9f	-0.0841267
140	0xbdbdfd5d	-0.09276841
141	0xbe0d0ce6	-0.13774452
142	0xbe197616	-0.14986452
143	0xbdea829a	-0.114506915
144	0xbdb1c4c1	-0.08680106
145	0xbd922e94	-0.0713779
146	0xbdcee868	-0.10102922
147	0xbddf2365	-0.10895423
148	0xbdc95347	-0.09830337
149	0xbd5b3ee6	-0.05352678
150	0x3e363e42	0.17797187
151	0x3e3b68de	0.18301722
152	0x3e3a9574	0.18221074
153	0x3e33fe3b	0.1757745
154	0x3e444e8c	0.19170588
155	0x3e39647e	0.18104741
156	0x3e3e48e2	0.1858249
157	0x3e3b3da7	0.18285237
158	0x3e3b5ebb	0.18297856
159	0x3e3d3a02	0.1847916
160	0x3e3a77bc	0.18209738
161	0x3e3a7eeb	0.18212478
162	0x3e480a3c	0.19535154
163	0x3e47b173	0.19501285
164	0x3e434d16	0.19072375
165	0x3e3abbe8	0.18235743
166	0x3e4507e4	0.19241291
167	0x3e46c577	0.19411264
168	0x3e53f997	0.2070068
169	0x3e392f1c	0.18084377
170	0x3e3ad2c5	0.18244465
171	0x3e3e630d	0.18592472
172	0x3e4c79c8	0.19968331
173	0x3e53b08f	0.2067282
174	0x3e48d213	0.19611387
175	0x39aff11b	0.0003355824
176	0xbab46511	-0.001376303
177	0xbc2cab9a	-0.01053896
178	0xbc6860e3	-0.014183256
179	0xbcea038b	-0.028566143
180	0x3a54f877	0.00081241824
181	0x3b88dc5e	0.0041766604
182	0x3b8211cc	0.0039694067
183	0xbc19ccac	-0.0093871765
184	0xbcc54dfc	-0.024085037
185	0x3caa8924	0.020817347
186	0x3d05c59e	0.032659166
187	0x3c484a8e	0.0122248065
188	0x3c1fb24b	0.009747098
189	0xbcbc8afc	-0.023015492
190	0x3c02e792	0.007989781
191	0x3c885e55	0.016646544
192	0x3c877e06	0.016539585
193	0x3a79f7e5	0.00095355354
194	0xbbfe8680	-0.0077674985
195	0xbb5cf9d8	-0.0033718254
196	0x3b654a85	0.0034987044
197	0x3c31fb56	0.010863146
198	0xbb63d3f8	-0.0034763794
199	0xbc9f602a	-0.019455034
200	0x3c8d1dd3	0.017226135
201	0xbd400c42	-0.04688669
202	0xbdb2d8d4	-0.08732763
203	0xbdb4c440	-0.08826494
204	0xbc127313	-0.008938569
205	0xbda0b361	-0.07846714
206	0xbe079b81	-0.13242914
207	0xbe2b38bc	-0.16720861
208	0xbe0accc7	-0.13554679
209	0xbcc3bc10	-0.023893386
210	0xbdd70c79	-0.10500426
211	0xbe080f35	-0.13287051
212	0xbde9697b	-0.11397072
213	0xbdf2b157	-0.11850231
214	0xbd3c79a6	-0.04601445
215	0xbd7f62f6	-0.062350236
216	0xbd6713f6	-0.05641552
217	0xbd36d164	-0.044633284
218	0xbd998b39	-0.07497258
219	0xbcc168db	-0.02360957
220	0x3db2cac0	0.08730078
221	0x3d55362e	0.052053623
222	0x3cb528d3	0.022114193
223	0x3bd01ee6	0.0063513396
224	0x3db626c9	0.088941164
225	0x3da319fa	0.07963939
226	0x3db18ca9	0.08669407
227	0x3dcae23d	0.09906433
228	0x3e0b73b8	0.13618362
229	0x3e20130a	0.15632263
230	0x3d791e24	0.06081976
231	0x3d2e9a5a	0.04262767
232	0x3d81930c	0.06326875
233	0x3de9268f	0.113843076
234	0x3e16b9b0	0.14719272
235	0x3d2c1089	0.042007957
236	0x3cfcd6e6	0.03086419
237	0x3d33866e	0.043829374
238	0x3da0eab8	0.07857269
239	0x3e01f3af	0.12690614
240	0x3d25012d	0.040284324
241	0x3cb7bfeb	0.02243038
242	0x3d046478	0.032322377
243	0x3d858226	0.065189645
244	0x3dcba413	0.09943404
245	0x3d3c6b41	0.046000723
246	0x3d13d41d	0.03609096
247	0x3d3da15d	0.046296466
248	0x3d84413f	0.06457757
249	0x3db1fd8f	0.086909406
250	0xbd212f93	-0.03935201
251	0xbd61421e	-0.054994695
252	0xbc8e5821	-0.017376008
253	0xbcaa717c	-0.020806067
254	0xbc816a45	-0.015797744
255	0xbd96e59f	-0.073680155

model.cell_list.1.conv_cc.bias f4 [80]
0	0xbea4f667	-0.3221924
1	0xbeb066d7	-0.3445346
2	0xbed31ae7	-0.41231462
3	0xbee81e86	-0.45335788
4	0xbf134f08	-0.5754247
5	0xbf093992	-0.5360347
6	0xbec3eaf3	-0.3826519
7	0xbdf471aa	-0.11935742
8	0xbeef31f7	-0.46717808
9	0x3ddb6c39	0.10714001
10	0x3e964383	0.29348382
11	0xbf1bbc3b	-0.6083409
12	0x3ea9e305	0.33181015
13	0xbeef1dd0	-0.46702433
14	0xbea24619	-0.31694105
15	0xbf0344ab	-0.51276654
16	0x3e5314da	0.20613423
17	0xbe89e567	-0.26932833
18	0xbe883cfd	-0.2660903
19	0x3f1ceefc	0.6130216
20	0xbc8c7aee	-0.017148461
21	0x3e6475c1	0.22310545
22	0xbdfb548d	-0.12271986
23	0x3e909e72	0.28245884
24	0x3e57ad14	0.21062118
25	0x3cc4bf37	0.02401696
26	0x3ca20f16	0.019782584
27	0x3dd35688	0.10319239
28	0x3e12c6ba	0.1433362
29	0xbe086364	-0.13319165
30	0xbe15ee22	-0.14641622
31	0x3e017819	0.1264347
32	0x3d39362e	0.045217685
33	0x3c9b40f0	0.018951863
34	0xbe112796	-0.14175257
35	0x3e867412	0.2626043
36	0x3e4f8026	0.20263728
37	0x3e648376	0.22315773
38	0x3e6de2b1	0.23231007
39	0xbd16a4fe	-0.036778443
40	0x3cc62947	0.024189604
41	0xbb7f141a	-0.0038921894
42	0x3d17b2b5	0.037035663
43	0x3cb43975	0.022000054
44	0xbdc1e4d7	-0.09467476
45	0xbde76615	-0.112987675
46	0xbdbef834	-0.09324685
47	0x3d56ee86	0.052473567
48	0x3d5affd3	0.05346663
49	0x3d4bafa1	0.04972804
50	0x3df51fd2	0.1196896
51	0xbcb851e6	-0.02249999
52	0x3d5158b6	0.051109992
53	0x3d575e7c	0.05258034
54	0xbe09a129	-0.13440384
55	0xbe663019	-0.22479285
56	0x3cb6dddb	0.022322586
57	0x3d7b365a	0.06133113
58	0xbe9b2fbf	-0.30309865
59	0x3dc92f83	0.09823515
60	0xbe4ff159	-0.2030691
61	0xbe352646	-0.17690381
62	0xbe8e829f	-0.2783403
63	0xbde32951	-0.11091865
64	0xbd16d40d	-0.03682332
65	0xbec8e9dc	-0.3924092
66	0xbe9e1ca1	-0.30881217
67	0x3d4a7c60	0.04943502
68	0xbe6fe8f1	-0.23428704
69	0x3ec15523	0.37760267
70	0x3e854a45	0.26033226
71	0xbe3a4dd6	-0.18193755
72	0x3db7c898	0.08973807
73	0xbe48d116	-0.1961101
74	0xbe2ed680	-0.17074013
75	0xbe9907d4	-0.29888785
76	0xbd99001b	-0.07470723
77	0xbe0b1d3a	-0.13585368
78	0xbe09f200	-0.13471222
79	0x3eda4e47	0.42637846

model.cell_list.1.conv_ll.weight f4 [60, 20, 5, 5]
0	0x3deb8823	0.115005754
1	0x3db16d81	0.08663464
2	0x3d6dac9c	0.05802594
3	0x3d1e8fe1	0.038711432
4	0xbcbd1406	-0.023080837
5	0x3d841534	0.06449357
6	0x3d9d4630	0.07679403
7	0x3dd88c50	0.105736375
8	0x3d9abc86	0.07555489
9	0xbc8e5101	-0.01737261
10	0x3d5296a6	0.0514132
11	0x3ddc9f6a	0.10772593
12	0x3de344bf	0.11097097
13	0x3dd3e3d4	0.10346189
14	0x3bd33b83	0.0064463033
15	0x3d8fc252	0.070194855
16	0x3d93aad9	0.07210321
17	0x3dfe24a6	0.12409334
18	0x3dea3726	0.114363
19	0x3d1977d3	0.03746779
20	0x3cbac9f4	0.022801377
21	0x3ce2b411	0.027673753
22	0x3d880b6f	0.06642806
23	0x3d50e8a8	0.05100313
24	0x3ca3f7b7	0.02001558
25	0x3da778c0	0.08177328
26	0x3a6e473c	0.0009089594
27	0x39b94b22	0.00035341928
28	0x3c07bfc5	0.0082854675
29	0x3c941386	0.018075716
30	0xbc904287	-0.017609848
31	0x3cc3af6f	0.023887364
32	0x3deb17f9	0.11479182
33	0x3da3fe5f	0.08007502
34	0x3d6db740	0.05803609
35	0x3dddc8f5	0.10829345
36	0x3e4aa15d	0.19788118
37	0x3e23f8a7	0.16012822
38	0x3e2bf184	0.1679135
39	0x3e09e6ed	0.13466997
40	0x3de8548f	0.11344253
41	0x3de28c34	0.11061898
42	0x3e098b03	0.13431935
43	0x3e2bd4f9	0.16780461
44	0x3e07f204	0.13275915
45	0x3d92733f	0.07150888
46	0x3e041a0b	0.1290056
47	0x3df985bd	0.12183712
48	0x3e1c14fe	0.15242383
49	0x3e14f8a4	0.14547974
50	0x3d056a1d	0.0325719
51	0xba9af41e	-0.001182202
52	0xbcced4fe	-0.025248047
53	0xbd1d9d77	-0.03848025
54	0x3c8b9f25	0.01704366
55	0xbc247817	-0.010038397
56	0xbce6a4ef	-0.028154818
57	0xbdbed50a	-0.09317978
58	0xbe0adad8	-0.13560045
59	0xbd2b6e45	-0.041853208
60	0x3d044e06	0.03230097
61	0xbd4c8313	-0.04992969
62	0xbe3494a4	-0.17634827
63	0xbe1bb6e4	-0.15206486
64	0xbd405109	-0.04695228
65	0xbd423a53	-0.047418904
66	0xbddd22d0	-0.107976556
67	0xbe082d72	-0.13298586
68	0xbdc8cd0a	-0.09804733
69	0xbc101c40	-0.008795798
70	0x3c013dfd	0.007888314
71	0xbcb48749	-0.022037165
72	0xbc590d0b	-0.013247739
73	0xbc657f4c	-0.014007401
74	0x3c8bda0e	0.01707175
75	0x3e19d5c6	0.15022954
76	0x3d9afa33	0.07567253
77	0x3e2c350c	0.16817111
78	0x3e426a5d	0.18985887
79	0x3e4b5484	0.19856459
80	0xbcc5e5e0	-0.024157465
81	0xbd2033b5	-0.03911181
82	0x3d54efea	0.051986612
83	0x3deb8411	0.11499799
84	0x3e4a5323	0.19758277
85	0xbc2923fa	-0.010323519
86	0xbda76787	-0.08174043
87	0xbd97b046	-0.07406668
88	0x3d49da67	0.04928055
89	0x3e223900	0.15842056
90	0x3c71c17a	0.014755601
91	0xbd86d277	-0.06583112
92	0xbd0f5397	-0.034991827
93	0x3d8a8393	0.06763377
94	0x3de95e7b	0.11394974
95	0x3dde3405	0.10849766
96	0x3d815315	0.06314675
97	0x3d20495a	0.039132454
98	0x3d2c0640	0.041998148
99	0x3d9f54e6	0.07779865
100	0xbc6e6943	-0.014551464
101	0x3c41462e	0.011796517
102	0xbc924a20	-0.017857611
103	0xbc498baf	-0.01230137
104	0x3d1813a3	0.037128102
105	0x396133dc	0.00021476991
106	0xbc9533db	-0.018213203
107	0x3c5b503a	0.013385827
108	0x3921cb8d	0.00015429985
109	0x3d33e23c	0.043916926
110	0xbd488493	-0.048954558
111	0xbd3c3dcc	-0.04595737
112	0x3d0b176c	0.033957884
113	0xbaa59ef4	-0.0012635873
114	0x3b6651d5	0.003514399
115	0xbd708f51	-0.058730427
116	0xbc063c48	-0.008193083
117	0x3d15b87f	0.036552902
118	0x3a25e2be	0.00063280377
119	0xbc87cf63	-0.016578382
120	0xbd2fdc19	-0.04293451
121	0x3bbe74d8	0.0058122687
122	0xbb694f0b	-0.0035600092
123	0xbcc1ede2	-0.023673002
124	0xbd42a626	-0.047521733
125	0xbdacfb94	-0.08446422
126	0x3a82f849	0.0009992208
127	0x3adc4f6a	0.0016808335
128	0xbcac194c	-0.021008156
129	0xbaf7925f	-0.0018888226
130	0xbd2f8edc	-0.04286085
131	0x3d16d737	0.03682634
132	0x3d04a101	0.032380108
133	0x3cab81a5	0.020935843
134	0x3cd13f8c	0.025542997
135	0xbd122eab	-0.035689037
136	0xbace9149	-0.0015759851
137	0x3af8cf7e	0.0018982736
138	0x3d64e8bb	0.05588601
139	0x3c93d6a7	0.01804669
140	0xbd863556	-0.06553142
141	0xbc8b3fd8	-0.016998217
142	0x3d2e6bda	0.042583324
143	0x3d57186b	0.05251352
144	0xba7e9231	-0.0009711115
145	0xbdae8c34	-0.085228354
146	0xbd2189c9	-0.039438043
147	0xbce319f1	-0.02772233
148	0xbcc75e27	-0.024336888
149	0xbd48b706	-0.04900267
150	0x3b79c742	0.0038113152
151	0x3d820891	0.0634929
152	0x3cf3dbd9	0.029767917
153	0x3c9f319d	0.019432837
154	0x3ca7b8b5	0.020473817
155	0x3d4afb21	0.0495559
156	0x3db42c5f	0.087975256
157	0x3d19d1f3	0.03755374
158	0x3d929ac5	0.07158426
159	0x3d60d1c6	0.054887556
160	0x3cf0f4e7	0.029413654
161	0x3cc9ef09	0.024650114
162	0x3e09ba0f	0.13449882
163	0x3e25790a	0.16159454
164	0x3d1d745a	0.03844104
165	0xbbbef85d	-0.005827947
166	0x3dc9c654	0.09852281
167	0x3e343f94	0.17602378
168	0x3da68769	0.08131296
169	0xbc66e7f0	-0.014093384
170	0xbd48e9dd	-0.049051154
171	0xbca16198	-0.019699857
172	0xbc677311	-0.014126555
173	0xbd2f63bc	-0.042819723
174	0xbd5040c9	-0.050843034
175	0xbd3e44f4	-0.046452478
176	0xbcbec85c	-0.023288898
177	0xbd3116b3	-0.04323454
178	0xbd48a35a	-0.04898391
179	0xbcac6e9c	-0.021048836
180	0xbd948247	-0.07251411
181	0x3d29b092	0.041428156
182	0x3e0518c9	0.12997736
183	0x3d8cda86	0.068776175
184	0xbbdea38a	-0.0067943977
185	0xbcfad5fc	-0.030619614
186	0x3e12e859	0.14346446
187	0x3e5406d9	0.20705737
188	0x3d8d97ab	0.06913694
189	0x3ba37fa8	0.004989583
190	0xbd7c1c0e	-0.061550193
191	0x3c0d17a4	0.008611593
192	0x3becb664	0.007223891
193	0xbc2823b3	-0.010262418
194	0x3d72b968	0.05925885
195	0xbce6563c	-0.028117292
196	0xbd639800	-0.05556488
197	0xbd2ffa28	-0.042963177
198	0xbbadb406	-0.0053010015
199	0x3c55522a	0.013020078
200	0xbe0253a0	-0.12727213
201	0xbe0885e8	-0.13332331
202	0xbdefb828	-0.11705047
203	0xbdf312b5	-0.118688025
204	0xbd91f061	-0.07125927
205	0xbe009fbb	-0.12560932
206	0xbdda1765	-0.106489934
207	0xbdcfd23a	-0.101475194
208	0xbdf2e195	-0.118594326
209	0xbd6aaca5	-0.057293553
210	0xbdb5c3f4	-0.08875266
211	0xbe0a509b	-0.13507311
212	0xbe1e78d3	-0.15475778
213	0xbe1479af	-0.14499544
214	0xbd66b414	-0.05632408
215	0xbd91653a	-0.070993856
216	0xbe2312a0	-0.15925074
217	0xbe357ef5	-0.17724212
218	0xbe03b27b	-0.12861054
219	0xbd82b944	-0.06382993
220	0xbc108ac4	-0.008822147
221	0xbd8e8db1	-0.06960619
222	0xbd4df1b4	-0.050279334
223	0xbd01cb54	-0.03168805
224	0xba0f8b76	-0.00054757984
225	0xbd86c1f6	-0.06579964
226	0xbd15e00a	-0.036590613
227	0x3d4e92df	0.050433036
228	0x3d5598e3	0.052147757
229	0x3c1781f1	0.009247289
230	0xbd8c5397	-0.06851881
231	0xbc8e8345	-0.017396579
232	0x3d91b8cc	0.07115325
233	0x3dbe685e	0.0929725
234	0x3d28e8eb	0.041237753
235	0xbda58ec1	-0.08083869
236	0x3b684132	0.003543925
237	0x3dc9a380	0.09845638
238	0x3d3bad63	0.04581965
239	0xbcfe8336	-0.031068426
240	0xbd9a30fd	-0.07528875
241	0x3ccd49f2	0.025059674
242	0x3d75c0e2	0.0599984
243	0xbc201ac8	-0.00977201
244	0xbd556910	-0.05210215
245	0xbd6fda32	-0.058557697
246	0x3bea7231	0.007154726
247	0x3cad72bc	0.021172874
248	0xbc3f193a	-0.011663729
249	0xbd7ec3ff	-0.062198635
250	0xbdc75efe	-0.09734915
251	0xbccfa5fa	-0.025347698
252	0x3ca908ac	0.020634018
253	0x3d429efb	0.047514897
254	0x3cc37e93	0.023864066
255	0xbce4bd8a	-0.02792241

model.cell_list.2.conv_cc.weight f4 [16, 24, 5, 5]
0	0x3d5af748	0.053458482
1	0x3cf8de54	0.030379452
2	0x3b9bdea4	0.0047567654
3	0x3d13617c	0.03598164
4	0x3d454e09	0.048170123
5	0xba39d4c4	-0.00070888945
6	0x3ad003b8	0.0015870249
7	0x3c6d7dcb	0.014495323
8	0x3d22ea08	0.03977397
9	0x3d8aebf3	0.06783285
10	0x3c856bce	0.016286757
11	0x3d1dbeb0	0.038511932
12	0x3d053aac	0.032526657
13	0x3d3f3f7f	0.046691414
14	0x3da759a6	0.08171396
15	0x3c0e47bb	0.008684094
16	0x3d4ec715	0.05048283
17	0x3da9c4fb	0.08289524
18	0x3da61b84	0.08110717
19	0x3da37be2	0.07982613
20	0x3cae8791	0.021304877
21	0x3d226f80	0.039657116
22	0x3d9316d9	0.07182092
23	0x3d867eeb	0.065671764
24	0x3d86bd60	0.06579089
25	0xb8d486f8	-0.00010134088
26	0xba1b94a7	-0.00059349317
27	0x3c8755ff	0.016520498
28	0xbb318a00	-0.002709031
29	0x3c61fc8e	0.013793124
30	0x3bf2257c	0.0073897224
31	0xbceb5996	-0.028729241
32	0x3b839548	0.0040155984
33	0xbb36b2ef	-0.0027877649
34	0xbce86f39	-0.028373348
35	0x3bc968f3	0.006146544
36	0x3c20d196	0.009815594
37	0x3d10f503	0.03538991
38	0x3d2ad575	0.041707475
39	0x389198b5	6.942583e-05
40	0xbc862065	-0.016372869
41	0x3c86826c	0.016419612
42	0x3d87596c	0.06608853
43	0x3cefb220	0.029259741
44	0xbc0dea17	-0.008661768
45	0xbc667566	-0.014066076
46	0xbcf71c7f	-0.030164955
47	0xbc16a9d1	-0.009195761
48	0xbc9bb937	-0.019009216
49	0xbbb79cf4	-0.005603427
50	0x3c65f249	0.014034816
51	0x3cef5367	0.029214574
52	0x3afb1e79	0.0019158862
53	0x3cbe83d6	0.023256224
54	0x3d04a869	0.03238717
55	0x3bc75588	0.006083194
56	0x3c689acb	0.014197062
57	0xbca88ca1	-0.02057487
58	0x3c94b7c0	0.018154025
59	0x3d1b2102	0.037873276
60	0xbc23e301	-0.010002852
61	0xbd2b4bc5	-0.041820306
62	0xbdc9cc53	-0.09853425
63	0xbb6486f4	-0.0034870477
64	0x3d1472e3	0.036242377
65	0x3d2dc5f8	0.042425126
66	0x3d804129	0.06262428
67	0x3c995529	0.018717365
68	0x3d36f710	0.04466921
69	0x3d5e5dc5	0.054288644
70	0x3d2d2614	0.042272642
71	0x3d97e89c	0.074174136
72	0x3d2e7302	0.04259015
73	0x3d5d56b6	0.054037772
74	0x3d30c42a	0.043155827
75	0x3d6311e0	0.05543697
76	0x3d6557e5	0.055992026
77	0x3dc9f1c3	0.098605655
78	0x3d7fbe40	0.062437296
79	0x3d134515	0.035954554
80	0x3dce4217	0.100711994
81	0x3d0cd9f8	0.03438756
82	0x3b891c58	0.004184287
83	0x3db6e975	0.08931247
84	0x3d504ea6	0.050856255
85	0x3dcc7d52	0.099848405
86	0xbe4631a4	-0.19354874
87	0xbec6a3ca	-0.38796836
88	0x3b817492	0.003950664
89	0x3d286080	0.041107655
90	0x3d51b37d	0.051196564
91	0xbd6b4c2d	-0.057445694
92	0xbda6f568	-0.08152276
93	0x3d6e03f4	0.05810924
94	0x3cfcf4b4	0.030878402
95	0x3d8431a0	0.06454778
96	0x3cea3bfd	0.028593058
97	0x3d75d05d	0.060013164
98	0x3d382610	0.044958174
99	0x3d179be3	0.0370139
100	0x3c7213e3	0.014775249
101	0x3d2faaec	0.042887613
102	0x3c9f6e4d	0.019461775
103	0xbc34299d	-0.0109962495
104	0xbcbe1460	-0.023203075
105	0x3d3e2616	0.04642304
106	0x3d85da35	0.0653576
107	0x3d4a2d49	0.049359594
108	0x3cc490e7	0.023994876
109	0xbaf69ba9	-0.0018814701
110	0x3d0ecb8c	0.034862086
111	0x3dc817f7	0.09770196
112	0x3d62f2e9	0.05540744
113	0x3d0c2701	0.034216885
114	0x3b0518e7	0.0020309032
115	0x3bf1e92a	0.0073825317
116	0xbd50c481	-0.05096865
117	0xba0fc717	-0.0005484684
118	0x3c86ed49	0.016470568
119	0xbc32fd01	-0.010924579
120	0xbc8989ab	-0.016789278
121	0xbd002e41	-0.03129411
122	0xbce79574	-0.028269507
123	0xbba2358d	-0.0049502314
124	0xbc9c0709	-0.019046323
125	0xbb094c81	-0.002095014
126	0x3bd5d4a7	0.0065255943
127	0x3c4067e7	0.011743522
128	0x3c6315ff	0.013860225
129	0x3c0a330a	0.00843502
130	0xbd390707	-0.045172717
131	0xbc1b1077	-0.009464375
132	0x3acb2787	0.0015499451
133	0xbc6f4a49	-0.014605113
134	0xbcbf3458	-0.02334039
135	0xbd2965e7	-0.041356947
136	0xbd15a78c	-0.03653674
137	0xbd820e3f	-0.063503735
138	0xbd00ff85	-0.031493682
139	0xbd374267	-0.04474106
140	0xbd070ec7	-0.032973077
141	0xbd111ee9	-0.03542987
142	0xbcf6f871	-0.030147763
143	0xbd30bfc7	-0.043151643
144	0xbd5386c2	-0.051642187
145	0xbc4928a5	-0.012277757
146	0xbcceb746	-0.025233876
147	0xbd64131d	-0.05568229
148	0xbd923484	-0.07138923
149	0xbc9fa9c1	-0.019490125
150	0x3d9641ba	0.07336755
151	0x3d85ac83	0.065270446
152	0x3dddae4a	0.108242586
153	0x3d9a7c85	0.075432815
154	0x3d2d7f3e	0.042357676
155	0x3d9fd0e9	0.07803518
156	0x3dca7ca7	0.09887057
157	0x3e13e29d	0.14441915
158	0x3ddf4cea	0.10903342
159	0x3d7bd339	0.061480734
160	0x3daa036a	0.083014324
161	0x3e075bc1	0.13218595
162	0x3e4c3b53	0.19944505
163	0x3e10e356	0.14149222
164	0x3da54de3	0.08071496
165	0x3d9173ef	0.07102191
166	0x3dc3ef54	0.095671326
167	0x3e08f0a2	0.13373044
168	0x3dfc3a96	0.12315862
169	0x3db8eb22	0.09029223
170	0x3d82e713	0.0639173
171	0x3daec746	0.08534102
172	0x3db01ede	0.085996374
173	0x3daa1607	0.08304983
174	0x3dafd592	0.08585657
175	0x3cfd8b67	0.030950261
176	0x3cadf814	0.021236457
177	0x3d2adaf8	0.04171273
178	0x3cdb028a	0.02673461
179	0x3c5bce55	0.013415893
180	0x3cda7c9f	0.026670752
181	0x3cf8f3ba	0.030389655
182	0xbc614441	-0.013749183
183	0xbc74d2c8	-0.014942832
184	0x3c87f7d9	0.016597675
185	0x3cad84d1	0.021181496
186	0xbd4e6592	-0.050389834
187	0xbdc0c0fd	-0.094118096
188	0xbcdd7ce6	-0.027037095
189	0x3d0b9927	0.034081604
190	0x3c485afa	0.012228722
191	0xbc937aca	-0.018002886
192	0xbca524f5	-0.020159224
193	0x3cf20bac	0.029546581
194	0xbb9d9c2b	-0.0048098764
195	0xbb7ac686	-0.0038265302
196	0x3ca60b4a	0.020269055
197	0x3cae3a77	0.021268113
198	0x3c58436f	0.013199671
199	0xbc606016	-0.013694784
200	0xbde963ae	-0.113959655
201	0xbe0139af	-0.12619661
202	0xbdf99662	-0.12186886
203	0xbdf7b998	-0.12095946
204	0xbd9d4779	-0.07679648
205	0xbe075383	-0.13215451
206	0xbe48fb29	-0.1962706
207	0xbe5f1fe3	-0.21789508
208	0xbe38d0dd	-0.18048425
209	0xbe09727c	-0.13422579
210	0xbe1394ad	-0.14412184
211	0xbe7345fe	-0.23757169
212	0xbe7f8042	-0.2495127
213	0xbe61a011	-0.22033717
214	0xbe12dc4b	-0.14341848
215	0xbe00e135	-0.1258591
216	0xbe5a3d88	-0.21312535
217	0xbe6b445f	-0.229753
218	0xbe617f4a	-0.22021213
219	0xbe30233b	-0.1720094
220	0xbdf4cfa1	-0.119536646
221	0xbe14a8fd	-0.14517589
222	0xbe2bf84b	-0.16793935
223	0xbe3245bc	-0.17409414
224	0xbe1bbcf2	-0.15208796
225	0x3d7d6c84	0.061871067
226	0x3c8e9f3d	0.017409915
227	0x3cafe8c3	0.021473294
228	0x3d455e1a	0.048185445
229	0x3c9d7d79	0.01922487
230	0x3d29271c	0.041297063
231	0xbc3cf73e	-0.0115335565
232	0x3caf6c9c	0.021414094
233	0x3d7b5c41	0.061367277
234	0x3d3631c2	0.044481046
235	0x3c6443ad	0.013932151
236	0xbd8d2fe3	-0.06893899
237	0xbdf44adb	-0.1192834
238	0x3ccf5ebb	0.025313726
239	0xbca7b83a	-0.020473588
240	0x3c8cb83f	0.0171777
241	0xbcba2572	-0.022722933
242	0xbdb0801b	-0.08618184
243	0x3baa25b1	0.0051924814
244	0x3ca5bb41	0.020230891
245	0x3cb8afc1	0.022544743
246	0xbd547715	-0.051871378
247	0xbd9e0aeb	-0.07716926
248	0x3c998231	0.018738838
249	0x3c06cd92	0.008227723
250	0x3b470a5c	0.0030371165
251	0xbc96daf5	-0.018414954
252	0xbd413aac	-0.047175094
253	0x3a9c3544	0.001191773
254	0x3c97cb93	0.018529689
255	0xbbc5e0e1	-0.0060387705

model.cell_list.2.conv_cc.bias f4 [16]
0	0xbfa4e9bf	-1.2883834
1	0xbf8961e9	-1.0733005
2	0xbf7d6646	-0.9898418
3	0xbf318d28	-0.6935601
4	0xbf7a30ba	-0.977306
5	0xbf671d00	-0.90278625
6	0xbf0799c5	-0.5296901
7	0xbf761cee	-0.96137893
8	0xbc9b3ef4	-0.018950917
9	0xbc4b9269	-0.012425044
10	0xbc020674	-0.007936109
11	0xbc9c9eab	-0.019118628
12	0xbf96dfb8	-1.1787024
13	0xbf8ba2a8	-1.0909014
14	0xbf4d2c3f	-0.8014564
15	0xbf2b1435	-0.6682771

model.cell_list.2.conv_ll.weight f4 [12, 4, 5, 5]
0	0xbe1c3e3d	-0.15258117
1	0xbdb2ec04	-0.08736423
2	0xbdf83554	-0.121195465
3	0xbdd1003a	-0.10205121
4	0xbe0740e6	-0.1320835
5	0xbde1482e	-0.11000095
6	0xbdbf0508	-0.093271315
7	0xbe16b362	-0.14716867
8	0xbe0cc6a1	-0.13747646
9	0xbdc9155a	-0.098185256
10	0xbe13aed6	-0.14422163
11	0xbe2c9987	-0.16855441
12	0xbe9c4362	-0.3052016
13	0xbe3d5219	-0.18488349
14	0xbe28ff6e	-0.16503689
15	0xbddbd305	-0.10733608
16	0xbded6c95	-0.11592976
17	0xbe7b8b2f	-0.24564813
18	0xbe0b7207	-0.13617717
19	0xbe0e00e2	-0.13867524
20	0xbdee423f	-0.11633729
21	0xbd980591	-0.07422937
22	0xbdd16598	-0.102244556
23	0xbdd25f98	-0.10272139
24	0xbdd9b23b	-0.10629698
25	0xbccfb3b0	-0.025354236
26	0xbd058349	-0.032595906
27	0x3bf5d7d4	0.0075025354
28	0xbc7bedf6	-0.0153765585
29	0xbd0a9ceb	-0.033841055
30	0xbd190f3e	-0.03736805
31	0xbaa4b732	-0.0012566803
32	0xbd925390	-0.071448445
33	0xbd35aa18	-0.044351667
34	0xbbed4436	-0.0072407974
35	0xbd03dc8e	-0.03219276
36	0xbd3d328e	-0.04619079
37	0xbdc25c44	-0.094902545
38	0xbdbe87c6	-0.093032405
39	0xbccad681	-0.024760487
40	0xbd1768f9	-0.036965344
41	0xbd80f207	-0.06296163
42	0xbd96c53c	-0.07361838
43	0xbd62e7f5	-0.055396993
44	0xbc4e8dec	-0.012607079
45	0xbcb76ef5	-0.022391776
46	0x3c4083a2	0.011750134
47	0xbc592d77	-0.013255469
48	0xbc384ecd	-0.011249256
49	0x3d4b2f11	0.049605433
50	0xbd8dec26	-0.06929807
51	0xbd56f9e3	-0.052484404
52	0xbd20e117	-0.039277162
53	0xbd3cb9d2	-0.04607565
54	0xbcd0df9e	-0.025497254
55	0xbd21574a	-0.039389886
56	0xbda67f29	-0.081297226
57	0xbd54facd	-0.051996995
58	0xbd4ecbec	-0.050487444
59	0xbc4cca1f	-0.012499361
60	0xbd721bff	-0.05910873
61	0xbd6f6ea7	-0.058455136
62	0xbd97ecbe	-0.07418202
63	0xbd6bd880	-0.057579517
64	0xbd298086	-0.041382335
65	0xbd7fd5cb	-0.06245975
66	0xbd8c8a6f	-0.068623416
67	0xbd8c3908	-0.06846815
68	0xbdb7dfde	-0.08978246
69	0xbcc79a04	-0.024365433
70	0xbd2f6ba6	-0.04282727
71	0xbd3c30d7	-0.045945015
72	0xbd590183	-0.052979957
73	0xbca67cc2	-0.020323161
74	0xbcb193e4	-0.021676965
75	0x3cf4ba55	0.029874006
76	0x3d78c345	0.0607331
77	0x3d8aa9dd	0.0677068
78	0x3d63a406	0.055576347
79	0x3caba59f	0.020952998
80	0x3d6de94b	0.058083814
81	0x3ce8eca9	0.02843316
82	0x3c795767	0.015218592
83	0x3d2f1a7a	0.04274986
84	0x3c0dfc47	0.008666105
85	0x3d88ce21	0.06679941
86	0x3ce1c2b4	0.027558662
87	0xbc97cd8c	-0.01853063
88	0x3cff9045	0.031196723
89	0x3d33ab02	0.043864258
90	0x3d2afb10	0.041743338
91	0x3d2600eb	0.04052822
92	0x3d031c4c	0.032009408
93	0x3d51e4ae	0.051243477
94	0x3d459370	0.04823631
95	0x3c0c7ecd	0.008575154
96	0x3d07ba73	0.033136796
97	0x3d3f78b3	0.046745967
98	0x3ca6fe60	0.020384967
99	0xbb99629e	-0.0046809455
100	0x3d411085	0.047134895
101	0x3b8817f5	0.0041532465
102	0x3a196947	0.00058521744
103	0x3c91640c	0.017747901
104	0x3d067d6b	0.03283445
105	0xbcaa9379	-0.020822274
106	0xbd29752a	-0.041371502
107	0xbde222eb	-0.11041816
108	0xbd91f081	-0.071259506
109	0xbd2140eb	-0.03936855
110	0xbd42345c	-0.047413215
111	0xbe08fe67	-0.13378297
112	0xbeb04146	-0.344248
113	0xbdf729c3	-0.12068512
114	0xbd9fe223	-0.07806804
115	0x3ade3d20	0.0016955473
116	0xbddb8354	-0.10718408
117	0xbe120349	-0.14259066
118	0xbd996476	-0.074898645
119	0xbd679598	-0.056539148
120	0x3d3bb61d	0.045827974
121	0xbc0bddaf	-0.00853674
122	0xbcd42c04	-0.025899895
123	0xbcef0a4e	-0.029179718
124	0xbc0cad89	-0.008586296
125	0x3d37c948	0.04486969
126	0x3c172bd5	0.009226759
127	0x3d24b207	0.040208843
128	0x3c9cbcbc	0.019132964
129	0xbc7d765d	-0.015470115
130	0x3d35dbfd	0.04439925
131	0x3ca0143f	0.019540904
132	0x3c99ee3f	0.018790362
133	0xbd1f66a1	-0.038916234
134	0xbb74b9cc	-0.003734219
135	0x3d6dff82	0.058105
136	0xbc548f5d	-0.012973634
137	0xbdb3a46c	-0.08771595
138	0xbbc82e35	-0.006109024
139	0xbc3ba42d	-0.011452717
140	0xbbce6246	-0.006298336
141	0x3ba6775d	0.005080147
142	0xbb0ba293	-0.0021306619
143	0xbccfcffd	-0.025367731
144	0xbbda42be	-0.0066607883
145	0x3cd795ee	0.02631661
146	0x3c3f2901	0.011667491
147	0x3c927d63	0.017882055
148	0x3bfc71dc	0.007704003
149	0xbcfedf3e	-0.03111231
150	0xbd0fcd5a	-0.035107948
151	0xbdac9015	-0.08425919
152	0xbd5487c8	-0.051887304
153	0xbd02e3b1	-0.031955425
154	0xbcfa3ac2	-0.030545596
155	0xbd7a6d65	-0.061139483
156	0xbdd2d86b	-0.10295185
157	0xbdabbef5	-0.083860315
158	0xbd739ceb	-0.05947582
159	0xbd2e06d7	-0.04248699
160	0xbd8c074b	-0.068373285
161	0xbdb42924	-0.087969095
162	0xbdfdf02a	-0.12399323
163	0xbdd6b2f0	-0.10483348
164	0xbdc1584b	-0.09440669
165	0xbd540422	-0.051761754
166	0xbda7604d	-0.08172665
167	0xbdbd6201	-0.092472084
168	0xbdd3ad96	-0.10335843
169	0xbde78d44	-0.11306241
170	0xbd726edb	-0.05918775
171	0xbdcd9a13	-0.10039153
172	0xbdc6b931	-0.09703291
173	0xbdca1bfb	-0.09868618
174	0xbda0f75b	-0.07859679
175	0x3c90254a	0.017595906
176	0x3d92b734	0.071638495
177	0x3d6aa6b3	0.057287883
178	0x3d767de0	0.060178638
179	0x3d41077b	0.047126275
180	0x3d82ad3c	0.06380698
181	0x3cf90a0e	0.030400302
182	0x3d715c77	0.058926072
183	0x3d975714	0.07389656
184	0x3d0ff205	0.035142917
185	0x3d84a84d	0.06477413
186	0x3d31d92b	0.04342
187	0xbad44cb9	-0.0016197182
188	0x3dcd8082	0.100342765
189	0x3d74d690	0.059774935
190	0x3d670987	0.05640557
191	0x3d3a1bbf	0.045436617
192	0x3d9f454f	0.077768914
193	0x3d5b85df	0.053594466
194	0x3d3f5e01	0.04672051
195	0x3d10400b	0.035217326
196	0x3d1a1f2c	0.037627384
197	0x3ce41e1b	0.027846387
198	0x3d04c83d	0.032417525
199	0x3d2bd1fe	0.04194831
200	0x3d7c7c73	0.06164212
201	0x3d0ca9a1	0.03434146
202	0x3ca00b2c	0.019536577
203	0x3d3962fd	0.04526042
204	0x3d2da3c1	0.042392496
205	0x3d041fd0	0.0322569
206	0xbcade501	-0.021227362
207	0xbd636025	-0.055511612
208	0xbca6faff	-0.020383356
209	0x3cdafe9e	0.026732739
210	0x3ab87e11	0.0014075657
211	0xbdda7985	-0.10667709
212	0xbe7ed4fd	-0.24885936
213	0xbde60e37	-0.1123318
214	0xbc8592a0	-0.016305268
215	0x3c9a46e2	0.018832628
216	0xbd55a93e	-0.052163355
217	0xbdd830bc	-0.1055617
218	0xbda03d83	-0.078242324
219	0x3b7ca8ea	0.003855283
220	0x3d0aa8af	0.033852275
221	0xbc98922e	-0.018624391
222	0xbc375396	-0.011189362
223	0x3c2a200a	0.010383615
224	0x3d092a6d	0.033487726
225	0xbcf6878a	-0.030093927
226	0xbc9ecfb8	-0.019386157
227	0xbbb901e0	-0.0056459755
228	0xbaa9707e	-0.0012927202
229	0x3ca32cfa	0.019918907
230	0xbcc00b92	-0.023443017
231	0xbc9ef849	-0.019405501
232	0xbd90e71d	-0.07075331
233	0xbd66ab92	-0.056315966
234	0x3ad5872e	0.0016290897
235	0xbc9fadd3	-0.019492066
236	0xbd9da41a	-0.076973155
237	0xbe263211	-0.16230036
238	0xbdad0878	-0.08448881
239	0xbce0e1a7	-0.02745135
240	0xbc8974ba	-0.016779292
241	0xbd7ddc7c	-0.06197785
242	0xbd893b35	-0.06700746
243	0xbc7728f7	-0.01508545
244	0x3959caf6	0.00020770342
245	0x3d01737a	0.031604268
246	0x3b9b119f	0.004732325
247	0xbcc2dfe0	-0.023788393
248	0xbc7c7638	-0.015409045
249	0xbbc03863	-0.005866097
250	0x3c8ea155	0.017410913
251	0xbcc5d4fe	-0.024149414
252	0xbcce5422	-0.025186602
253	0xbbb7f91d	-0.0056144134
254	0xbaefa463	-0.0018283244
255	0xbd370d7c	-0.044690594
