trained_models/validated_model.ckpt (torch, 856907 bytes, 9 tensors)

model.cell_list.0.conv_cc.weight f4 [80, 31, 5, 5]
00000000: f070 98bd 0cdf aabd 43e7 9cbd e96f 86bd
00000010: 62fb 91bd 90e5 9fbd bfa8 b0bd c652 96bd
00000020: d536 8dbd d6f3 84bd fedc a7bd 15ab afbd
00000030: 83fe 99bd 57dd 8ebd 38bb 7ebd d957 a2bd
00000040: fd06 a1bd 7ab1 92bd 3801 5abd af78 4fbd
00000050: 39b3 92bd 8529 94bd a8da 7bbd b001 62bd
00000060: 91a3 3fbd e52b 91bc cdb3 06bc 48ad 0a3a
00000070: a396 1abc b668 adba 98d2 78bc 834b 44bb
00000080: 77e0 143c 6ac8 7cba d41a 09bc df85 abbc
00000090: e5cf a3ba 9480 c93b 0491 833c 7eb3 84ba
000000a0: f43f 0fbc 8f6d 2fbc 2773 3c3c a91b 413c
000000b0: c6e9 723a 59d0 26bc 3a0a 29bc ef8b e03b
000000c0: c57c c73b 7a3c a63b c953 203d 88e9 463d
000000d0: 9446 873d 98be 803d 7718 8f3d 564e 723d
000000e0: 29cc 823d 35ff 983d 739a af3d 3807 993d
000000f0: fe69 463d 1d77 983d 4336 bd3d 97a6 c93d
00000100: 07e8 953d 8b9f 4b3d eff9 843d b1c7 a93d
00000110: 5172 a43d 516d 903d d952 5b3d ea08 6c3d
00000120: 00fa a03d 0187 a13d b71b 9b3d eef5 c3bc
00000130: 7569 dbbb 6976 f23a f260 68bc 5578 73bc
00000140: d758 debc 8127 cdbb 9c04 4d3c 16cf 9e3a
00000150: a7c1 17bc 7bcb b3bc 1dd4 9dba f49a c73c
00000160: fc9c fc3b c18e bbbb 5ada a7bc f301 09bc
00000170: 9595 133c d76c 113b 0ba2 97bc fc5e 02bd
00000180: 866f 29bc c558 debb 0271 73bc 80ac 96bc
00000190: b131 4cbc 2af5 23bc e2ae 06bb adf4 ddbb
000001a0: 5e3a e2bc bf25 a1bc 1931 e83a 2e09 cfbb
000001b0: 2853 27bb adf4 8bbc 75f9 42bc 4078 8bbb
000001c0: 5140 62bb de94 6dbc 5686 98bc 8c6c 49bc
000001d0: 00ea babb 75aa 0cbc 7f1c acbc bf84 03bd
000001e0: 32d1 1abd 0340 c8bc de67 95bc 3b92 00bd
000001f0: c82a 0cbd e561 92bc 6f58 adbc bf85 7dbc
00000200: 20a7 12bc 6191 b2bb d312 7fbc 70c4 19bc
00000210: 6d64 8ebb 28e4 b3bb c70e a5bb 9c73 05bb
00000220: f5e4 3fbb c48f bdbb 7ceb 4fbc afdc 57bc
00000230: 3d1f f7bb 8346 a9bb 7efb 12bc 7c45 88ba
00000240: 3f82 50ba cf68 05bb 527b 203b c526 043b
00000250: 2915 963b 82f5 ba3b a730 213d ac5a 4b3d
00000260: 3056 293d 628e 2c3d e354 103d b4a1 173d
00000270: 50fa 193d 978b 1f3d ad48 443d fdf8 233d
00000280: 1e8a 143d bbdc 383d af6d 373d 1e78 423d
00000290: a822 1e3d d46c 333d 5b79 213d 9c7f 263d
000002a0: 330a 153d 376a 203d 4449 233d 91fe 3a3d
000002b0: 7fd7 333d d688 363d 1ced 4e3d 0223 dabb
000002c0: 020b 10bc cbe0 5bbc a1c8 a1bc d7ec 15bc
000002d0: b2b5 91bc bef2 85bc cb22 b4bc 8511 90bc
000002e0: 9af6 b2bc 9033 3ebc f111 cfbc 5870 c6bc
000002f0: 7031 9dbc f7e0 c3bc d2a7 a6bc d4b7 d4bc
00000300: 70e1 d6bc 378e bbbc 43ef 97bc 6eb6 07bd
00000310: a224 c4bc 8108 b6bc a8e0 a6bc 4ef7 0bbd
00000320: f6cc 3dbd 1de2 5cbd 3c5f 2abd e3af 51bd
00000330: 9552 32bd ff89 44bd 6ff1 47bd 0c6c 46bd
00000340: 6f03 40bd 0579 36bd 2958 40bd 9ebf 3bbd
00000350: 7edb 61bd cb45 2ebd dabc 29bd 0e29 2bbd
00000360: 27eb 2dbd 2e25 5cbd 8903 51bd df59 29bd
00000370: 586d 5dbd 018f 28bd 0c2a 5ebd c48c 5bbd
00000380: 4abd 35bd dd3c 59bd a7bf 49bd 0a74 2bbd
00000390: f969 29bd 0193 24bd 6be4 48bd a31b 5bbd
000003a0: cb48 23bd 193b 49bd 1f8e 4fbd 5eac 3abd
000003b0: b494 58bd dd98 2dbd 5e95 2ebd 6a96 5bbd
000003c0: ba58 5cbd 5d1f 45bd 410a 35bd 9146 43bd
000003d0: 436d 52bd bb8d 41bd 2c13 60bd 37ae 58bd
000003e0: 7164 57bd 4a3e 28bd 7911 22bb 6907 43bc
000003f0: 95df 11bc 558b bdbb 1bef 07bc e3a3 57bc
-0.07443416 -0.08343324 -0.07661297 -0.06564314 -0.071280256 -0.078074574 -0.08625936 -0.073400065
-0.06895224 -0.064918205 -0.08196448 -0.08577553 -0.075192474 -0.06975811 -0.062190264 -0.07926912
-0.07862661 -0.07162757 -0.05322382 -0.050652202 -0.0716309 -0.07234482 -0.061487824 -0.05517739
-0.04678685 -0.017721126 -0.008221579 0.0005290103 -0.009435329 -0.0013230059 -0.015186928 -0.0029952235
0.00908672 -0.0009642901 -0.008368213 -0.020937858 -0.001249787 0.006149361 0.01606036 -0.0010124294
-0.008743275 -0.010707273 0.011502064 0.01178638 0.00092664023 -0.01018151 -0.01031738 0.006852619
0.0060878717 0.0050731273 0.039142404 0.048562557 0.066052586 0.06286353 0.06987088 0.05915674
0.06386597 0.07470552 0.08574381 0.0747208 0.048440926 0.07444594 0.09238865 0.098462276
0.07319646 0.0497127 0.064929835 0.08290041 0.080296166 0.070521004 0.053545807 0.05762569
0.07860184 0.07887078 0.075736456 -0.02392098 -0.006695921 0.0018498424 -0.01418327 -0.014860232
-0.027141972 -0.0062608127 0.012513306 0.001211616 -0.009262479 -0.021947613 -0.0012041364 0.02436588
0.0077091437 -0.0057238047 -0.02048986 -0.008362281 0.009007831 0.0022190118 -0.018509885 -0.031828865
-0.010341531 -0.0067854845 -0.014858486 -0.018392801 -0.012463019 -0.010007182 -0.0020551016 -0.0067735524
-0.027615722 -0.019671319 0.0017714828 -0.006318233 -0.0025531743 -0.017084444 -0.0119002955 -0.0042562783
-0.00345232 -0.014500825 -0.018618744 -0.012293946 -0.0057041645 -0.008585562 -0.021009682 -0.03210902
-0.03779716 -0.024444586 -0.018238004 -0.031389456 -0.034220487 -0.017868945 -0.021160332 -0.015473782
-0.0089509785 -0.0054494594 -0.015568453 -0.009385213 -0.004345468 -0.005489845 -0.005037162 -0.0020363098
-0.0029280756 -0.0057849605 -0.012690421 -0.013175174 -0.0075415657 -0.0051658764 -0.008971093 -0.0010396685
-0.00079539785 -0.002035666 0.0024487567 0.002016471 0.004580159 0.0057055363 0.03935304 0.04964702
0.04134196 0.042127974 0.035237204 0.037019446 0.037592232 0.038951483 0.04792087 0.040032376
0.03626453 0.04513238 0.044782337 0.047477834 0.03860727 0.04380496 0.039422374 0.04064904
0.03638668 0.039163794 0.039864793 0.04565293 0.043906685 0.04456409 0.050519094 -0.0066570053
-0.008791687 -0.013420294 -0.019748988 -0.009150705 -0.017786834 -0.0163511 -0.021989247 -0.017586479
-0.021846104 -0.011608973 -0.02527711 -0.024223492 -0.019188613 -0.023910983 -0.020343695 -0.025966562
-0.026230544 -0.022894962 -0.018546706 -0.033132963 -0.02394325 -0.022220852 -0.020370796 -0.034171395
-0.046338044 -0.053926576 -0.04159473 -0.05119313 -0.043535788 -0.047983166 -0.048814233 -0.048442885
-0.046878275 -0.044549007 -0.046959076 -0.045837037 -0.055140965 -0.04254703 -0.04143987 -0.0417872
-0.042460587 -0.053746395 -0.051028762 -0.041345473 -0.054059356 -0.041152004 -0.054239318 -0.05360104
-0.044369973 -0.05303656 -0.04925504 -0.04185871 -0.04136083 -0.040179256 -0.04904596 -0.053493153
-0.039864343 -0.049128626 -0.050672647 -0.04557454 -0.05287619 -0.04238211 -0.042622916 -0.053610243
-0.053795554 -0.048125613 -0.044199232 -0.04767472 -0.05137373 -0.047254305 -0.054705784 -0.05290052
-0.052586023 -0.04107503 -0.0024729653 -0.011903622 -0.008903404 -0.005784432 -0.008296753 -0.013161632

model.cell_list.0.conv_cc.bias f4 [80]
00000000: d639 543d 8807 f2bd 0399 453e bf31 a73c
00000010: bd97 66bd a331 7f3d 7aa4 92bd bd52 263e
00000020: a8ce 14bd 4453 6abe 37b5 9b3b e299 29be
00000030: f75d 3a3e f52e b23d e3ea 4a3e a51c 40bc
00000040: 5959 3fbd e78c 5c3e 5fdf 7cbd 0249 313e
00000050: 352e 37bd 795a 983d 7ac2 3a3e 878d 0a3e
00000060: 1a79 0a3d e391 123e 2629 f4bd 0b82 cf3d
00000070: 73f0 813d 69ae 5cbc f059 873d 1ffe 973d
00000080: 63e8 043e 2630 a5bd fdc1 493e f548 28bd
00000090: 3099 a5bd ef5e ff3d ceea 81bc dc31 343e
000000a0: 6838 99bc 9854 d53d 4bc0 f33d f335 debb
000000b0: 27b1 10bc a2ff d23c 09a5 983d 5b99 023e
000000c0: e581 f93d 0745 19be 76fc 47be 9bd7 7c3d
000000d0: 6e58 063e 68af 19bd 2a11 1bbe 8bb3 73be
000000e0: 30d6 0b3e 226f e8bd 4847 88bd e560 9c3d
000000f0: 586a bb3d ec2d 71bd ecaf 1a3e 5f20 47bd
00000100: e8a4 33bd 152d d43a 410f bfbd 5906 183e
00000110: 1907 383d 96ca 003e 4191 97bc 008c d13c
00000120: 4cbd 093e 8653 043e 4484 2e3e aff0 2e3d
00000130: 80fe ffbc 4b15 9c3c 312d 183d bc85 c83d
0.05181297 -0.11817843 0.1929665 0.020409463 -0.056297053 0.062303197 -0.07160278 0.162425
-0.036329895 -0.22883326 0.004751827 -0.16562608 0.18199907 0.087003626 0.19816165 -0.011725579
-0.046716068 0.21538125 -0.06173646 0.17313007 -0.0447218 0.07439131 0.1823825 0.13530551
0.033806898 0.14313464 -0.11921911 0.101322256 0.0634469 -0.013469317 0.06608951 0.074215166
0.12979273 -0.08065824 0.19702907 -0.041085202 -0.08085859 0.12469279 -0.015859034 0.17597145
-0.018703654 0.104165256 0.11901911 -0.0067813336 -0.008831299 0.02575666 0.07453353 0.12753813
0.121829785 -0.14967738 -0.195299 0.061729055 0.13119671 -0.037520796 -0.15143266 -0.23798959
0.13655925 -0.11349322 -0.06654221 0.07635669 0.09151143 -0.058881685 0.15106171 -0.048614856
-0.04385844 0.0016187752 -0.09329081 0.14846171 0.044928644 0.1257728 -0.01850188 0.025579453
0.13451117 0.12922487 0.17042643 0.042710003 -0.031249285 0.019053122 0.037152473 0.09791133

model.cell_list.0.conv_ll.weight f4 [60, 20, 5, 5]
00000000: 14f5 36be 3e47 24be c02d 1dbe edc9 1dbe
00000010: 0d6a 29be 12fa 1bbe b76b 0abe 9e32 0fbe
00000020: 20d9 08be bacd 1abe 0285 0fbe 7106 f5bd
00000030: e9da f8bd aa0b fdbd 6fb5 0dbe 7e05 17be
00000040: 6c62 f7bd f9bd 02be 4187 0bbe 76fa 0ebe
00000050: 2286 17be 856e 0ebe 5490 1dbe 7bec 0cbe
00000060: 272c 19be 929a 843d b4e3 5a3d 56b3 d33c
00000070: 0649 303c 319e 383c 2041 803d dcf6 2b3d
00000080: 26a1 b63c cbe6 2f3c e6d7 943c 7a1d 413d
00000090: a546 943b e6b1 02bc 1ace 6f3b 9c25 923c
000000a0: 01f0 c03c 27e6 4f3c 6deb f23b 92da ce3a
000000b0: d9f3 093c b083 023d b0c7 b03c 3c42 e6ba
000000c0: 7f01 823b cf0a 0f3c 5363 46bd 96c3 57bd
000000d0: 7073 3dbd 93c4 12bd 6061 37bd 75ad 25bd
000000e0: 1449 36bd 604b 0ebd d113 b6bc 9361 eabc
000000f0: efe5 29bd e4f4 cbbc f225 c6bc cfae 58bc
00000100: 397b 7bbc 1261 d4bc 1b64 f4bb 7db9 24bb
00000110: 43ea 2dbc 5d57 7fbc 9229 9dbc ddf1 9bbb
00000120: 8c2d 99bb f32a 1fba 93fd 0cbc 09db 13bd
00000130: a169 60bd cab0 8abd bd67 48bd 329a ffbc
00000140: 50ff 65bd 2bf7 9abd 4f98 cfbd b44f a8bd
00000150: 7159 66bd 0dbb 68bd 43e8 a5bd 95b9 d5bd
00000160: f043 cabd e0d1 8fbd 2335 49bd 2380 84bd
00000170: 7c92 98bd a7c6 9abd 75f9 90bd 3076 33bd
00000180: b656 4cbd 719d 85bd ee43 95bd 735e 81bd
00000190: b056 9fbb 5b90 993c 2e9c ef3c ec26 caba
000001a0: 678e 67bd 4a91 293c 0483 713d dc26 6d3d
000001b0: e4fe 013d a818 22bd 3915 57bb 9260 533d
000001c0: 11e3 843d da6e 4a3d a3d1 0ebd 8f28 53bc
000001d0: a863 d03c c322 803d 337b e13c bd4f ecbc
000001e0: 0f7f 3fbc 2c99 ba3b ea29 1b3d 03b1 963c
000001f0: a8a9 10bd 556c f73d f7e5 e03d 2729 cf3d
00000200: c381 b03d 8123 dd3d d5ca c73d bbc5 a53d
00000210: 9aea 9b3d 865b a23d 763c ab3d b9e4 bc3d
00000220: 5300 863d 3c00 833d 1b83 923d 46b6 ab3d
00000230: 2107 c43d fee7 b33d 0baf 9d3d 2c83 c63d
00000240: cccc dc3d 2a58 ee3d 6017 e23d 9a89 c63d
00000250: 46f8 d13d e93e fa3d 1e00 d43d debf a43d
00000260: 09a0 723d fe64 2d3d 65c8 463d 891f 973d
00000270: 2074 293d 93a0 f93c 3ac7 d63c ba8e 183d
00000280: 3180 943d e605 f53c 4bc1 883b abbf 243b
00000290: 58cb b73c e201 b73d 7a69 203d 2291 633c
000002a0: 5b97 a63c ec33 253d d5de d83d 3c86 9a3d
000002b0: 37cc 5a3d da49 623d ba0e a53d 7362 ca3c
000002c0: c05c c83c cde7 183d 3767 063d c908 173c
000002d0: 548c 8e3c 1a25 1d3d 4a80 3f3d 32b5 023d
000002e0: 143d c23b cb29 a13c aeff 0b3d 9ece d63c
000002f0: e0d3 593c 9fee a9bb c965 22b9 2829 213c
00000300: 1aaf 8f3b 70a9 603b b582 8bbc f0d0 c1bc
00000310: 8498 04ba 694a 5dbc e05d 90bc df9e dcbc
00000320: b9d1 efba 8427 133c 9db8 83bb 0ceb b23b
00000330: 2c30 4e3c 34bc d9bb aa51 1dbd 1c44 89bd
00000340: 15cf 4cbd 2094 913a 587b 5fbc 9e07 85bd
00000350: 4991 adbd 0d13 8ebd 75ba 54bc 4b34 a8bc
00000360: e36d 41bd fd70 a7bd 0292 97bd f08b fabc
00000370: 0ee6 35bd 7eae 63bd 25d0 47bd e121 48bd
00000380: 4cd7 16bd ddc5 a5bc 6dd3 66bd c257 a1bd
00000390: 120b 90bd 3fe5 1cbd 8b50 84bd 03ef c6bd
000003a0: cd3a f0bd 2e82 e0bd 8b7f 9abd d7d6 81bd
000003b0: 55b7 e0bd 411f 0fbe 1c86 f1bd 54cc 8bbd
000003c0: 2156 86bd 1453 bbbd de85 e5bd cba4 dfbd
000003d0: 873f 7fbd 8cc4 ddbc d376 69bd 7527 91bd
000003e0: 9b0e 8cbd 969f 08bd e1c3 8d3d 96d9 583d
000003f0: fc53 af3c 0a43 df3c e680 5c3d b0e7 393d
-0.17866927 -0.16042802 -0.15349483 -0.1540906 -0.16544361 -0.15232113 -0.13517652 -0.13984153
-0.13364077 -0.15117541 -0.14015582 -0.11964119 -0.12151129 -0.1235574 -0.13838743 -0.14748189
-0.12079319 -0.12767781 -0.13625814 -0.13962731 -0.14797261 -0.13909347 -0.15387088 -0.13762085
-0.14958249 0.064747944 0.05343981 0.02584235 0.010759598 0.0112681845 0.062624216 0.04198347
0.022293638 0.010736178 0.018169355 0.04714725 0.004525023 -0.007976985 0.0036591352 0.0178402
0.023551943 0.01268915 0.007413319 0.0015781692 0.008419954 0.03186387 0.021579593 -0.0017567347
0.0039674635 0.008730604 -0.048434567 -0.05267676 -0.046252668 -0.035832 -0.0447706 -0.040448625
-0.044503286 -0.034739852 -0.022226246 -0.02861098 -0.041479047 -0.024897046 -0.024188016 -0.013225271
-0.015349203 -0.025925193 -0.0074582226 -0.0025134974 -0.010614934 -0.015584794 -0.019184861 -0.004759057
-0.004674619 -0.00060717686 -0.008605379 -0.03609756 -0.054788236 -0.06772001 -0.048927058 -0.031201456
-0.056151688 -0.07566675 -0.101364724 -0.08218327 -0.05623764 -0.05681901 -0.08100941 -0.104357876
-0.09876239 -0.07022452 -0.04912294 -0.06469753 -0.07449815 -0.07557421 -0.0707883 -0.043813884
-0.04988738 -0.0652417 -0.07288347 -0.06316843 -0.004862629 0.018745592 0.029249277 -0.0015422977
-0.05653229 0.010349581 0.058962837 0.057898387 0.031737223 -0.039574295 -0.0032819046 0.05160577
0.06488622 0.049422123 -0.034867894 -0.012888088 0.025438145 0.0625663 0.027524566 -0.028846616
-0.011688008 0.005694529 0.03788177 0.018394953 -0.035318047 0.120812096 0.10981362 0.10115271
0.086185 0.107977875 0.09755484 0.08094355 0.07613106 0.07927613 0.083611414 0.09223313
0.065430306 0.06396529 0.07153913 0.08384375 0.09571672 0.087844834 0.076994024 0.09692988
0.107812494 0.1163791 0.11039615 0.09694214 0.102524325 0.122190304 0.10351585 0.08044408
0.059234653 0.04233264 0.048530955 0.07379062 0.04137051 0.030472076 0.026218046 0.03724549
0.07251013 0.02991004 0.004173433 0.0025138657 0.022435829 0.08935906 0.03916309 0.013889583
0.020335844 0.04033272 0.10589377 0.075451344 0.05341741 0.05524621 0.080594495 0.024705147
0.02445829 0.037330437 0.032813277 0.009218403 0.017400898 0.03836546 0.046753205 0.031911083
0.0059276912 0.019673249 0.034179382 0.02622157 0.013295144 -0.0051859166 -0.00015487442 0.009836473
0.0043848874 0.003428068 -0.0170301 -0.0236592 -0.0005058127 -0.01350651 -0.017622888 -0.026931224
-0.0018296755 0.008981589 -0.0040198104 0.0054601487 0.012584727 -0.00664475 -0.03840796 -0.06702444
-0.050002176 0.0011106767 -0.013640247 -0.064955935 -0.084749766 -0.069372274 -0.012983908 -0.020532748
-0.047223937 -0.08175848 -0.07400896 -0.030584306 -0.04440885 -0.05558633 -0.048782486 -0.048860434
-0.036826417 -0.02023595 -0.056353975 -0.078780666 -0.070333615 -0.038304564 -0.06460675 -0.097135566
-0.11729965 -0.1096233 -0.07543858 -0.063398056 -0.10972468 -0.13976766 -0.117931575 -0.06826082
-0.065593965 -0.09146705 -0.11207174 -0.10920104 -0.062316444 -0.02707126 -0.056998085 -0.07087604
-0.06838723 -0.033355318 0.069221266 0.05294188 0.021402352 0.027253646 0.053833865 0.04538697

model.cell_list.1.conv_cc.weight f4 [80, 40, 5, 5]
00000000: 79a3 b63d 752d c23d 608c dd3d 00a6 bd3d
00000010: fd66 c33d 9ef1 a93d 8da0 d73d 5103 e93d
00000020: 021a cc3d 020f be3d dc56 9e3d 4f22 c53d
00000030: 1d3f f13d 3687 e13d 5ced bb3d a7a3 a03d
00000040: 5f67 ab3d 4dd6 ca3d 3664 cf3d 3d78 cc3d
00000050: 2000 a73d 871f b63d 0500 be3d 9cd4 d33d
00000060: ac83 e13d 68c4 063e 8ccd 563d 283d d03c
00000070: 1bb0 843d 6f54 123e f912 093d c3ab cbbd
00000080: 95f0 19be 9e59 62bd 542d 7c3d 4458 11ba
00000090: 2bb0 1cbe a74e 62be 7038 04be 54f9 8a38
000000a0: a8a6 e13c 8ad5 d4bd 686f 2dbe 9c81 cebd
000000b0: 4517 37bc 908f 853d 9ed9 94bc 1e92 76bd
000000c0: 2ded b1bc af41 313d 2c94 ecbd e85c dcbd
000000d0: cfec c5bd 517f c5bd f54a d8bd caed babd
000000e0: f7aa 90bd c430 8bbd 4bd9 98bd 6442 c1bd
000000f0: 99d6 a2bd 50ee 93bd 3e18 72bd 3599 8bbd
00000100: 3251 b1bd b7b4 adbd 11fa 9abd 1797 8dbd
00000110: 33ef 8ebd 3aff 9fbd 0385 aabd a028 87bd
00000120: ee78 70bd 85e2 8abd 54d0 99bd d7a2 1a3e
00000130: 18a5 473e ef82 593e 73c6 4e3e 2aac 383e
00000140: eed9 393e 6e12 7e3e 2f01 8e3e 830e 833e
00000150: 68cf 553e cbeb 4b3e d834 8e3e feac 993e
00000160: 8792 823e 9d19 4d3e 29e4 2e3e ab38 6a3e
00000170: 1054 7e3e d090 4e3e 50c1 223e 5692 f83d
00000180: ca25 273e 8672 213e 881f 0f3e 694a f53d
00000190: 1f23 2b3e ef97 2a3e d6de 2d3e 4404 333e
000001a0: fd69 523e e922 1f3e fb02 2b3e 9bdf 293e
000001b0: eeaf 3d3e da5c 5f3e 247d 123e 3bd4 243e
000001c0: afbf 2a3e b6cc 4b3e b14a 6b3e cc8a 0f3e
000001d0: b13b 2a3e a47f 463e 8738 733e 14f4 843e
000001e0: d18a 1c3e 1801 4f3e 388b 763e 5dfe 8b3e
000001f0: ffeb 943e c228 83bc 0d43 1dbd 3113 60bd
00000200: 12c5 40bd 52d9 07bd c39d 60bd 9bb4 a6bd
00000210: d06c acbd c6ae a7bd e723 5bbd 2ab1 a6bd
00000220: d518 debd 9666 ecbd bcfc c3bd a103 43bd
00000230: 496d 7dbd ded6 d2bd bff9 e6bd 151a 9fbd
00000240: 8759 2dbd 8b1d 03bd 9ef3 6ebd 5a03 83bd
00000250: 58e7 48bd 901f b8bb 33da 2b3e 7832 333e
00000260: f8ee 2e3e 550d 203e 83fd 1f3e cc59 353e
00000270: cc23 3e3e 1423 3a3e 8ee2 303e 7d6c 213e
00000280: 0615 3a3e 3fdd 3f3e 056a 493e dd4f 403e
00000290: fafe 2a3e 8352 3b3e bf31 4a3e 1546 4b3e
000002a0: 31c7 4a3e 88ff 233e 6b4e 373e 26e1 403e
000002b0: 8aa8 4c3e 9705 493e a929 2f3e f4a8 85bb
000002c0: 4afb 27bc 1b25 c0bc 8efd edbc cd6e 28bd
000002d0: 0b3e 1cba d1a6 aeba dca0 e9bb 1ece abbc
000002e0: 4976 0dbd fb14 a83c e1d7 ef3c 0b83 1e3c
000002f0: 7d9b 5b3b 8625 d2bc 62d3 713c 0373 c23c
00000300: b4d7 ae3c eb19 bb3b f30f eebb a34b a43b
00000310: d77f 643c a6a5 953c 1ef5 863b db74 5dbc
00000320: ad61 ad3c ee1b 5abd 529d c4bd 1a86 bfbd
00000330: 9a50 a0bb 4836 99bd 196c 11be 3218 31be
00000340: b187 19be 6965 d6bc 459a e5bd 9eb8 0bbe
00000350: 326c dcbd 80e8 0abe 4b9b 85bd 7d29 7bbd
00000360: 2b77 56bd db1b 2fbd fe94 c0bd 618f 4abd
00000370: f510 b93d 3c61 333d 3c24 98ba 2f4f 9ebc
00000380: 1771 933d bd48 b43d e3e0 bc3d a6da e43d
00000390: 3077 193e f2f0 2c3e 5cb8 8c3d 6a49 593d
000003a0: 4523 a13d cdb0 013e 8fbb 203e 0ed5 443d
000003b0: e4b4 183d cf54 613d eb88 b93d bda7 093e
000003c0: 5cdc 193d 63e4 c73c a695 203d 8363 943d
000003d0: e7c4 da3d c11a 043d 10e6 f43c b884 3d3d
000003e0: e070 873d 5049 b73d 0760 51bd 3352 9abd
000003f0: 5a2c fabc d305 09bd e697 48bd 729c 85bd
0.08917899 0.094813265 0.1081779 0.092601776 0.09541128 0.08298038 0.105286695 0.11377586
0.09965898 0.09280206 0.07731411 0.096256845 0.11779616 0.110121176 0.09176132 0.07843714
0.08369326 0.09904156 0.101265356 0.09983871 0.08154321 0.08892732 0.092773475 0.103432864
0.110114425 0.1316086 0.05244212 0.025419787 0.06478902 0.14290021 0.03346536 -0.0994487
-0.15033181 -0.055261247 0.061566666 -0.00055444636 -0.15301578 -0.22100316 -0.12912154 6.626794e-05
0.027545288 -0.10392292 -0.1693703 -0.10083315 -0.0111749815 0.06521523 -0.018170174 -0.060197942
-0.02171954 0.04327553 -0.11551699 -0.10759908 -0.09664308 -0.09643424 -0.10561172 -0.09127386
-0.07063859 -0.06796411 -0.0746332 -0.09436491 -0.079510875 -0.07223189 -0.05910515 -0.06816331
-0.08658065 -0.08481734 -0.07567228 -0.06913584 -0.069792174 -0.078123525 -0.08326151 -0.065995455
-0.058709078 -0.067814864 -0.075104386 0.15101181 0.19496572 0.21241353 0.2019289 0.18034425
0.1814954 0.24811718 0.27735278 0.2559701 0.208799 0.19914167 0.27774692 0.30014795
0.25502416 0.20029302 0.17079224 0.2287318 0.24836755 0.20172429 0.15894055 0.12137286
0.16323009 0.15766343 0.13976872 0.11977083 0.16712616 0.1665952 0.16979536 0.17482096
0.20548244 0.15540661 0.16700356 0.16589205 0.18524143 0.21812764 0.1430555 0.16096584
0.16674684 0.1990231 0.22977711 0.1401779 0.16624333 0.19384629 0.23752032 0.25967467
0.1528733 0.20215261 0.24076545 0.273425 0.290863 -0.016010646 -0.038394023 -0.054705802
-0.04706294 -0.033166237 -0.054837953 -0.081399165 -0.08419192 -0.08187632 -0.053501036 -0.0813926
-0.1084458 -0.11543004 -0.0956969 -0.047610883 -0.0618718 -0.10294889 -0.11278104 -0.07768647
-0.042321708 -0.032010596 -0.0583378 -0.06397124 -0.04904875 -0.005618997 0.16782455 0.17499721
0.17083347 0.15630086 0.15624051 0.17710036 0.18568343 0.18177444 0.17273924 0.15764041
0.18172082 0.18736742 0.1966935 0.18780465 0.16698828 0.18293194 0.19745539 0.19850953
0.19802548 0.16015446 0.17901008 0.18835887 0.19986168 0.19631039 0.17105736 -0.0040789787
-0.010252783 -0.023455193 -0.029051568 -0.041121293 -0.0005960173 -0.0013324862 -0.0071297716 -0.020972308
-0.034536634 0.020517817 0.029277744 0.009674798 0.0033509426 -0.025652658 0.01475987 0.023736482
0.02134309 0.005709877 -0.007265085 0.0050138994 0.013946495 0.018267464 0.0041185757 -0.01351663
0.02116474 -0.053249292 -0.09600319 -0.0935175 -0.004892421 -0.074810565 -0.14201392 -0.17294386
-0.14993168 -0.026171403 -0.11211065 -0.13644645 -0.10762824 -0.13565254 -0.065237604 -0.061318863
-0.05235974 -0.042751174 -0.09403418 -0.049453143 0.090364374 0.0437939 -0.0011607478 -0.019324867
0.071993046 0.08802936 0.09222581 0.111745164 0.14986873 0.16888788 0.06871101 0.05304853
0.07868055 0.126651 0.15696548 0.048054747 0.037281886 0.05501252 0.09059318 0.13442893
0.037563667 0.024400895 0.039205216 0.07245543 0.106820874 0.032252077 0.029894859 0.04626915
0.06613326 0.0894953 -0.05111697 -0.075352095 -0.030538727 -0.03345282 -0.048972987 -0.0652398

model.cell_list.1.conv_cc.bias f4 [80]
00000000: 158c 94be f61c a4be 51d2 cdbe 9a09 eabe
00000010: 8a83 16bf 76cd 0abf 9ce5 b7be bf9a d9bd
00000020: 3c44 f7be 1c2c de3d cb93 913e 0c2d 20bf
00000030: 3607 983e 7f1a e5be fddd b4be 3996 03bf
00000040: b323 5e3e a6f8 85be b47c 86be 7eb9 093f
00000050: 8ef0 e6bc 2cfb 483e dab3 c8bd 7d22 923e
00000060: 511c 4b3e 864a 603c 091d c5ba b553 e43d
00000070: d211 2c3e ca20 1cbe e320 17be c7b9 053e
00000080: 09ff 883d 37fd 563c 3221 12be 3f68 863e
00000090: 0851 493e 1f71 693e 6b49 843e 2a70 2bbd
000000a0: d81c cd3c a695 cebb d36a 4c3d 2237 683c
000000b0: 3141 c0bd e0df ffbd d5e0 ecbd 8926 163d
000000c0: 2487 333d 898d 483d bfbb 173e 36fa e6bc
000000d0: 2ffe 843d 016e 6e3d cd6f 03be ac21 72be
000000e0: d931 503d 406e 003d 8246 a7be a65a b63d
000000f0: a5e9 52be 2afb 12be dc6d 91be f214 d7bd
00000100: 7435 063b 9a58 c6be 6904 89be a450 843d
00000110: 2440 5fbe 124f c63e 22ff 883e bfdb 33be
00000120: 7cd4 033e 61da 4abe 0610 50be 0474 93be
00000130: 88db debd 39e3 e5bd 5e38 1cbe 2e04 d73e
-0.29013124 -0.32053345 -0.4019952 -0.4571045 -0.5879446 -0.5421976 -0.35917366 -0.106252186
-0.48294246 0.10848257 0.2843307 -0.62568736 0.29693002 -0.44746777 -0.35325614 -0.51401097
0.21693306 -0.26166266 -0.26267016 0.53798664 -0.028190877 0.19627064 -0.09799929 0.28541937
0.1983502 0.013689643 -0.001503856 0.11148778 0.16803673 -0.15246883 -0.14758639 0.1305915
0.06689269 0.013121895 -0.14270476 0.26251408 0.19659817 0.22797059 0.25837263 -0.041855015
0.025038168 -0.0063044606 0.049906563 0.014173301 -0.09387434 -0.12493873 -0.11566321 0.036657844
0.043830052 0.048963103 0.14817713 -0.028195482 0.06493794 0.058210377 -0.12835617 -0.23645657
0.05082879 0.031355143 -0.3267098 0.089040086 -0.20596941 -0.14353624 -0.2840413 -0.10502042
0.0020478638 -0.38739473 -0.26761177 0.064606935 -0.21801811 0.387322 0.2675715 -0.17564295
0.12874025 -0.19809867 -0.20318612 -0.2879945 -0.10881716 -0.1122498 -0.15255877 0.41995376

model.cell_list.1.conv_ll.weight f4 [60, 20, 5, 5]
00000000: 23e6 173e abfd fa3d 47fd a63d c30a 523d
00000010: d844 14bc cc7a ce3d 1345 be3d 4fb2 003e
00000020: 5ac8 b93d 92e7 39bb 5ce6 8a3d 464d f63d
00000030: ba0c 143e 6152 143e 1975 dd3c 4d2a be3d
00000040: 2e0a d03d f177 353e c044 1a3e 310d 4d3d
00000050: a164 663d 7db2 403d c36f 9c3d 9db7 523d
00000060: a4c2 103d 346e 033e 946d 333d 4630 483b
00000070: cde2 353d 3faa 723d e008 d53c 0c23 2cbc
00000080: 395d b53d a87c e43d 004f 6a3d 97fd a43d
00000090: 9f10 233e 4875 3b3e b213 513e bb00 ce3d
000000a0: ac27 0b3e e82a 113e 551c 0d3e 301e 083e
000000b0: 7149 003e 15d3 c23d d035 e13d 4637 c93d
000000c0: 8430 383e b2a0 2b3e 8c0c 943c 5353 9cbc
000000d0: 5927 3abd ef5f 9ebd d664 5bbc e7dc edbc
000000e0: 462b 19bd 001d eabd cfbd 24be 00f8 56bd
000000f0: 08e3 d63c 9b6e a3bd cd3e 4ebe d377 22be
00000100: 677d 82bd 8eab 85bd 9649 fabd e79f 02be
00000110: 7b78 dabd e28f f6bc 20c1 a43c 2987 83ba
00000120: a5c6 d0bb 519e cebc 6ffb cb3b 145b 113e
00000130: c9d9 923d ff42 233e c734 363e bd5e 233e
00000140: 9504 14bd e7f0 46bd 9409 603d d780 db3d
00000150: 834f 3a3e ef4c eebc fc8a d1bd 5cdc cfbd
00000160: 38c7 5a3d d8d8 143e 29ee 0fbc 34dc b5bd
00000170: fb1a 06bd c951 8e3d 79fd a63d 8404 ca3d
00000180: e95e 8d3d f2de 283d dd97 e03c cc37 693d
00000190: f356 7ebc 23da 2e3c 6c5f 93bc 579a 86bc
000001a0: f0a3 413d c6ba 723c a537 1b3c 31c5 ef3c
000001b0: 1d03 083b 7bac 493d f2f3 08bd 0edf f3bc
000001c0: fc80 653d f635 c13c 4b9f cc3c a56a 49bd
000001d0: b19c 303b 6e51 863d 8b42 ba3c 6811 72bc
000001e0: 38fc 38bd 9d9e 563c 4d0d 3f3c 618f 4fbc
000001f0: 9b26 48bd cf3c bebd 9869 93bc c705 34bc
00000200: e0b3 06bd 720c a7bc 2cfb 5ebd 85a6 423d
00000210: 666a 053d 49e9 4f3c 8d33 7bb9 8fe0 17bd
00000220: 6d69 08b9 7eae 3ebc 1838 7f3d 8a47 32bb
00000230: 16ba 77bd e923 d5bc 8608 6f3d fef3 783d
00000240: ad4f 95bc 8a31 bfbd 2c87 32bd 0cc0 18bd
00000250: 07a3 2abd b0d9 80bd d1d5 4b3c 5859 513d
00000260: d329 8f3c 40ab 0c3c 50e8 a13c 55b2 203d
00000270: 9550 7d3d 29c6 0d3c 3d58 8f3d 637d 333d
00000280: 4db6 5b3c 33be 68bc ba14 053e 948a 283e
00000290: 0122 263c 9aa4 90bc 75f4 c83d 768a 3d3e
000002a0: 7deb 873d ac03 b9bb b326 27bd 8a26 8fbc
000002b0: 559f 04bd f872 31bd a933 1cbd 8618 84bd
000002c0: 7aad f7bc 6272 83bd 3bf7 51bd 697c 96bc
000002d0: 4c84 a8bd 28eb e03c f865 133e bb12 753d
000002e0: 4cce a0bc 32e1 48bd acca 273e 4ca8 803e
000002f0: 59b3 5f3d 6915 6bbc 78c1 a0bd fa1f b43b
00000300: 6b92 2ebc 5d2b 05bd 8144 5a3d afc2 0bbd
00000310: 6d7b a4bd 43c5 9dbd 5df4 00bd 9075 08bc
00000320: aae0 c4bd 5f4f edbd 5ba4 c8bd 0a4f c7bd
00000330: 2dc1 34bd f5a0 fcbd d719 bcbd 39e1 adbd
00000340: 8c08 e0bd dbac d2bc 7aee 95bd 7854 febd
00000350: af9e 26be df7a 09be 04cb c0bc 4e72 10bd
00000360: 86a2 15be 4f90 26be 8b30 cabd a0c6 01bd
00000370: 8aa4 043d dd44 f3bc 1cff 0dbc 35dc 273c
00000380: 4f76 1e3d cfbf 87bd bb41 42bd 34f7 293d
00000390: 5831 573d 6c1f 88b9 a315 91bd ea29 03bd
000003a0: c79d 883d 3a4e c13d 8281 0f3d 21ed a3bd
000003b0: 7dc6 0dbc a7a4 d03d 624f 843d 4cd4 b4bc
000003c0: 391d 94bd 4336 073d f3b6 a93d b489 4a3c
000003d0: 7539 3dbd 74dd 62bd c5f7 cb3c b0fe f83c
000003e0: e23e 64bc 08a5 94bd 6ae5 05be 0765 50bd
000003f0: 2fd9 863c 740f 523d 902b 033b 4106 32bd
0.14833884 0.122554146 0.081537776 0.051279794 -0.009049617 0.100820154 0.092905186 0.1256802
0.09071417 -0.0028366786 0.06782219 0.120264575 0.1445798 0.1448455 0.027033376 0.09285412
0.101581916 0.17721535 0.15065289 0.05006141 0.05624831 0.04704522 0.07638504 0.05144464
0.035341874 0.12835008 0.043805674 0.0030546351 0.044405747 0.05924439 0.026005208 -0.010506403
0.088556714 0.11156589 0.057204247 0.08056181 0.15924309 0.18306458 0.2041767 0.10058733
0.13589352 0.14176524 0.13780339 0.13292766 0.12528016 0.09512917 0.10996592 0.09824996
0.17987257 0.16760519 0.018072389 -0.0190827 -0.04544768 -0.07733142 -0.01339074 -0.029035999
-0.037394784 -0.114313126 -0.16088031 -0.052482605 0.026231304 -0.07980081 -0.20141144 -0.15866022
-0.06371575 -0.06526862 -0.12221067 -0.1275631 -0.10667511 -0.030097906 0.02011162 -0.0010034788
-0.0063713365 -0.025221976 0.0062250416 0.141949 0.071704455 0.15943526 0.1779357 0.15954109
-0.036137182 -0.048569586 0.054696634 0.107179336 0.18194394 -0.02908942 -0.10231587 -0.10149452
0.053412646 0.14535844 -0.008784809 -0.08879891 -0.032740574 0.06949193 0.08153815 0.098641425
0.06902868 0.041228242 0.027416164 0.056937978 -0.01552366 0.010672125 -0.017989837 -0.016431017
0.047275484 0.014815038 0.009473716 0.029268833 0.0020753809 0.049236756 -0.03343577 -0.029769447
0.056031212 0.0235853 0.0249783 -0.04917397 0.0026948864 0.065585 0.022736808 -0.014774658
-0.04516241 0.01309934 0.011660886 -0.012668462 -0.048864942 -0.09288942 -0.017994687 -0.010987706
-0.032886386 -0.020391677 -0.054438755 0.047522087 0.032572173 0.012689897 -0.0002395643 -0.03707939
-0.00013009245 -0.011638282 0.062309355 -0.0027203285 -0.0604802 -0.0260181 0.058357738 0.060779564
-0.018226469 -0.09335621 -0.04358594 -0.037292525 -0.04165938 -0.062915206 0.0124411145 0.051110595
0.017475998 0.008585751 0.019764096 0.03923257 0.061844427 0.008653202 0.06999252 0.04382075
0.013410163 -0.014205503 0.12996188 0.16459113 0.010139943 -0.017656613 0.098122515 0.1850985
0.06636713 -0.0056461897 -0.04080839 -0.017474432 -0.032378513 -0.043322533 -0.038135204 -0.0644999
-0.030234087 -0.06418301 -0.051261168 -0.01836987 -0.082283586 0.027455881 0.14394367 0.059832316
-0.01962962 -0.049042888 0.16385907 0.251284 0.0546144 -0.014348366 -0.07849401 0.005496976
-0.010655026 -0.032512058 0.053287987 -0.03412121 -0.08031354 -0.0770364 -0.031483043 -0.00832881
-0.09613164 -0.115874045 -0.09796973 -0.097318724 -0.04412954 -0.123353876 -0.09184616 -0.084902234
-0.1093913 -0.02571719 -0.073208764 -0.12418455 -0.1627147 -0.13425778 -0.023534305 -0.03526526
-0.14612779 -0.16265987 -0.0987254 -0.031683564 0.03238348 -0.029695923 -0.00866678 0.010245373
0.038687047 -0.066283815 -0.047425967 0.041495517 0.052537292 -0.00025963353 -0.07084205 -0.032022394
0.06670719 0.09438749 0.035035618 -0.08004213 -0.00865328 0.10187655 0.064604536 -0.022073887
-0.07232136 0.033010732 0.08286848 0.012361933 -0.046197373 -0.055386975 0.02489842 0.030394882
-0.013931008 -0.0725804 -0.13075796 -0.050877597 0.016460983 0.05128427 0.002001498 -0.043462995

model.cell_list.2.conv_cc.weight f4 [16, 24, 5, 5]
00000000: c813 6a3d c83d c53c db51 24ba 8fc6 f93c
00000010: f846 363d 86b1 7e3b a2a6 4abb adbb 153c
00000020: 22a0 e03c d7b6 763d f906 533c 740c ff3c
00000030: e467 3b3c 6cb3 083d a542 9c3d 34dd bd3b
00000040: dad4 fd3c 0034 763d 42ee 943d 7dfa 9a3d
00000050: 2d7f 803c db38 d63c f3db 693d fbdf 853d
00000060: b706 813d 2d17 ccbb cd24 49bc 37ad 4dbb
00000070: 0c6f 8fbc e199 d6bb b78f 5ab9 4430 34bd
00000080: 1707 50bc 3688 c0bc 57e5 4bbd c4bb 7dbc
00000090: 4018 56bb d327 ee3c d6dd 1e3d 92ce 3dbb
000000a0: dfd2 e8bc f4ca fa3b 4757 983d d2d6 263d
000000b0: e184 e4bb d58e f8bc 8166 41bd bc4d 88bb
000000c0: 1596 55bc f49d aebc 9b9b 173d 567f 453d
000000d0: ba80 913c 2582 043d 0c60 613d 8d61 b03c
000000e0: aa0d 0d3d 2d56 0ebc ee97 093d 5455 533d
000000f0: af54 843c 0d3b 0abd dcb9 d0bd 2d82 7d3c
00000100: e6ac 5b3d 62ed 703d 44d0 833d 6556 823c
00000110: cc5b 303d 03ec 6f3d e940 573d 3640 a93d
00000120: d0e9 183d cd69 613d 8ea4 403d f873 963d
00000130: 5683 a73d 590f d73d 62b7 be3d 92db 653d
00000140: 4dfe f63d 82ed 533d 9d19 603c 6d4c e43d
00000150: ffa3 9c3d af7c eb3d 5cbf 18be 9aac b8be
00000160: 0a56 e23c a855 893d 8414 893d f8f8 80bc
00000170: 5c08 83bd c59c 5c3d 48ef 4b3d 6eb1 993d
00000180: 51cf 693d cd88 823d bcd8 773d 3936 713d
00000190: ebad 023c 1a8f 033d f824 143c df2f 76bc
000001a0: 5c55 bdbc ece7 ca3c 19df 573d 1b14 4e3d
000001b0: cb8e e83c 331e dcbb b70d a53c 95fb cd3d
000001c0: 18e4 6e3d 7d3a 0f3d ddec bfbb c92a 41bc
000001d0: a6c0 2dbd 6944 2abc 5abe 4a3c a5bf 9fbc
000001e0: eb51 10bd 8698 2bbd 664a 54bd ea38 1dbc
000001f0: 893a d2bc 5c0b 2abc dccd 2abc 96ff aaba
00000200: 5cf7 463b 08c5 193b 4c6c 54bd 52c1 d8bc
00000210: 0f12 babb 1f9e fabc 4929 0bbd 8720 51bd
00000220: 9364 41bd 6d9d 43bd 2920 0dbd 1741 5cbd
00000230: 5857 27bd 160a 72bd b2d4 15bd f71b 52bd
00000240: 229c 62bd 9ce1 aabc 398e 21bd 64c6 74bd
00000250: 76f0 77bd 245b edbc 251d 493d 8bd7 5d3d
00000260: 0e8c bd3d 7087 783d b6d8 e83c 6380 843d
00000270: 315f c73d 874d 0d3e 632c de3d 3417 603d
00000280: 868d b43d 166d 0e3e 4d0d 4b3e 5fc6 183e
00000290: 0a75 9f3d ad43 8f3d d168 cc3d e339 0b3e
000002a0: 8303 053e ddec ae3d 4d33 693d 3666 ab3d
000002b0: 49f5 ab3d e0ec af3d b8b3 8c3d fff5 d23a
000002c0: fd27 cc3b 618b d33c 6437 85bb e98c 4cbb
000002d0: 5227 023c 555b 883c 5588 debc c2d0 8ebc
000002e0: 43ff 2c3c 9e1f 963c a81e 80bd 23f2 f6bd
000002f0: a9be b5bc 6f4e 0e3d 62d4 2f3c f955 76bc
00000300: 99e5 2bbc cf2d 113d 64f6 0ebc ccd1 c7bc
00000310: edd0 d73b 6f1e cf3c e5e5 a53a c8b4 12bd
00000320: 64c7 e8bd 4e90 01be f16f fbbd 8311 01be
00000330: 70ca b6bd a34e 00be 5c6f 4bbe b416 60be
00000340: 3d47 3abe 8cf7 0abe c978 13be 01eb 80be
00000350: 2119 86be 6880 68be 5c70 19be 9a0d 06be
00000360: 696f 62be 5f78 73be 469d 68be 2f0c 37be
00000370: e7dc fbbd 9b36 18be 842a 2ebe 22c5 3bbe
00000380: 2710 1bbe c9b1 443d 6d96 d93a 9735 fb3b
00000390: 1b58 133d 2aa6 833c 4ac5 113d 227d 99bc
000003a0: f067 283c 9ce9 463d 11e5 153d c04d 273c
000003b0: d7b8 9fbd 8079 06be 164c 0a3c 4d32 a8bc
000003c0: 535b 233c 597a e1bc 5a9c c9bd 7362 47bb
000003d0: 73d9 de3c a337 ad3c bc3f 5fbd ae6c 9ebd
000003e0: 0ac1 933c 5999 a83c daba a63a 429c 1cbc
000003f0: 41a6 2ebd 4ebf 183c d7a5 813c 464a 953b
0.05714777 0.024077311 -0.0006268301 0.030490188 0.044501275 0.0038863136 -0.0030922075 0.009138984
0.027420107 0.060232963 0.01288008 0.031133868 0.011438344 0.033374235 0.07629899 0.0057941917
0.030985285 0.060108185 0.072720066 0.07567308 0.015685642 0.026150158 0.057094526 0.065368615
0.06300109 -0.0062283487 -0.01227684 -0.0031383762 -0.017509006 -0.0065491055 -0.00020843638 -0.043991342
-0.012697003 -0.02350245 -0.049779262 -0.015486661 -0.0032668263 0.029071724 0.038785778 -0.0028962237
-0.028420864 0.0076535884 0.07438522 0.040732212 -0.006973848 -0.030341545 -0.047216896 -0.0041596573
-0.013036271 -0.021315552 0.03701363 0.04821714 0.017761577 0.032350678 0.055023238 0.02153089
0.03443686 -0.008687538 0.033592157 0.051595047 0.016153662 -0.03374772 -0.101917 0.015472931
0.053631686 0.058820136 0.06436208 0.015910337 0.043056294 0.058574688 0.052552138 0.082642004
0.037332356 0.05503254 0.04703193 0.07346338 0.08179347 0.10500974 0.09312321 0.0561176
0.12060223 0.051740177 0.013677982 0.111473896 0.07648467 0.11498391 -0.14916748 -0.36069185
0.027628917 0.06705791 0.06693366 -0.015743718 -0.06398079 0.053860445 0.049788743 0.07504545
0.057082478 0.06373749 0.06050943 0.0588896 0.007976036 0.032118894 0.009042017 -0.015026062
-0.023111992 0.024768792 0.052702997 0.050312143 0.028388401 -0.006717467 0.020148141 0.10057751
0.058322996 0.03496789 -0.0058570937 -0.011789986 -0.042420052 -0.010392287 0.012374485 -0.019500563
-0.035234373 -0.041893505 -0.051828764 -0.009596089 -0.025662677 -0.010378685 -0.010425057 -0.0013046141
0.003035984 0.0023463387 -0.051861092 -0.02645937 -0.0056784223 -0.030592976 -0.03397492 -0.05105641
-0.047215056 -0.047757555 -0.0344545 -0.053773012 -0.040854782 -0.05909165 -0.036579795 -0.0512962
-0.05532468 -0.020859532 -0.039442275 -0.059759513 -0.060532056 -0.028974123 0.04910006 0.054160636
0.09255229 0.06067604 0.028423648 0.064698 0.09734953 0.13799106 0.1084831 0.05470963
0.08816056 0.139088 0.19829293 0.14919423 0.07785995 0.0699533 0.0998093 0.13596301
0.12989621 0.08541272 0.05693369 0.083691046 0.08396394 0.08590102 0.06870216 0.0016095041
0.006230353 0.025823297 -0.004065441 -0.0031211919 0.007943945 0.016645113 -0.027164618 -0.017433528
0.010558906 0.018325623 -0.06255847 -0.12057903 -0.02218564 0.03474277 0.010731788 -0.015035146
-0.010491752 0.035444077 -0.008725736 -0.024392031 0.006586185 0.025283067 0.0012657015 -0.035816938
-0.11366156 -0.12652704 -0.122772105 -0.12604336 -0.08925331 -0.12529998 -0.19866699 -0.2188366
-0.18191238 -0.13570994 -0.14401545 -0.25179294 -0.26191047 -0.22705233 -0.14984268 -0.13091126
-0.22112812 -0.23776387 -0.22716245 -0.17875741 -0.12297993 -0.1486458 -0.17008406 -0.18336919
-0.1514288 0.04802111 0.0016600617 0.0076663005 0.035972696 0.016070444 0.03558854 -0.018736426
0.010278687 0.04856263 0.036595408 0.010211408 -0.07798927 -0.13132286 0.008440992 -0.020531798
0.009970504 -0.02752416 -0.09844275 -0.003042367 0.027203297 0.021144694 -0.05450414 -0.07735573
0.018036384 0.020580934 0.0012720481 -0.009558739 -0.04263902 0.009322954 0.015826149 0.004555973

model.cell_list.2.conv_cc.bias f4 [16]
00000000: cbd1 a3bf 3338 8abf 2317 7ebf 417f 2fbf
00000010: f91a 89bf 55c6 5ebf baf6 0bbf 76d8 75bf
00000020: 5e0c febb 3b9a 82bb 0275 20bb 3bdb 8cbc
00000030: eb62 97bf de29 8bbf 0825 4bbf 3873 28bf
-1.2798399 -1.0798401 -0.99254054 -0.6855355 -1.0711356 -0.8702138 -0.5467335 -0.9603342
-0.007752939 -0.003985671 -0.0024483805 -0.017194381 -1.1827062 -1.0872152 -0.7935338 -0.6580081

model.cell_list.2.conv_ll.weight f4 [12, 4, 5, 5]
00000000: 8950 0cbe a593 9fbd 5bdf d9bd cd51 adbd
00000010: f373 d8bd 7de5 bbbd 54e2 96bd f7d4 08be
00000020: 01d1 e5bd 51db 9bbd 591e 02be 8682 24be
00000030: 880c 98be efe0 33be 85ad 0dbe 6beb b9bd
00000040: 0fcd e2bd 68e3 6cbe 84a0 fabd 1387 ecbd
00000050: 37fa c8bd 5af1 8bbd 5cde c7bd e512 c2bd
00000060: 72db c3bd fba2 0abd c7f9 14bd 0cab 46bc
00000070: 959d 08bd 877f 23bd ddcc 29bd a547 5fbc
00000080: 1c89 a5bd d72b 76bd c5d7 81bc 740b 34bd
00000090: 4bdf 73bd d95a c9bd ee17 cdbd f2e6 00bd
000000a0: ef79 55bd 1a32 99bd 105c c0bd 9313 9abd
000000b0: e5ad cdbc 6e9c 1bbd 170c 3bbc 1c29 05bd
000000c0: 9c2d f9bc 4c96 053d a130 8cbd eeb6 3bbd
000000d0: f51b 17bd 2642 2bbd ce37 f2bc 978a 39bd
000000e0: 2b8d 8cbd 562d 5cbd 1c72 3ebd 9dce 2abc
000000f0: 2b78 86bd d9c8 86bd 13c2 9dbd 331d 69bd
00000100: c0d8 02bd 0a64 8cbd 7238 94bd ca7e 99bd
00000110: b237 a1bd 4014 9abc 9385 62bd 0765 5bbd
00000120: d3bf 61bd 2844 c5bc 93d1 81bc c6d0 213d
00000130: c9d3 7b3d 211b 8f3d 9637 803d 9116 173d
00000140: a7fe 753d 2af9 fc3c 71dd d93c 1665 453d
00000150: 4d57 b43c c060 963d 9653 fd3c 1f54 3d3c
00000160: 4443 333d 7418 633d 0f6b 363d eca0 1a3d
00000170: 01bb 153d 30bd 3b3d 89dd 4f3d 1e98 a83c
00000180: 84f4 0e3d 49d1 4c3d 02a5 d53c 80ac 663c
00000190: 34e5 063d 0723 493c dd71 3c3b b5d6 f33c
000001a0: 8af9 1a3d f5d1 80bc 52bf 05bd 4037 e4bd
000001b0: df3a 4ebd 2478 a8bc a155 5abd 6197 0fbe
000001c0: cffc bbbe 6f3e f3bd 41e1 82bd e782 28bc
000001d0: 19c1 d7bd 5e2b 18be a080 6dbd 770e 32bd
000001e0: 3e0c f63c 5d3c 82bc efe4 07bd ff79 b2bc
000001f0: f9e1 2bbc 7134 093d 939b 8e3c 90c2 123d
00000200: 2886 7e3c d604 99bc 2b86 4c3d 4fbe 103d
00000210: a451 8e3c 8cc7 9dbc fc9b b93b 6769 6c3d
00000220: 03df 02bb 5883 a5bd 8a45 9c3a 33a4 b8ba
00000230: 87a0 a23b a5fc 853c 5ebe 2b3c 8db7 4d3a
00000240: 9585 a63b aba8 b33c 60b1 923c fcfd da3c
00000250: 3420 a83c 00bf 80bc c022 9bbd bf86 d5bd
00000260: 14ae a4bd 6a08 77bd 970e 7fbd 80c1 b9bd
00000270: 7e76 f8bd 5f29 f2bd 5724 b7bd 8003 8cbd
00000280: 9611 cebd d318 01be ac6c 35be d35f 0fbe
00000290: 1ae4 edbd b72a b6bd e86b f3bd 57e1 08be
000002a0: 737d 02be 780a 03be 2f42 bebd b3af 01be
000002b0: eadf fcbd b928 f2bd f603 d5bd 3f6c ba3b
000002c0: 8f3d 6b3d e77e 5d3d 5651 563d 59aa 293d
000002d0: 384d 563d f657 1d3d 9faa 7f3d a467 9a3d
000002e0: c045 143d eb90 743d 52a6 4f3d 140a bb3c
000002f0: 694d cf3d 61ca 683d 4f2b 2e3d 06e6 433d
00000300: c5ae a43d cff0 6a3d ab85 2e3d d43c bf3c
00000310: 063b f73c 3ecf f63c 1d65 113d 3493 2b3d
00000320: 8c24 803d 7157 223d dea7 d33c b1ff 513d
00000330: e6b5 613d 777b 2a3d 8e81 f6bb c839 47bd
00000340: 8be0 c6bb 97e1 343d 6b4d f53b db30 c7bd
00000350: 3f5d 72be c046 d3bd 563a afba 1a60 ce3c
00000360: 9a67 42bd e493 dbbd f973 80bd 7ccc 6a3c
00000370: c286 1f3d ffb9 a2bb 30b8 02bc f1d0 6a3c
00000380: 9de6 0c3d bdd2 69bd 0464 1fbd 2c2e adbc
00000390: cb44 9abc 6a6a 7bb8 7f50 17bd bdcf 01bd
000003a0: c3e7 9fbd 38dc 73bd 3fb5 04bc 777e e3bc
000003b0: a31e a9bd 9d29 2bbe 6c00 b4bd f8ad fabc
000003c0: 82bc f3bc 8af4 8dbd 5eb9 a5bd d7a4 01bd
000003d0: 9734 8cbc c689 d7ba 89b7 a0bc 36a3 28bd
000003e0: 8e2d 0abd bcda e6bc 6dd5 833c b088 85bc
000003f0: 3577 9bbc 0c56 4fba 24b2 643a ba6e bdbc
-0.13702597 -0.07791833 -0.10638305 -0.08462868 -0.105689906 -0.09174631 -0.073673874 -0.1336249
-0.11221505 -0.07610191 -0.12706889 -0.16065416 -0.2969706 -0.17566274 -0.13835724 -0.090781055
-0.11074268 -0.23133624 -0.12237647 -0.11549201 -0.0981335 -0.068331435 -0.097592086 -0.0947626
-0.0956334 -0.033846837 -0.03637102 -0.012125742 -0.033353407 -0.03991654 -0.04145514 -0.013627921
-0.08082792 -0.060100403 -0.015849957 -0.043956235 -0.05953912 -0.09831781 -0.1001433 -0.031470247
-0.052118238 -0.07480259 -0.093925595 -0.07523265 -0.025107333 -0.03799098 -0.011416457 -0.032509908
-0.030417256 0.032614037 -0.06845213 -0.045828752 -0.036891896 -0.04181113 -0.029567625 -0.045298185
-0.06862863 -0.053754173 -0.046495542 -0.010425237 -0.06565889 -0.065812774 -0.07703032 -0.056912612
-0.03194499 -0.068550184 -0.072373286 -0.07494886 -0.07871951 -0.018808484 -0.055303168 -0.053563144
-0.05511458 -0.024080351 -0.015847003 0.039505742 0.06148127 0.06987596 0.06260602 0.036886755
0.06005731 0.03088053 0.02659485 0.048192106 0.022014285 0.07342672 0.030923646 0.011555701
0.04376532 0.055443242 0.044535693 0.037751123 0.036555294 0.04583472 0.05074838 0.020580348
0.034901157 0.050004277 0.026079658 0.014079213 0.03293343 0.012276418 0.0028754391 0.029765466
0.037835635 -0.015725115 -0.03265316 -0.111433506 -0.050349113 -0.0205651 -0.05330432 -0.1402259
-0.36716315 -0.11877143 -0.0639062 -0.010285116 -0.10534877 -0.14860293 -0.057983994 -0.043470826
0.030035134 -0.015897924 -0.033177312 -0.021786688 -0.010490888 0.033497278 0.017408168 0.03583008
0.015534915 -0.018679064 0.04993264 0.035337742 0.017372914 -0.01926019 0.0056643467 0.057717707
-0.001996935 -0.080816925 0.001192258 -0.0014087021 0.004962984 0.016355822 0.010482399 0.00078474806
0.005081842 0.021931013 0.017906845 0.026732437 0.020523168 -0.015716076 -0.075749874 -0.104260914
-0.08041015 -0.06031076 -0.062269773 -0.0907011 -0.121319756 -0.11824297 -0.08942478 -0.06836605
-0.10061948 -0.12607126 -0.17717236 -0.14001398 -0.116157725 -0.08894866 -0.11885816 -0.1336721
-0.12743168 -0.12796962 -0.09289967 -0.1266468 -0.12347396 -0.118241735 -0.10401146 0.0056891735
0.057431754 0.0540761 0.05232366 0.04142222 0.052319735 0.038413964 0.062418576 0.07539299
0.03619933 0.059708517 0.050695725 0.022831954 0.10122187 0.05683363 0.04252177 0.04782679
0.08041147 0.05735856 0.042607944 0.023344435 0.030179512 0.030128118 0.03549682 0.04188843
0.06256971 0.039634172 0.025836881 0.051269237 0.055105112 0.04162165 -0.0075227683 -0.04863909
-0.006069248 0.04416045 0.0074860356 -0.09726115 -0.23668383 -0.10316229 -0.0013368826 0.02519231
-0.047462083 -0.10721567 -0.0627212 0.014330979 0.038946874 -0.00496602 -0.007978484 0.014332042
0.034399617 -0.05708574 -0.03891374 -0.02114018 -0.018831631 -5.994217e-05 -0.036942 -0.031692255
-0.07807877 -0.05953619 -0.008099853 -0.027770264 -0.082577966 -0.16715093 -0.08789143 -0.030600533
-0.029752973 -0.06931408 -0.080919966 -0.031651344 -0.01711492 -0.0016444258 -0.019618766 -0.041171275
-0.03373485 -0.028180473 0.01609298 -0.01630053 -0.01897774 -0.00079092453 0.0008724055 -0.023124088
