lr_find_temp_model_8f57ac0c-99ea-49d9-acbe-5dd2cc5bda56.ckpt (torch, 44213 bytes, 14 tensors)

model.cell_list.0.conv_block.seq.0.weight f4 [15, 15, 3, 3]
000000 fe a4 35 3d 16 99 1b bd dc ae 88 bc 2a 77 25 3d
       0.044346802 -0.03798779 -0.016684942 0.040396847
000010 f4 f0 a5 bd b6 6a 53 3d 34 0c 91 bc a2 58 33 3d
       -0.08102599 0.05161544 -0.017706014 0.0437857
000020 80 07 44 3c e8 a8 2c bc 04 8e c3 3c 60 20 8b 3b
       0.011964679 -0.010538317 0.02387143 0.0042458028
000030 c4 c0 00 3d 5e 61 09 bd 60 9e cd bb a0 e5 fd bb
       0.031433836 -0.033540122 -0.0062749833 -0.0077483207
000040 10 63 4c 3c 00 43 b4 b9 7d 15 9a 3d fc 67 db 3c
       0.01247479 -0.00034382194 0.0752363 0.026782982
000050 91 48 03 bd bc e9 54 bd 48 5b 6c bc 3a 0f 18 bd
       -0.032051627 -0.05198072 -0.01442606 -0.037123896
000060 12 ef e1 bc 60 09 87 3b c6 26 52 3d 96 9c 3f 3d
       -0.027579818 0.0041209906 0.05130651 0.04678019
000070 8b 4e ac bd fe 89 5a 3d 88 f7 c4 3c 2b 32 a7 3d
       -0.084134184 0.053354256 0.024043813 0.08163866
000080 76 b0 68 3d bf 99 a0 bd d4 97 a7 bd 0d 09 2a bd
       0.05680891 -0.07841825 -0.08183256 -0.041512538
000090 7f c7 9a 3d 70 e1 6a bc 14 de 16 3d d6 d2 23 bd
       0.07557582 -0.014335975 0.036832884 -0.03999599
0000a0 05 f4 ac 3d 63 27 15 bd 41 2f 84 3d 80 95 85 3a
       0.084449805 -0.036414515 0.064543255 0.0010191649
0000b0 b9 b7 39 bd 52 34 35 3d f4 20 3b bd 2c 5c cf 3c
       -0.045341227 0.04423935 -0.045685723 0.025312506
0000c0 fa 96 cb bc b8 98 1a bc 39 75 a9 bd 26 14 28 bd
       -0.024852265 -0.009435825 -0.082743116 -0.04103484
0000d0 1e 4b 3f 3d 04 62 ab bc 45 91 af 3d 7f 4a 8d 3d
       0.046702497 -0.02092076 0.0857263 0.068989746
0000e0 90 0d 84 bb 62 4e 6b bd 0a ad 56 3d a0 d1 da 3c
       -0.004029937 -0.0574478 0.052411117 0.026711285
0000f0 7b e1 63 bd 7e fb 64 3d 26 05 56 3d d5 53 9c 3d
       -0.055634957 0.055903904 0.052251004 0.07633177
000100 db 9c 45 bd d0 1c 68 bc 40 88 da ba 08 f5 4d 3c
       -0.048245292 -0.014167026 -0.0016672686 0.012570627
000110 12 c5 85 bd 54 29 7a bd ce c6 3f 3d 6c 54 a5 bc
       -0.06531729 -0.06107457 0.046820454 -0.020181857
000120 4a 33 2c 3d d0 c7 a0 3b 50 80 e7 3c 9c 08 9b 3c
       0.0420411 0.004906632 0.028259426 0.018925004
000130 c6 2d 00 3d 6e c0 2e 3d 71 3d a3 bd fe 71 31 3d
       0.031293653 0.042663984 -0.079707034 0.043321602
000140 cc de 77 bd 1b fe 84 bd 90 82 ab 3b f8 4a 70 bc
       -0.06051521 -0.06493779 0.00523407 -0.014666311
000150 42 0c 4f 3d 4a 29 4c bd 00 b2 9c bd 7f 47 80 3d
       0.0505488 -0.049844064 -0.07651138 0.06263637
000160 00 18 51 bc 1a 48 46 3d 14 aa e2 3c 05 2d 84 bd
       -0.01276207 0.048408605 0.02766899 -0.06453899
000170 f4 a4 8d 3c 10 5a a9 3c b2 09 6c bd ba 43 27 bd
       0.01729057 0.020672828 -0.057626434 -0.040836073
000180 18 68 f0 3c 20 95 7c 3c a0 f4 15 bd 70 6e d5 bc
       0.02934651 0.015416414 -0.036610246 -0.026053637
000190 db 6f a1 3d 40 73 82 bc 8a c0 46 3d 44 a5 18 3d
       0.07882663 -0.015924096 0.048523463 0.037266985
0001a0 57 e0 63 bd 61 e6 95 bd 91 31 a9 3d 40 43 93 3b
       -0.05563387 -0.07319332 0.08261407 0.004494101
0001b0 92 a4 71 3d 0c 1c 92 3c 04 c3 e2 3c 69 a9 83 3d
       0.058994837 0.01783564 0.027680881 0.06428797
0001c0 cb 22 a7 3d 3c ee 69 bd 00 4e 30 3c c3 89 83 3d
       0.08160933 -0.057111964 0.010760784 0.0642276
0001d0 22 62 7f 3d f2 00 5b 3d 80 21 7f bd 49 db 7d bd
       0.062349446 0.0534677 -0.062287807 -0.061976705
0001e0 db 32 55 bd 58 26 31 3c 09 ad af 3d dd ae 5e bd
       -0.052050453 0.0108123645 0.08577926 -0.05436598
0001f0 ee da 3b 3d ad 1e 43 bd d9 b9 a5 bd 28 da 95 bc
       0.045863084 -0.047636677 -0.08092088 -0.018292502
000200 ba 1d 4b 3d 8d a3 a3 3d ec ee 5a bd 40 01 99 3c
       0.049588896 0.07990179 -0.05345051 0.018677354
000210 4b 17 98 3d 8a 9a 69 3d 0a b4 5b 3d 7e 84 7a 3d
       0.07426318 0.057032146 0.053638496 0.06116151
000220 be fa 5e 3d f8 1c b6 3c c0 10 71 bd de 04 94 bd
       0.054438345 0.02223061 -0.058853865 -0.07227491
000230 0f 89 21 bd 98 33 24 bc 22 15 58 bd 38 f9 00 3d
       -0.03943735 -0.0100220665 -0.05275453 0.031487674
000240 bc 34 da 3c 3c a6 9f bc a0 7d 07 3d f0 dc e3 3c
       0.026636474 -0.019488446 0.03307879 0.027815312
000250 56 3b 57 3d 4e 68 6d 3d d2 c4 ee bc d7 36 ac 3d
       0.05254682 0.0579608 -0.029146586 0.08408897
000260 08 05 23 bc 80 c8 41 bb 33 5f a6 bd 78 e4 62 bd
       -0.00994993 -0.002956897 -0.081236266 -0.055393666
000270 a5 f2 4d bd bc c8 16 bd ea a2 7a 3d 0e 66 e6 bc
       -0.050280232 -0.03681253 0.061190523 -0.028124835
000280 f6 b7 83 bd 8c a2 07 3d b8 bc e1 3c 2e 54 64 3d
       -0.06431572 0.033114 0.027555808 0.055744343
000290 56 6c 36 bd d4 dd 98 3c 7f 56 00 bd 74 68 9e bc
       -0.04453691 0.018660463 -0.03133249 -0.019336917
0002a0 c5 77 8c bd 15 ab 20 bd b8 ed d7 bc d4 c0 16 3d
       -0.06858782 -0.039225657 -0.02635847 0.03680499
0002b0 5c ce 80 3c 04 29 ae 3c 07 ee af 3d a1 ca ab 3d
       0.0157234 0.021259792 0.08590322 0.08388258
0002c0 be 70 70 3d a0 9c 33 3b 23 e0 73 bd 79 c0 89 3d
       0.05870127 0.0027406588 -0.059539925 0.06726164
0002d0 f8 4e b0 bc 70 00 e4 bb df d9 97 bd c0 44 8b bc
       -0.02152203 -0.00695806 -0.074146025 -0.017000556
0002e0 40 60 63 bd 47 f8 a1 3d 3d 62 98 bd 02 65 89 bd
       -0.055511713 0.07908683 -0.074406125 -0.06708719
0002f0 40 87 3f bb fa 9d 3e bd e8 46 fc 3c 67 b2 07 bd
       -0.0029224902 -0.046537377 0.03079553 -0.033129122
000300 ec 93 25 bd 10 bb 9f 3b aa 31 7f 3d ec f9 77 bd
       -0.040424272 0.0048745945 0.062303223 -0.06054108
000310 96 8c 25 3d 72 7a 62 3d b5 6b ac 3d b4 be 76 bd
       0.040417276 0.055292554 0.08418981 -0.060240462
000320 d8 c1 aa 3c 8c 55 82 bd 39 7c 96 3d 67 bf 08 bd
       0.020844385 -0.06363973 0.07347912 -0.03338566
000330 8e 58 54 3d a0 ec 27 3b 70 a5 db bb 60 f9 33 bb
       0.051842265 0.0025623217 -0.0067030713 -0.0027461872
000340 00 b6 6f 3c 1a 2e 26 3d 40 27 62 3c 9c 14 d7 3c
       0.0146307945 0.04057131 0.013803303 0.026254945
000350 ba 8d 9e bd 2d 6a 80 3d 93 ad 99 3d 5f b3 91 3d
       -0.07741876 0.062702514 0.0750381 0.071142904
000360 55 4c 82 3d 1c 65 7e bd 95 ae 02 bd 8f 6a 9b 3d
       0.063622154 -0.062108144 -0.031904776 0.07588684
000370 b8 40 86 bd 05 e9 9f 3d 7a a1 8a bd cc 52 78 bd
       -0.06555313 0.07808117 -0.067690805 -0.060625836
000380 ce 57 2c 3d 86 49 7d bd 54 87 a1 bc ff 3a 80 3d
       0.042075925 -0.061837696 -0.01971785 0.062612526
000390 d7 9d 8b 3d d5 b3 a6 3d 68 11 8f bc c0 00 89 bd
       0.06817215 0.08139769 -0.017464355 -0.06689596
0003a0 1f 8d ad 3d f8 31 96 bc cf 0a 11 bd bc df ab 3c
       0.08474182 -0.018334374 -0.0354107 0.020980708
0003b0 fa 87 76 bd 9a b5 67 3d c6 f0 5c 3d ac dc 8b bd
       -0.06018827 0.056569673 0.053940557 -0.06829199
0003c0 38 c7 90 bd 90 0a f7 bb 10 12 14 3d 00 5c 23 bb
       -0.07069248 -0.007539101 0.03615004 -0.0024926662
0003d0 42 c2 32 bd 40 f4 00 3b 0f ad a5 bd 1a 27 79 bd
       -0.04364229 0.0019676834 -0.08089649 -0.060828306
0003e0 81 ac 6a bd 97 28 91 3d a7 60 9b 3d d8 7b ef bc
       -0.05729342 0.0708782 0.07586794 -0.029233858
0003f0 c0 f9 7c 3b 32 38 1d 3d a8 f4 28 3c 72 87 30 bd
       0.003860101 0.03838367 0.010312237 -0.04309792

model.cell_list.0.conv_block.seq.1.weight f4 [15]
000000 00 00 80 3f 00 00 80 3f 00 00 80 3f 00 00 80 3f
       1.0 1.0 1.0 1.0
000010 00 00 80 3f 00 00 80 3f 00 00 80 3f 00 00 80 3f
       1.0 1.0 1.0 1.0
000020 00 00 80 3f 00 00 80 3f 00 00 80 3f 00 00 80 3f
       1.0 1.0 1.0 1.0
000030 00 00 80 3f 00 00 80 3f 00 00 80 3f
       1.0 1.0 1.0

model.cell_list.0.conv_block.seq.1.bias f4 [15]
000000 00 00 00 00 00 00 00 00 00 00 00 00 00 00 00 00
       0.0 0.0 0.0 0.0
000010 00 00 00 00 00 00 00 00 00 00 00 00 00 00 00 00
       0.0 0.0 0.0 0.0
000020 00 00 00 00 00 00 00 00 00 00 00 00 00 00 00 00
       0.0 0.0 0.0 0.0
000030 00 00 00 00 00 00 00 00 00 00 00 00
       0.0 0.0 0.0

model.cell_list.0.conv_block.seq.1.running_mean f4 [15]
000000 00 00 00 00 00 00 00 00 00 00 00 00 00 00 00 00
       0.0 0.0 0.0 0.0
000010 00 00 00 00 00 00 00 00 00 00 00 00 00 00 00 00
       0.0 0.0 0.0 0.0
000020 00 00 00 00 00 00 00 00 00 00 00 00 00 00 00 00
       0.0 0.0 0.0 0.0
000030 00 00 00 00 00 00 00 00 00 00 00 00
       0.0 0.0 0.0

model.cell_list.0.conv_block.seq.1.running_var f4 [15]
000000 00 00 80 3f 00 00 80 3f 00 00 80 3f 00 00 80 3f
       1.0 1.0 1.0 1.0
000010 00 00 80 3f 00 00 80 3f 00 00 80 3f 00 00 80 3f
       1.0 1.0 1.0 1.0
000020 00 00 80 3f 00 00 80 3f 00 00 80 3f 00 00 80 3f
       1.0 1.0 1.0 1.0
000030 00 00 80 3f 00 00 80 3f 00 00 80 3f
       1.0 1.0 1.0

model.cell_list.0.conv_block.seq.3.weight f4 [16, 15, 3, 3]
000000 f9 5a 69 bd 9d b3 46 bd bb 49 1d bd 07 99 50 bd
       -0.056971524 -0.048511136 -0.038400393 -0.05092719
000010 f8 5d 2e 3c c0 d1 9e 3a 61 aa 99 3d 60 af 24 3b
       0.010642521 0.0012116954 0.075032 0.0025128946
000020 da 0b 3c bd 2f 90 97 3d fc 4e b1 3c 84 21 98 bc
       -0.04590974 0.07400548 0.021644108 -0.018570669
000030 a6 67 77 3d e1 7f 90 3d b6 63 94 bd e2 5f 91 bd
       0.06040158 0.07055641 -0.07245581 -0.07098366
000040 bf e4 67 bd 74 94 97 bd ca 88 d3 bc 44 0c 01 3d
       -0.056614634 -0.07401362 -0.025822062 0.031505838
000050 48 ca a0 bd 06 46 ac bd 27 c7 97 bd a3 ef 37 bd
       -0.07851082 -0.084117934 -0.07411032 -0.04490627
000060 6e 06 5d 3d ad 46 9c 3d f1 1a af 3d 00 ca 75 3a
       0.05396121 0.07630668 0.085500605 0.00093761086
000070 5c 49 95 bd 0d e4 ab 3d d2 f7 6c bd 9e 19 05 3d
       -0.07289383 0.083931066 -0.057853527 0.032495134
000080 a6 37 30 3d e0 f8 d9 3c ec b3 e8 3c e4 6d a4 bd
       0.04302182 0.02660793 0.028406106 -0.080287725
000090 f2 92 ed bc 94 bf 62 bd 96 77 73 3d 7b 4a 48 bd
       -0.029000733 -0.055358484 0.059440218 -0.048899155
0000a0 60 ef 06 bb 91 ab 9c 3d a5 99 85 3d ce a2 7d bd
       -0.0020589456 0.07649911 0.06523446 -0.06192284
0000b0 87 0a 93 bd 3f 82 8b 3d 4c e9 ca 3c 5e 23 87 bd
       -0.07179742 0.06811952 0.024769448 -0.06598543
0000c0 97 68 98 3d 0a 80 7e bd 6f 96 98 3d 9e e9 7c 3d
       0.07441824 -0.062133826 0.07450568 0.061746232
0000d0 26 36 7b 3d e0 44 87 bc 10 1b f5 3b de 2f 93 bd
       0.061330937 -0.016512334 0.0074800327 -0.07186864
0000e0 52 98 46 3d 90 9c a2 3b f1 85 82 3d 1a 9b 14 bd
       0.048485108 0.0049625114 0.063732035 -0.03628073
0000f0 e7 44 aa 3d 82 fc 6a 3d 30 80 c5 bc e0 7e c0 3c
       0.08313923 0.057369716 -0.024108976 0.023497999
000100 1a 96 80 bd c4 b5 6a bd ea 8a 71 bd e5 82 4a bd
       -0.062786296 -0.05730225 -0.05897037 -0.049441237
000110 f4 04 c4 3c 9f ef 17 bd 9e 84 f3 bc da 9d 76 3d
       0.023928143 -0.037093755 -0.029726323 0.060209133
000120 e8 e7 68 3c 08 d0 2b bd cc 57 bf bc f0 5c b9 bc
       0.014215447 -0.04194644 -0.023357294 -0.022627324
000130 f2 93 24 3d 7a 26 78 3d f9 73 8c 3d 3c d8 6f bd
       0.040180154 0.06058357 0.068580575 -0.058555827
000140 b8 a4 16 bc c0 7f a5 3c 77 c6 09 bd c2 cb 67 3d
       -0.009194545 0.020202518 -0.033636536 0.056590803
000150 a0 c4 1c bc a8 78 16 3c 68 b1 96 bd f6 b8 7e 3d
       -0.009568363 0.00918404 -0.07358056 0.06218811
000160 64 97 69 bd 20 a5 07 bb ea c4 8f bd 75 19 86 3d
       -0.057029143 -0.0020697787 -0.0701998 0.06547824
000170 e0 02 a3 3b 52 c2 1e 3d 0a 8b 8a bd d0 c5 ef 3b
       0.004974708 0.038759537 -0.06764801 0.0073172823
000180 a2 6d 10 3d 0e f4 78 3d 59 8a 81 3d a8 c1 7b bc
       0.035260804 0.060779624 0.06325216 -0.0153659955
000190 f0 38 0f bc cc 41 ea 3c 7e 81 fd bc 0c 73 0f bd
       -0.008741602 0.028595828 -0.030945536 -0.035021827
0001a0 ff 47 a2 bd 0d da ac bd b3 9f 39 bd c8 0e 30 3c
       -0.079238884 -0.084400274 -0.045318317 0.010745712
0001b0 b0 50 e3 3b 40 42 e2 3b a8 2c 53 3c 6c 36 82 bc
       0.006937109 0.0069048703 0.012889065 -0.015895091
0001c0 bb 24 ae bd 57 65 9d 3d 56 f9 80 bd 80 19 84 ba
       -0.085030995 0.07685345 -0.06297557 -0.00100784
0001d0 d2 11 0c 3d f8 be b4 3c 7f 1d 19 bd fe 2c 99 bd
       0.034196682 0.022063717 -0.037381645 -0.07479285
0001e0 cd 21 8d 3d 00 bc 20 3b db c0 a0 3d 6e 79 24 3d
       0.068912126 0.002452612 0.07849284 0.040154867
0001f0 98 99 16 3d e0 8f 98 3c ec 03 9f bc dc 9b 4e bd
       0.036767572 0.018623292 -0.01941105 -0.050441608
000200 00 3e 2b 3c f9 60 a9 3d 82 57 53 3d eb 22 a0 3d
       0.010451794 0.08270449 0.051597126 0.0781916
000210 6f 4d a5 3d c3 b9 89 3d 4a de 45 bd c0 fc 3f bd
       0.0807141 0.06724884 -0.048307694 -0.0468719
000220 20 80 41 bb e7 51 36 bd 58 4e bf bc 70 84 f1 bc
       -0.0029525831 -0.044511702 -0.023352787 -0.029482096
000230 21 3d 9a 3d 20 a4 bd bb 6f 9e aa 3d f5 ac 88 bd
       0.07531191 -0.0057873875 0.08331 -0.06673614
000240 79 de ad bd d8 9d 49 3c 40 81 8c 3c 52 41 0e bd
       -0.08489699 0.012305699 0.017151475 -0.034730263
000250 0a 67 32 bd 0c d0 c8 3c 20 49 8d 3b 98 e9 3c bc
       -0.043555297 0.024513267 0.0043116957 -0.011530302
000260 aa f7 32 3d 83 eb 15 bd 9b a6 8a 3d f4 69 70 bd
       0.043693222 -0.036601555 0.06770059 -0.058694795
000270 f5 72 37 bd e8 31 f4 3c aa a5 58 3d c0 1f 8a ba
       -0.044787366 0.029808953 0.052892365 -0.0010538027
000280 c5 5d 8a bd a0 52 61 bb f8 07 ee bc bc 49 e1 bc
       -0.06756166 -0.0034381524 -0.029056534 -0.02750098
000290 14 52 82 bc 9c a1 a9 3c 68 1e a4 bc 5c 37 77 bd
       -0.015908279 0.020706944 -0.02003403 -0.06035553
0002a0 f8 03 30 bd 9f a3 93 bd 99 0f b0 bd 22 5d 2a 3d
       -0.042972535 -0.072089426 -0.08596725 0.041592725
0002b0 46 f9 44 3d e9 32 85 3d 80 41 df 3b 23 00 11 bd
       0.04808929 0.06503851 0.006813228 -0.03540052
0002c0 40 06 54 bd 2a 95 2f 3d fd 0b 55 bd 63 b9 83 3d
       -0.051763773 0.042866863 -0.052013386 0.06431844
0002d0 c4 32 3f bd 88 6e a4 bd 31 e0 7d bd f1 8e 8f 3d
       -0.046679273 -0.08028895 -0.061981384 0.07009686
0002e0 89 0b 85 3d c0 15 ac 3c a0 7d 02 3b e7 21 97 3d
       0.06496341 0.021006465 0.0019911304 0.07379513
0002f0 d2 bc 54 3d 6e ba 50 3d 5e ef 6f bd f0 a2 61 3c
       0.051937886 0.050959043 -0.058577888 0.0137717575
000300 a1 b2 9f 3d 10 55 78 bd 9d 9a af 3d c4 e5 66 bd
       0.07797743 -0.060627997 0.08574412 -0.056371465
000310 2a 2e cf bc e0 fc 84 bb e0 67 b7 3c 7c ac d8 3c
       -0.025290567 -0.0040584654 0.022388399 0.026449434
000320 56 a0 49 bd ae 5a 21 3d 88 98 ba 3c 58 f8 1c bc
       -0.049225174 0.03939312 0.02277781 -0.009580694
000330 65 6e af bd f7 72 ae 3d 82 5e 02 bd 90 e7 3b bd
       -0.08565978 0.085180216 -0.03182841 -0.045875132
000340 5b 8a ae 3d 70 a5 32 bd de 82 6b 3d 82 1d 57 3d
       0.08522483 -0.043614805 0.05749785 0.052518375
000350 95 74 65 bd 3e 26 8e bd db a5 3f bd 7c ab dc 3c
       -0.056019384 -0.06940888 -0.04678903 0.026937239
000360 71 45 a6 3d b0 8d 9c bb 42 95 d2 bc 84 d5 ca bc
       0.08118714 -0.0047776327 -0.025705937 -0.024760015
000370 e4 82 75 bd 29 26 b0 3d 00 b2 74 ba 51 7c 8b bd
       -0.05993928 0.086010285 -0.00093343854 -0.06810821
000380 dc d5 70 bd de 50 5b 3d ca 82 2a 3d 6e 6e 63 3d
       -0.058797702 0.053543918 0.041628636 0.055525236
000390 a0 a8 14 bc e4 4d 8b bc 50 02 e7 3c 00 e7 5c ba
       -0.009073406 -0.017004915 0.028199345 -0.00084267557
0003a0 30 fb e2 bc 68 23 a8 3c 01 e9 48 bd 54 16 74 bd
       -0.027707666 0.020524696 -0.049050335 -0.059591606
0003b0 4c da 9b bc 42 4d 7b bd a0 35 0f 3b 08 eb 5d 3c
       -0.01902499 -0.061352976 0.0021852031 0.013544805
0003c0 55 97 ac 3d 38 32 cb 3c 00 0a 04 ba cc 1a 80 bd
       0.08427302 0.02480422 -0.00050368905 -0.06255111
0003d0 9f b2 0d bd 58 e1 65 bc 27 d6 7d bd cc 3e 89 3c
       -0.034594174 -0.014030777 -0.06197181 0.016753577
0003e0 6a b8 7d 3d 2a b5 49 3d 30 34 12 bd 48 5b ac bc
       0.06194345 0.049245037 -0.0356943 -0.02103962
0003f0 b7 b8 af 3d 30 c7 61 bc 19 4e 9e bd 00 1b 46 ba
       0.085801534 -0.0137804 -0.0772974 -0.0007557124

model.cell_list.0.conv_block.seq.3.bias f4 [16]
000000 66 2b 0c 3d c2 ac d7 bc a2 4b 4c 3d d6 cd a7 bd
       0.034221075 -0.026327495 0.049876817 -0.08193557
000010 b0 da c8 3b f8 36 3b 3c 48 45 a2 bc 5d 9f a3 3d
       0.006129585 0.01142668 -0.019808426 0.079893805
000020 10 73 a6 bd 3b 95 5f bd 7b 12 94 3d 0a 61 c2 bc
       -0.08127415 -0.054585677 0.07230087 -0.023727912
000030 c0 fc 73 3c 08 69 0c 3c 33 9a 90 3d 40 5a 98 3a
       0.014891803 0.008569963 0.07060661 0.0011623576

model.cell_list.0.conv_block_mem.seq.0.weight f4 [19, 19, 3, 3]
000000 c4 b4 bd bc a4 c7 e9 bc ce 92 c9 bc 78 ce 5a bd
       -0.023157485 -0.028537579 -0.024606135 -0.05341956
000010 8c 46 dc 3c 00 f2 9b bb 7b 4e 46 bd 3c b9 a9 bc
       0.026889108 -0.0047590733 -0.04841469 -0.02071821
000020 56 e8 83 bc a8 bf d1 3c ba 75 57 bd 14 bf 97 3d
       -0.016101997 0.025604084 -0.052602507 0.07409492
000030 a1 76 90 bd 78 3c 98 3d 80 93 2a 3a 10 a0 ed 3c
       -0.07053877 0.074334085 0.00065069646 0.029006988
000040 0c 0c d4 3c ab 4f 86 bd b4 c8 8c bd 98 2e 46 3c
       0.02588465 -0.06558164 -0.068742186 0.01209607
000050 52 ba 8c bc f9 44 0c bd f9 17 08 bd f2 40 51 bd
       -0.017178688 -0.034245465 -0.033225987 -0.051087327
000060 7c 68 06 3d 19 0e 7e bd 01 18 1d bd 90 ef 24 3d
       0.032814488 -0.062025163 -0.03835297 0.040267527
000070 de 3d 04 3d 90 07 e4 bc f8 d1 95 bd 64 6d 17 3d
       0.032285564 -0.027835637 -0.07315439 0.036969557
000080 88 c5 80 3d 30 fd 16 bd d8 5e 89 3d 55 85 1c bd
       0.06287676 -0.036862552 0.06707543 -0.038213093
000090 00 38 59 3d 02 f6 09 3d b3 15 7a bd 94 9a a1 3c
       0.05303192 0.033681877 -0.06105585 0.019727029
0000a0 f0 03 21 bd fe b4 ab bc 40 e7 20 3b b7 de 61 bd
       -0.039310396 -0.020960327 0.0024551898 -0.055144038
0000b0 5c de ee 3c 54 24 5c 3d 8a b6 84 bc e6 a7 0f 3d
       0.029158764 0.053745583 -0.016200323 0.03507223
0000c0 32 d8 89 bd c0 bf f3 3b 3b 9a 23 bd 20 93 15 3b
       -0.06730689 0.00743863 -0.039942008 0.002282329
0000d0 4c 47 ce bc cb 31 2a bd 50 3d 9c bc 89 13 90 bd
       -0.025180481 -0.041551393 -0.019072205 -0.07034976
0000e0 73 76 0c bd 17 bd 0f bd dc d4 97 3d 71 b3 1c bd
       -0.03429265 -0.03509244 0.074136466 -0.038257066
0000f0 e0 98 01 bb 16 21 b3 bc d2 8f 76 bd 3c d5 b1 3c
       -0.0019774958 -0.021866363 -0.06019575 0.021708123
000100 bc 8a 66 bd 94 70 ee 3c 30 30 fe bc 1e 5f 0a 3d
       -0.05628465 0.029106416 -0.031028837 0.033782117
000110 14 e4 4d 3d f0 c2 70 3d 56 55 93 3d d2 06 86 bc
       0.05026634 0.058779657 0.07194011 -0.016360674
000120 e7 3d 9b bd 9e e0 cb bc a6 1c 97 bd 48 0a 50 3c
       -0.07580166 -0.02488738 -0.07378511 0.012697764
000130 5e 75 8d bd 78 0a 4c bc c4 02 81 3d 80 1d 2f bb
       -0.06907152 -0.012453668 0.062993556 -0.0026720464
000140 00 b4 ab 3a 50 4e 91 3d b6 43 1b bd 5d 32 91 bd
       0.0013099909 0.07095015 -0.03790637 -0.07089684
000150 8a 30 26 3d 7c e8 54 3d e0 0d d2 bb 0e b3 77 bd
       0.040573634 0.051979527 -0.0064103454 -0.060473494
000160 08 ff 86 3c 80 d0 bf 3c dc 4a 59 bd 8d 9c 0d bd
       0.01647903 0.02341485 -0.053049907 -0.034573127
000170 00 cc e2 39 08 8f 39 3d 00 fa c5 b9 88 20 94 3d
       0.0004325807 0.04530242 -0.00037761033 0.07232767
000180 a0 10 93 3d c8 5e 9e 3c 08 6f 3f bd 9c a1 17 bd
       0.07180905 0.019332305 -0.046736747 -0.037019357
000190 da ce a4 bc 90 d8 db 3b ad 68 40 bd e0 22 95 bd
       -0.020118166 0.006709166 -0.046974827 -0.072820425
0001a0 fa ed ba bc 5d 34 63 bd 70 d6 cf 3c 70 99 26 bd
       -0.022818554 -0.05546986 0.025370806 -0.040673673
0001b0 90 74 bc bc da 2a 05 3d d8 0e 82 3c 00 bc 5d 3a
       -0.0230048 0.03251157 0.015876219 0.0008458495
0001c0 90 38 32 3d 91 4b 5e bd 4c bd a3 3c 60 59 b9 3b
       0.043510973 -0.054271284 0.019987725 0.0056564063
0001d0 60 b5 95 bd 5c c2 b8 3c 14 17 52 bd 70 81 a1 bc
       -0.07309985 0.022553615 -0.05129154 -0.01971504
0001e0 be 50 13 bd fd 01 93 bd 98 89 4a 3d 02 4e 39 3d
       -0.035965674 -0.071781136 0.049447626 0.04524041
0001f0 c8 6e 13 3c 25 88 4b bd 3a 60 8c 3d aa a4 df bc
       0.00899858 -0.049690384 0.06854291 -0.027300198
000200 fe 03 58 bd d2 8e 65 bd b8 b4 30 3c df 7e 34 bd
       -0.052738182 -0.056044407 0.010785274 -0.044066306
000210 a8 ef 33 bc 46 2b 98 bd 2c 47 a4 bc ca a6 92 bd
       -0.0109824315 -0.07430129 -0.020053469 -0.07160719
000220 6c 9c 5f bd cb 7d 7f bd bd 2a 47 bd 90 dd 7c 3d
       -0.054592535 -0.062375825 -0.048624743 0.061734736
000230 5a 26 c3 bc 40 4e 52 bd 82 2b 95 3d c0 2c d8 3b
       -0.023821998 -0.051344156 0.07283689 0.0065971315
000240 9a 04 80 bd ca 67 73 bd c8 d9 07 3c c8 01 5d bd
       -0.06250878 -0.059425153 0.008291669 -0.053956777
000250 c2 7a 00 3d 7a 8e 85 bd c2 3d 8c bd 7a df 30 3d
       0.03136707 -0.06521316 -0.06847717 0.043181874
000260 a0 5a 07 bb 20 8b c7 3c 18 0a af bc 37 91 5b bd
       -0.0020653382 0.024358332 -0.021367118 -0.053605285
000270 24 24 50 3d b8 c1 52 bc a0 78 6a 3d b8 74 ab bc
       0.050815716 -0.012863569 0.057243943 -0.02092968
000280 f0 a0 84 bc 1a cf 8e bc 7c dd 33 bd 38 e8 74 3c
       -0.016190022 -0.017432738 -0.043912396 0.014947943
000290 cc d6 9d 3c 78 e7 fa bc df d8 3f bd 18 6d 77 3d
       0.019267462 -0.030627951 -0.046837684 0.060406774
0002a0 40 d4 61 bb 58 70 45 3c db 7a 36 bd bc d0 5f 3d
       -0.0034458786 0.012050711 -0.044550758 0.054642424
0002b0 58 10 81 3d 98 91 87 3c 7c 06 8b 3d 24 60 36 3d
       0.063019454 0.016548917 0.06788346 0.04452528
0002c0 e0 72 7c 3d 1a b4 1e bd 34 0e e3 bc 60 e9 49 bc
       0.06163299 -0.038745977 -0.027716734 -0.012323707
0002d0 5a 23 1e bd c4 38 21 3d 42 b2 2c bd 20 42 d5 3c
       -0.038607933 0.039360777 -0.042162187 0.026032507
0002e0 6e 11 2b 3d 80 f1 67 bc 1e 83 8e 3d f2 fb 12 bd
       0.04176467 -0.014156699 0.06958602 -0.035884805
0002f0 44 94 09 3d 74 88 54 3d 16 27 3d bd 00 0f 7e ba
       0.033588663 0.051887944 -0.046179853 -0.0009691566
000300 d0 9d 72 3d 9e 32 79 bd 9b 3d 22 bd 4b 47 9a bd
       0.059232533 -0.060839288 -0.039609533 -0.07533129
000310 64 0c 5a 3d 8c 80 53 3d 40 93 51 3c c8 38 5f 3c
       0.053234473 0.051636264 0.012791455 0.013624378
000320 dd e0 96 bd ea e1 0d 3d 83 c9 16 bd ba fb 27 3d
       -0.07367108 0.034639277 -0.03681327 0.04101155
000330 42 6f 49 bd a8 66 54 bd 1c ff 5b 3d e8 1e b1 3c
       -0.04917837 -0.051855713 0.053710088 0.021621183
000340 e8 09 b6 bc 38 68 4a bd 2f 3e 89 bd 64 8f 5c 3d
       -0.02222152 -0.049415797 -0.06701314 0.053847685
000350 66 a5 d5 bc d0 a2 87 3c da 75 3a 3d ba c1 9a bc
       -0.026079845 0.016557127 0.04552255 -0.018891204
000360 6d 30 13 bd ac 97 2e bd 60 22 d6 3b 48 f6 05 bc
       -0.035934854 -0.042625114 0.0065348595 -0.008176394
000370 00 b8 00 3a 20 1b a1 3c 44 63 8c bd c0 5b 1e 3d
       0.00049102306 0.019666255 -0.06854871 0.03866172
000380 60 bf 45 bc e3 0f 87 bd 94 c1 e2 bc c0 ab a2 3a
       -0.012069553 -0.06594827 -0.027680196 0.0012410805
000390 6a a8 88 3d 7a 3e 98 3d bc 18 eb bc 2a 85 55 bd
       0.066727474 0.074337915 -0.028698318 -0.05212895
0003a0 a4 4c 74 3d f4 c8 7d 3d ea 82 35 3d 97 bd 90 bd
       0.059643403 0.061959222 0.044314303 -0.070674114
0003b0 50 f9 52 3c 6c ab 8d 3c f8 9d bb 3c 30 f8 57 bd
       0.012876824 0.017293654 0.022902474 -0.052726924
0003c0 90 9d ce 3b 76 31 f7 bc 62 ed 43 3d 86 f6 4d bd
       0.006305404 -0.030174952 0.047833808 -0.05028393
0003d0 8a 86 84 3d 9c 2e b0 3c 10 e5 97 3c 4c 29 0e bd
       0.06470974 0.0215066 0.018541843 -0.034707353
0003e0 f0 f4 92 bb 10 e8 9b 3c 03 c5 6d bd 98 b6 28 3c
       -0.004484765 0.019031554 -0.058049213 0.01029744
0003f0 e2 18 29 3d 40 37 fa 3c 7a 34 83 3d 3c 57 1e bd
       0.041283496 0.030543923 0.064064935 -0.038657412

model.cell_list.0.conv_block_mem.seq.1.weight f4 [19]
000000 00 00 80 3f 00 00 80 3f 00 00 80 3f 00 00 80 3f
       1.0 1.0 1.0 1.0
000010 00 00 80 3f 00 00 80 3f 00 00 80 3f 00 00 80 3f
       1.0 1.0 1.0 1.0
000020 00 00 80 3f 00 00 80 3f 00 00 80 3f 00 00 80 3f
       1.0 1.0 1.0 1.0
000030 00 00 80 3f 00 00 80 3f 00 00 80 3f 00 00 80 3f
       1.0 1.0 1.0 1.0
000040 00 00 80 3f 00 00 80 3f 00 00 80 3f
       1.0 1.0 1.0

model.cell_list.0.conv_block_mem.seq.1.bias f4 [19]
000000 00 00 00 00 00 00 00 00 00 00 00 00 00 00 00 00
       0.0 0.0 0.0 0.0
000010 00 00 00 00 00 00 00 00 00 00 00 00 00 00 00 00
       0.0 0.0 0.0 0.0
000020 00 00 00 00 00 00 00 00 00 00 00 00 00 00 00 00
       0.0 0.0 0.0 0.0
000030 00 00 00 00 00 00 00 00 00 00 00 00 00 00 00 00
       0.0 0.0 0.0 0.0
000040 00 00 00 00 00 00 00 00 00 00 00 00
       0.0 0.0 0.0

model.cell_list.0.conv_block_mem.seq.1.running_mean f4 [19]
000000 00 00 00 00 00 00 00 00 00 00 00 00 00 00 00 00
       0.0 0.0 0.0 0.0
000010 00 00 00 00 00 00 00 00 00 00 00 00 00 00 00 00
       0.0 0.0 0.0 0.0
000020 00 00 00 00 00 00 00 00 00 00 00 00 00 00 00 00
       0.0 0.0 0.0 0.0
000030 00 00 00 00 00 00 00 00 00 00 00 00 00 00 00 00
       0.0 0.0 0.0 0.0
000040 00 00 00 00 00 00 00 00 00 00 00 00
       0.0 0.0 0.0

model.cell_list.0.conv_block_mem.seq.1.running_var f4 [19]
000000 00 00 80 3f 00 00 80 3f 00 00 80 3f 00 00 80 3f
       1.0 1.0 1.0 1.0
000010 00 00 80 3f 00 00 80 3f 00 00 80 3f 00 00 80 3f
       1.0 1.0 1.0 1.0
000020 00 00 80 3f 00 00 80 3f 00 00 80 3f 00 00 80 3f
       1.0 1.0 1.0 1.0
000030 00 00 80 3f 00 00 80 3f 00 00 80 3f 00 00 80 3f
       1.0 1.0 1.0 1.0
000040 00 00 80 3f 00 00 80 3f 00 00 80 3f
       1.0 1.0 1.0

model.cell_list.0.conv_block_mem.seq.3.weight f4 [12, 19, 3, 3]
000000 c8 38 87 3d 24 33 86 3d 70 78 36 3c a0 f5 74 3b
       0.06602627 0.06552723 0.011137113 0.003737785
000010 54 bd d0 3c 08 26 10 3c 03 9d 73 bd 7d a6 7c bd
       0.025480904 0.00879813 -0.05947591 -0.061682213
000020 4c 24 94 3d 0e b6 dc bc d8 3d 26 3d 80 23 e9 3c
       0.072334856 -0.02694228 0.040586323 0.02845931
000030 f5 c5 1d bd 40 eb d6 bb 3c 1a 6d bc c2 0d 93 3d
       -0.038518865 -0.0065588057 -0.014471587 0.071803585
000040 30 2f e4 3b 6c 66 c8 3c 2c 3a 3e bd 41 fd 1f bd
       0.006963633 0.024462901 -0.046442196 -0.03905988
000050 68 94 6a bd 08 e1 0e 3d 30 1c 80 bd dc 4c 17 3d
       -0.057270437 0.034882575 -0.06255376 0.036938533
000060 46 08 1d 3d 98 24 53 3c d0 03 c4 bc 8c 60 39 3d
       0.03833797 0.012887143 -0.0239276 0.04525809
000070 4c a2 6a bd d0 6c 54 3d 00 17 26 3b a0 2d 7c bd
       -0.057283685 0.051861584 0.00253433 -0.06156695
000080 b0 b1 d0 3c 32 53 18 bd e4 55 79 3d d5 97 7f bd
       0.025475353 -0.037188716 0.060872927 -0.062400658
000090 ac 38 50 3d 5c 35 80 3c 18 d6 9b bd 98 a7 d5 3c
       0.050835297 0.015650444 -0.076091945 0.026080891
0000a0 3a b4 d2 bc dc 90 da 3c 90 9e ed 3b e8 f4 26 bd
       -0.025720704 0.026680402 0.007251568 -0.040760905
0000b0 f0 79 8a 3c 4e 36 2e bd 14 48 7d bc c0 52 ed ba
       0.016903847 -0.042532258 -0.015459079 -0.0018106326
0000c0 2c dc 15 3d d0 9f 19 3c fc b2 96 bd 7c ad fa 3c
       0.036586925 0.009376481 -0.07358357 0.030600302
0000d0 a8 d2 3a bc 8b a4 40 bd 9c 19 93 3d 34 44 a7 3c
       -0.011402763 -0.04703192 0.07182619 0.020418264
0000e0 c0 3b 15 3d 80 83 35 ba c8 a6 8c bd 94 e5 51 3d
       0.036433935 -0.0006924197 -0.068677485 0.051244333
0000f0 58 2d c0 3c 33 84 04 bd ee a8 88 3d 26 68 82 bd
       0.023459122 -0.032352637 0.06672846 -0.06367521
000100 74 96 66 3d 6a d1 1b 3d a0 65 51 3d e0 19 9f 3b
       0.056295827 0.03804151 0.051122308 0.0048553795
000110 a8 37 45 bd 60 a9 18 3c ac e7 47 bd f0 6d 83 bc
       -0.04814878 0.009317726 -0.048804924 -0.016043633
000120 66 f7 f6 bc 55 da 68 bd f2 9d 80 3d e7 41 88 bd
       -0.030147266 -0.056848843 0.06280126 -0.06653195
000130 4c 76 58 3d 7c 48 bb bc 62 eb 4e bd 90 d2 db 3c
       0.05284719 -0.022861712 -0.050517447 0.026833802
000140 95 00 15 bd 58 31 72 3d 44 38 37 3d b2 ab 87 3d
       -0.03637751 0.05912909 0.044731393 0.06624545
000150 00 fd e6 3a f5 44 9b bd d8 30 6f 3c fe 1c 85 bc
       0.0017623007 -0.07581512 0.014599048 -0.016249176
000160 18 b6 c8 3c 68 9d 60 3c ec 63 88 bd 4e 73 41 3d
       0.024500892 0.013709404 -0.066596836 0.047229104
000170 80 56 61 bd 79 c3 8c bd 54 ef 87 bc 92 61 97 3d
       -0.055014133 -0.06873221 -0.016593613 0.07391657
000180 7a b6 4a bd 00 98 4e ba 5c 8e 3e bd 98 8e 38 3d
       -0.04949043 -0.0007880926 -0.046522483 0.045057863
000190 f0 1c c4 bc 34 ff 7d bd 50 c9 ff 3c 30 f6 67 bd
       -0.02393958 -0.06201096 0.031223923 -0.056631267
0001a0 80 de 78 3d ec 1c 14 3d 60 5b ed 3b f8 63 e5 3c
       0.060759068 0.036160395 0.0072435588 0.02800177
0001b0 90 63 32 bd 48 c2 88 3d a0 a3 4f 3b 7e ae 75 bd
       -0.04355198 0.06677681 0.0031683221 -0.05998086
0001c0 78 e2 6c 3c 76 15 6c bd c0 ad 31 bc 74 02 66 bd
       0.014458291 -0.057637654 -0.010844648 -0.056154683
0001d0 f2 27 9b bd 30 f8 a4 3c ad 56 80 bd 2a 47 42 3d
       -0.07575978 0.020137876 -0.06266532 0.04743115
0001e0 d8 de 70 3d ac fe cc 3c 20 be 1e bc fa e4 b6 bc
       0.05880627 0.02502378 -0.009688884 -0.022325981
0001f0 04 2c dd bc 80 10 96 ba fe 3a 40 3d 58 9f 4a 3d
       -0.026998527 -0.0011449009 0.04693126 0.04946837
000200 a8 8c bc 3c 34 27 86 3d 13 05 8d bd 00 06 b5 39
       0.023016289 0.06550446 -0.068857335 0.0003452748
000210 02 14 8b 3d a8 ec 4a bc 52 61 aa bc 20 26 b8 3b
       0.067909256 -0.012385525 -0.020798359 0.005619779
000220 68 ee bd bc 20 94 8b 3d 00 6e 96 bd f8 5f 49 bd
       -0.02318497 0.06815362 -0.073451996 -0.04916379
000230 62 59 d3 bc 60 ee 27 bc 58 c5 2c bd 42 75 85 3d
       -0.025799457 -0.010249704 -0.04218039 0.06516506
000240 00 4f 93 ba 36 8c 90 3d 36 34 3c bd 5a 77 e5 bc
       -0.0011238754 0.07057993 -0.04594823 -0.028011013
000250 0c 2d 82 bd 7c 66 f8 3c c4 f7 f4 3c 2e c4 83 bd
       -0.06356248 0.030322306 0.0299033 -0.06433903
000260 08 8b 9c bd 3c a8 52 3d 40 f1 4b 3c 5c fa b7 3c
       -0.076437056 0.051429972 0.012447655 0.022458248
000270 f0 25 9a bb 47 0a 78 bd 1a 74 bc bc 0c f9 14 bd
       -0.0047042295 -0.060556676 -0.02300458 -0.036370322
000280 a0 dd 37 bb 5c b9 f7 3c 28 c4 13 3d 20 bb a3 bb
       -0.0028055683 0.030239753 0.03607574 -0.0049966723
000290 88 b0 99 bd 40 8c b4 bb ac 7c 50 3d 64 40 c5 3c
       -0.07504374 -0.005509883 0.050900146 0.024078555
0002a0 54 c4 0a 3d 1a c0 8b bd 8f 9d 90 bd 43 f1 29 bd
       0.03387864 -0.0682375 -0.07061302 -0.04148985
0002b0 6e 5f 97 bc d3 81 76 bd 08 42 7a 3c 58 5a 68 bc
       -0.018478122 -0.060182404 0.015274532 -0.014181696
0002c0 80 99 90 3a c0 82 e7 ba 20 28 cf 3b 44 80 bd bc
       0.0011032075 -0.0017662868 0.006321922 -0.02313245
0002d0 32 a9 96 bd 88 ef 8d 3c 80 43 c9 ba f3 cb 23 bd
       -0.0735649 0.017326131 -0.00153552 -0.039989423
0002e0 00 44 88 bd 00 40 eb 39 30 11 88 bd 60 f9 32 bc
       -0.06653595 0.00044870377 -0.06643903 -0.010923713
0002f0 f0 d5 07 3d 90 43 9f 3b 32 42 42 3d 56 55 87 3d
       0.03316301 0.004860349 0.04742641 0.066080734
000300 60 89 55 bc 2e 30 4e bd 98 f9 91 bd 98 a4 07 3c
       -0.013033241 -0.050338916 -0.07127684 0.008278988
000310 fa 28 c1 bc f2 d0 8d 3d fc 5a 74 bc 00 8e 34 3a
       -0.02357911 0.06924619 -0.0149142705 0.0006887615
000320 80 be 14 3d 88 0b a9 3c c0 43 8e bc c6 37 22 3d
       0.036314487 0.020635381 -0.01736629 0.03960397
000330 b2 06 33 bd 49 1b 75 bd c4 ed 53 3d 30 6d 68 bc
       -0.043707557 -0.059840474 0.051740423 -0.014186189
000340 50 02 d5 bb da c4 9b bc 26 56 e6 bc 1c c9 3f bd
       -0.00650052 -0.019014765 -0.02811725 -0.046822652
000350 18 9d c3 3c 0c 64 c6 3c 47 d2 85 bd ae 65 96 3d
       0.02387862 0.024217628 -0.06534248 0.073436126
000360 19 c0 21 bd 99 a0 89 bd 40 76 80 3c 4c 93 b1 bc
       -0.03948984 -0.06720085 0.015681386 -0.021676682
000370 ff c6 81 bd 38 62 6d bd 9e 4f 7d bd 90 82 02 bc
       -0.063367836 -0.057954997 -0.061843507 -0.007965699
000380 d0 f8 82 bd 20 cf 99 3c 5e 6c 5a bd f0 70 8c 3d
       -0.063951135 0.018775523 -0.053326003 0.068574786
000390 ce 6d 89 3d a0 f1 1e bc f4 42 75 3d a4 e5 6c 3d
       0.06710397 -0.009701163 0.059878305 0.05783619
0003a0 f0 47 7b 3d fa 05 82 bd 3a 1f 30 3d 00 1e 72 ba
       0.0613479 -0.06348796 0.04299853 -0.0009236038
0003b0 7f 90 50 bd 10 f2 34 3c 9a 59 43 3d a8 86 9c 3d
       -0.050919052 0.01104404 0.047692873 0.07642871
0003c0 82 3d f5 bc d8 d5 90 3d f8 ac 37 bc 00 00 b5 3c
       -0.029936556 0.070720375 -0.011210673 0.022094727
0003d0 60 43 e8 bc 5c df 0e bd 92 0c 2a 3d d0 c7 48 3d
       -0.02835244 -0.03488098 0.041515894 0.04901868
0003e0 e2 bc 71 bd 63 3b 30 bd 8e 5a cd bc c7 e8 23 bd
       -0.059018023 -0.043025386 -0.025067594 -0.040016916
0003f0 ec 6d 17 3d 88 20 56 bc 4b 14 03 bd f0 0f 89 3c
       0.036970064 -0.0130692795 -0.032001775 0.016731232

model.cell_list.0.conv_block_mem.seq.3.bias f4 [12]
000000 49 48 8c bd e0 19 6f 3d 60 ba 11 bc d9 0d 97 bd
       -0.06849725 0.058374286 -0.008894533 -0.07375688
000010 98 67 50 3c 48 ac 37 bc 4c 4f 2d 3d 34 ac ed bc
       0.012720011 -0.011210509 0.04231195 -0.029012777
000020 d0 8d 98 bd 78 58 59 3d 5c f2 65 3d 20 95 98 bd
       -0.074489236 0.053062886 0.056139335 -0.07450318
