NDVI-prediction/337flkta/checkpoints/epoch=13-step=27.ckpt (torch, 17739 bytes, 30 tensors)

model.Cell.conv_cc.weight f4 [4, 9, 3, 3]
0.05725146 -0.049042027 -0.021540165 0.052152105 -0.1046041 0.06663526 -0.022858366 0.0565271
0.015446328 -0.013604909 0.030817874 0.00548131 0.040580906 -0.043300115 -0.008100972 -0.010003038
0.016104884 -0.00044386834 0.097129636 0.034576677 -0.04137847 -0.06710681 -0.018623963 -0.047926746
-0.035605393 0.0053201765 0.066236414 0.06039297 -0.10861676 0.06888006 0.031040438 0.10539506
0.07333998 -0.10123752 -0.10564538 -0.05359246 0.09756797 -0.018507667 0.047551043 -0.051634602
0.10902422 -0.047010936 0.083324976 0.0013157427 -0.05853527 0.05711276 -0.058980014 0.0326783
-0.032084137 -0.012181602 -0.1068209 -0.052975748 0.06029267 -0.027008586 0.11067217 0.08906538
-0.005202621 -0.07416479 0.06766247 0.034484126 -0.07182442 0.07217162 0.06745576 0.09854389
-0.062284403 -0.018289551 -0.002152428 0.016228609 -0.084324256 -0.07884693 0.06044496 -0.026054658
0.05427482 0.006334439 0.03648276 0.02443207 0.04039993 0.055078976 -0.10290134 0.05592794
-0.07812481 -0.083834335 0.006757155 -0.01893413 0.06525823 -0.06434841 -0.098775774 0.0808632
-0.01647576 0.06249524 0.035720505 -0.08331948 0.022322036 0.026688509 -0.0743954 -0.052719142
0.03788618 0.019902505 -0.047263622 -0.033635102 0.101764746 -0.020557918 0.06264352 0.04811146
-0.071823016 -0.09449217 0.106654294 0.005801864 0.076162 0.023025714 0.035735853 0.08299541
0.10535718 -0.07373123 0.013892107 0.082917474 0.08049279 0.06902649 -0.08041321 -0.08001158
-0.067196846 0.0139587 0.11074055 -0.07018618 0.059208997 -0.061498683 -0.10446841 -0.023615517
0.06401899 0.10315276 -0.06900431 0.024112351 0.09587336 0.07362818 0.069247015 0.078959174
0.070279606 0.0286996 -0.075980015 -0.093306504 -0.0509134 -0.012938432 -0.0681058 0.040650405
0.034387536 -0.025159478 0.04270453 0.03590942 0.06783766 0.07482708 -0.037628084 0.10855841
-0.012845308 -0.0038173348 -0.104875565 -0.07151291 -0.0649115 -0.047524773 0.07899662 -0.036309004
-0.083031245 0.042749994 0.0355744 0.07196563 -0.057496905 0.02409055 -0.040450066 -0.024963856
-0.088546485 -0.050640106 -0.034028634 0.047515042 0.020298831 0.027446277 0.11090057 0.10829195
0.07578302 0.003538169 -0.07686572 0.08683441 -0.027784824 -0.008982815 -0.09572211 -0.021947622
-0.07166532 0.10210066 -0.09605789 -0.08660919 -0.0037729219 -0.060079496 0.039756857 -0.042769514
-0.05218751 0.0062930733 0.08043311 -0.07815819 0.05217848 0.07138238 0.108688585 -0.0777701
0.026909985 -0.082158536 0.09486114 -0.0431007 0.06692808 0.0033079386 -0.008653626 -0.003545314
0.018888272 0.05237735 0.017819993 0.033894993 -0.099947184 0.0809486 0.09687377 0.09184509
0.08213585 -0.08018127 -0.04118889 0.09796948 -0.08462873 0.100802355 -0.08738845 -0.07826762
0.054319777 -0.07983212 -0.025455631 0.08083243 0.08800987 0.105083965 -0.02254638 -0.08636231
0.10940122 -0.02366957 -0.04571501 0.027085982 -0.077702716 0.073031135 0.06963696 -0.08816458
-0.0912636 -0.009732932 0.04666949 -0.0032180175 -0.056341954 0.002540268 -0.10443691 -0.078529
-0.07396548 0.091503374 0.0979451 -0.037740745 0.004983373 0.049553104 0.01331304 -0.055639174
00000000: 8280 6a3d 4be0 48bd 0075 b0bc 729d 553d
00000010: ad3a d6bd 1178 883d 7841 bbbc f688 673d
00000020: 9812 7d3c 20e7 5ebc c475 fc3c 909c b33b
00000030: 2a38 263d 765b 31bd f0b9 04bc c8e3 23bc
00000040: 64ee 833c 00b7 e8b9 e7eb c63d 46a0 0d3d
00000050: 787c 29bd 4c6f 89bd 4891 98bc d64e 44bd
00000060: f6d6 11bd e054 ae3b f5a6 873d 9e5e 773d
00000070: 7772 debd fd10 8d3d 8448 fe3c 5dd9 d73d
00000080: 4533 963d 9e55 cfbd 9b5c d8bd c483 5bbd
00000090: b7d1 c73d 649d 97bc e2c4 423d ce7e 53bd
000000a0: 1748 df3d 8a8e 40bd 49a6 aa3d 0075 ac3a
000000b0: aec2 6fbd 12ef 693d 0795 71bd aed9 053d
000000c0: a86a 03bd 5895 47bc ebc4 dabd 19fd 58bd
000000d0: 72f5 763d 1c41 ddbc 17a8 e23d e967 b63d
000000e0: c07a aabb b6e3 97bd 9f92 8a3d 3a3f 0d3d
000000f0: ae18 93bd b7ce 933d 3f26 8a3d 61d1 c93d
00000100: ee1d 7fbd f8d3 95bc c00f 0dbb dcf1 843c
00000110: 32b2 acbd 807a a1bd 2295 773d 9470 d5bc
00000120: 464f 5e3d 2091 cf3b f26e 153d c425 c83c
00000130: 667a 253d 7e9a 613d f0bd d2bd b214 653d
00000140: e6ff 9fbd 56b1 abbd 206b dd3b c01b 9bbc
00000150: 1ba6 853d 19c9 83bd f44a cabd 9b9b a53d
00000160: 2cf8 86bc 02fb 7f3d aa4f 123d 67a3 aabd
00000170: b4dc b63c dca1 da3c 9e5c 98bd 07f0 57bd
00000180: 8a2e 1b3d 940a a33c 8097 41bd f6c4 09bd
00000190: 096a d03d 1469 a8bc 3f4b 803d 8610 453d
000001a0: f217 93bd 1c85 c1bd 916d da3d 901d be3b
000001b0: d3fa 9b3d 6ca0 bc3c c25f 123d 7ff9 a93d
000001c0: 81c5 d73d 6600 97bd b89b 633c a3d0 a93d
000001d0: 67d9 a43d c35d 8d3d aeaf a4bd 1cdd a3bd
000001e0: 809e 89bd 08b3 643c f1cb e23d c6bd 8fbd
000001f0: 2285 723d 0be6 7bbd 89f3 d5bd 5475 c1bc
00000200: 631c 833d c141 d33d 2252 8dbd 4487 c53c
00000210: 4159 c43d 5fca 963d 61d1 8d3d 59b5 a13d
00000220: c1ee 8f3d 6c1b eb3c 699b 9bbd 7b17 bfbd
00000230: 928a 50bd b8fb 53bc 0e7b 8bbd 0a81 263d
00000240: f2d9 0c3d 401b cebc f2ea 2e3d c215 133d
00000250: 79ee 8a3d f13e 993d e81f 1abd df53 de3d
00000260: 2075 52bc 402c 7abb 00c9 d6bd 5c75 92bd
00000270: 52f0 84bd 56a9 42bd fbc8 a13d c0b8 14bd
00000280: 490c aabd 9e1a 2f3d 76b6 113d b762 933d
00000290: e081 6bbd 8c59 c53c f8ae 25bd 0081 ccbc
000002a0: dc57 b5bd 006c 4fbd 9c61 0bbd 229f 423d
000002b0: bc49 a63c 04d7 e03c d71f e33d 2bc8 dd3d
000002c0: 2134 9b3d a0e0 673b c66b 9dbd 3dd6 b13d
000002d0: 009d e3bc a82c 13bc f409 c4bd 80cb b3bc
000002e0: 44c5 92bd 271a d13d 00ba c4bd 2960 b1bd
000002f0: 2043 77bb eb15 76bd 16d8 223d 162f 2fbd
00000300: 92c2 55bd 2036 ce3b 1dba a43d 6711 a0bd
00000310: 1ab9 553d ed30 923d 1f98 de3d ee45 9fbd
00000320: 5472 dc3c bc42 a8bd 8f46 c23d 5c8a 30bd
00000330: 9711 893d 00ca 583b f0c7 0dbc 8058 68bb
00000340: 94bb 9a3c a289 563d 3cfb 913c 7ad5 0a3d
00000350: 1cb1 ccbd 61c8 a53d c165 c63d 4719 bc3d
00000360: d736 a83d 1436 a4bd aeb5 28bd 39a4 c83d
00000370: d451 adbd 7771 ce3d b7f8 b2bd c64a a0bd
00000380: 6a7e 5e3d 067f a3bd 5488 d0bc 798b a53d
00000390: 853e b43d 4336 d73d 30b3 b8bc b9de b0bd
000003a0: bf0d e03d b0e6 c1bc aa3f 3bbd 6ce3 dd3c
000003b0: 9a22 9fbd 5991 953d d39d 8e3d a28f b4bd
000003c0: 69e8 babd e076 1fbc 8228 3f3d 60e5 52bb
000003d0: d2c6 66bd a07a 263b 05e3 d5bd d0d3 a0bd
000003e0: 377b 97bd 1f66 bb3d 7197 c83d 0a96 1abd
000003f0: 904b a33b 32f8 4a3d f01e 5a3c e7e5 63bd

model.Cell.conv_cc.bias f4 [4]
0.046369396 -0.037844762 -0.062420063 0.025206707
00000000: d6ed 3d3d 1c03 1bbd 2eac 7fbd 4c7e ce3c

model.Cell.conv_ll.weight f4 [3, 1, 3, 3]
-0.24093533 -0.07113826 0.17033789 0.12457648 0.2837794 -0.22734901 0.0028981864 -0.098434255
-0.18643892 -0.18751785 0.08397868 0.034874886 -0.17014949 -0.23495317 -0.27617607 0.3266882
-0.056815147 -0.07707843 -0.12257266 -0.16672194 -0.3048374 -0.19568634 0.20374283 0.073058605
-0.117586225 -0.12597081 0.21293798
00000000: c0b7 76be f0b0 91bd 0e6d 2e3e f421 ff3d
00000010: 894b 913e 2ece 68be 80ef 3d3b e697 c9bd
00000020: d8e9 3ebe ae04 40be 04fd ab3d f8d8 0e3d
00000030: ab3b 2ebe 9097 70be f366 8dbe ad43 a73e
00000040: 00b7 68bd 4cdb 9dbd 6007 fbbd 28b9 2abe
00000050: a613 9cbe 0062 48be f6a1 503e c09f 953d
00000060: 0cd1 f0bd 7efe 00be 6a0c 5a3e

model.cell_list.0.conv_cc.weight f4 [4, 9, 3, 3]
0.42981833 0.45679024 0.38217244 0.40338066 0.3407872 0.28477195 0.24084334 0.4173789
0.33357576 -0.30150715 -0.34169948 -0.4508799 -0.40167513 -0.31591365 -0.36966762 -0.4544539
-0.30820227 -0.34290862 -0.36380258 -0.28321102 -0.3046393 -0.3690437 -0.22825368 -0.27233
-0.31408247 -0.3493788 -0.42215887 0.4403701 0.3259131 0.2827818 0.4258235 0.39404604
0.38208193 0.3325539 0.319911 0.37344137 -0.23819965 -0.30827144 -0.3767218 -0.21380645
-0.32180673 -0.23634782 -0.2971031 -0.22458798 -0.26007506 -0.38894886 -0.25425085 -0.33158672
-0.42149213 -0.35558426 -0.43259168 -0.38986823 -0.41101646 -0.2563068 -0.35452586 -0.3503804
-0.277937 -0.28596377 -0.4045127 -0.29023492 -0.28398028 -0.41952842 -0.234579 -0.39936328
-0.3752044 -0.42327505 -0.23020126 -0.31059688 -0.23819502 -0.32449877 -0.27136073 -0.3672307
-0.4363058 -0.32982674 -0.3575681 -0.35889035 -0.40223813 -0.34536466 -0.3157647 -0.30759087
-0.43717518 0.40179682 0.359543 0.42475268 0.42663977 0.26061475 0.45481893 0.23884393
0.41199026 0.35593727 -0.29479972 -0.4074652 -0.28058338 -0.40236023 -0.44559103 -0.3101572
-0.28656396 -0.23724294 -0.3589977 0.45553893 0.42003438 0.29354525 0.26294732 0.41097045
0.28777716 0.3996182 0.25349241 0.4297154 0.3815742 0.3354986 0.39923096 0.2691671
0.32398263 0.34936157 0.2840693 0.3198809 0.30035508 0.4545118 0.44301173 0.44445005
0.43943405 0.24220705 0.38578582 0.3895732 0.26712126 0.39365676 0.28838894 0.3663482
0.38548294 0.4445569 0.29038912 0.2612602 0.45148617 0.3953205 0.40268493 0.3886568
0.30933174 0.41549945 0.25165692 0.36412343 0.39888737 0.42457676 0.29317507 0.27356187
0.39032498 0.26043683 0.25633693 0.24875298 0.29479563 0.32746863 0.28287804 0.3016966
0.25028986 -0.27966362 -0.37339404 -0.41806236 -0.31902915 -0.43103614 -0.2701807 -0.28406695
-0.45714772 -0.4351737 -0.42122996 -0.40811372 -0.33409223 -0.45783898 -0.43034005 -0.2972231
-0.38435626 -0.3921796 -0.43988606 0.39301276 0.35582435 0.30503032 0.27993548 0.37160838
0.37821054 0.397296 0.38099816 0.33102867 0.26211193 0.4188583 0.3471715 0.27428114
0.4439453 0.41007394 0.26079896 0.29263362 0.31031287 -0.41207442 -0.29604432 -0.4271978
-0.24466857 -0.39385787 -0.28234562 -0.34414792 -0.39679745 -0.2737337 0.26337573 0.28937036
0.36147502 0.43629888 0.3005511 0.2804983 0.2772221 0.29917088 0.30977556 0.32221046
0.2848811 0.38281783 0.34899297 0.27549413 0.284639 0.37161863 0.34650335 0.42672923
0.33125585 0.25808853 0.26592064 0.31548595 0.32349125 0.36078012 0.32318088 0.38909718
0.31114605 0.42964423 0.37361458 0.31393424 0.44711605 0.37645978 0.27258375 0.2862556
0.41776207 0.39884055 0.4347353 0.33944532 0.42569378 0.40322244 0.3823423 0.3222642
0.45509022 0.37046525 0.31931219 -0.34943318 -0.23862575 -0.2732257 -0.35608718 -0.23892337
-0.29906037 -0.40701067 -0.4489717 -0.28328243 -0.24376889 -0.41270927 -0.30233765 -0.3432425
00000000: 2611 dc3e 69e0 e93e 1bac c33e e987 ce3e
00000010: a97b ae3e a1cd 913e a39f 763e b0b2 d53e
00000020: 71ca aa3e 255f 9abe 3cf3 aebe bbd9 e6be
00000030: 5da8 cdbe 6fbf a1be 1345 bdbe 2eae e8be
00000040: b0cc 9dbe b891 afbe 5544 babe 0901 91be
00000050: aff9 9bbe 4cf3 bcbe 55bb 69be d66e 8bbe
00000060: 6bcf a0be c7e1 b2be 3525 d8be 3178 e13e
00000070: 15de a63e c7c8 903e 8a05 da3e 67c0 c93e
00000080: 3ea0 c33e 8144 aa3e 60cb a33e b533 bf3e
00000090: 9cea 73be c1d5 9dbe aee1 c0be 14f0 5abe
000000a0: dac3 a4be 2a05 72be e61d 98be 64fa 65be
000000b0: 8f28 85be 4e24 c7be 2b2d 82be bcc5 a9be
000000c0: d1cd d7be 240f b6be a87c ddbe cf9c c7be
000000d0: c070 d2be a53a 83be 6a84 b5be 0f65 b3be
000000e0: c24d 8ebe d869 92be 4a1c cfbe ac99 94be
000000f0: dd65 91be 6ecc d6be 7a35 70be 5879 ccbe
00000100: cb1a c0be 82b7 d8be e1b9 6bbe 8e06 9fbe
00000110: 65e9 73be b424 a6be cbef 8abe aa05 bcbe
00000120: 7963 dfbe 0ddf a8be 2a13 b7be 7ac0 b7be
00000130: 28f2 cdbe a3d3 b0be e9ab a1be 8d7c 9dbe
00000140: 6dd5 dfbe 50b8 cd3e 0516 b83e 2f79 d93e
00000150: 8770 da3e 4c6f 853e 07de e83e 8193 743e
00000160: 63f0 d23e 693d b63e fdef 96be 479f d0be
00000170: a0a8 8fbe 2902 cebe 8224 e4be edcc 9ebe
00000180: 83b8 92be d0ef 72be 8cce b7be 663c e93e
00000190: bf0e d73e 904b 963e 08a1 863e b86a d23e
000001a0: 8757 933e c29a cc3e c2c9 813e a803 dc3e
000001b0: b25d c33e 79c6 ab3e 0068 cc3e 45d0 893e
000001c0: 0de1 a53e 85df b23e 8871 913e 6ec7 a33e
000001d0: 24c8 993e c5b5 e83e 6fd2 e23e f58e e33e
000001e0: 80fd e03e 2005 783e b885 c53e 2376 c73e
000001f0: 1ec4 883e 618d c93e b7a7 933e fe91 bb3e
00000200: 055e c53e f69c e33e e2ad 943e e6c3 853e
00000210: 3229 e73e 7367 ca3e b82c ce3e 06fe c63e
00000220: bb60 9e3e 58bc d43e 2dd9 803e 636e ba3e
00000230: f73a cc3e 2062 d93e 0b1b 963e 4d10 8c3e
00000240: add8 c73e fa57 853e 983e 833e 1ab9 7e3e
00000250: 74ef 963e f8a9 a73e 64d5 903e fa77 9a3e
00000260: fe25 803e 1230 8fbe 812d bfbe 450c d6be
00000270: ca57 a3be c5b0 dcbe 2055 8abe 3971 91be
00000280: 440f eabe 16cf debe 74ab d7be 48f4 d0be
00000290: 230e abbe df69 eabe 8855 dcbe a02d 98be
000002a0: 58ca c4be c4cb c8be bf38 e1be f838 c93e
000002b0: 9c2e b63e ef2c 9c3e b453 8f3e 7443 be3e
000002c0: d0a4 c13e 626a cb3e 3112 c33e 977c a93e
000002d0: 8933 863e 9874 d63e 76c0 b13e 946e 8c3e
000002e0: cc4c e33e 36f5 d13e 7187 853e 13d4 953e
000002f0: 54e1 9e3e 6bfb d2be 1f93 97be acb9 dabe
00000300: 668a 7abe bda7 c9be 9b8f 90be 2834 b0be
00000310: 0929 cbbe d326 8cbe 2fd9 863e 5a28 943e
00000320: 4113 b93e 9162 df3e d5e1 993e 799d 8f3e
00000330: 0ef0 8d3e ed2c 993e e79a 9e3e c5f8 a43e
00000340: efdb 913e b300 c43e 35af b23e 910d 8d3e
00000350: 34bc 913e cc44 be3e e368 b13e 417c da3e
00000360: 5e9a a93e 2e24 843e c026 883e 6087 a13e
00000370: a5a0 a53e 2cb8 b83e f777 a53e bf37 c73e
00000380: 894e 9f3e 54fa db3e 694a bf3e fdbb a03e
00000390: 65ec e43e 56bf c03e 1990 8b3e 1890 923e
000003a0: e9e4 d53e d434 cc3e a095 de3e c7cb ad3e
000003b0: 89f4 d93e 2c73 ce3e 5fc2 c33e d0ff a43e
000003c0: 9601 e93e 9fad bd3e e37c a33e e8e8 b2be
000003d0: 4f5a 74be 3de4 8bbe 0f51 b6be 54a8 74be
000003e0: 711e 99be b463 d0be 9edf e5be 650a 91be
000003f0: 8d9e 79be a14e d3be 00cc 9abe 7bbd afbe

model.cell_list.0.conv_cc.bias f4 [4]
-0.3812404 0.42679852 0.4382164 -0.42537865
00000000: f131 c3be 5685 da3e e65d e03e 3bcb d9be

model.cell_list.0.conv_ll.weight f4 [3, 1, 3, 3]
-0.50059736 -0.3067886 -0.6611986 -0.24455643 -0.48581004 -0.4947078 -0.6046178 -0.19098988
-0.55933684 -0.6143271 -0.43555164 -0.5334603 -0.67195946 -0.21355517 -0.47471505 -0.114405215
-0.11325461 -0.56048363 0.15371966 0.22972481 0.54329544 0.33656982 0.22896253 0.55453753
0.66415954 0.59447676 0.09314222
00000000: 2627 00bf 6513 9dbe 5044 29bf 006d 7abe
00000010: 18bc f8be 574a fdbe 3bc8 1abf da92 43be
00000020: b330 0fbf 8a44 1dbf a000 dfbe db90 08bf
00000030: 8905 2cbf 35ae 5abe da0d f3be 484d eabd
00000040: 08f2 e7bd db7b 0fbf b068 1d3e fb3c 6b3e
00000050: 6915 0b3f e152 ac3e 2775 6a3e 2cf6 0d3f
00000060: 5c06 2a3f a12f 183f 59c1 be3d

model.cell_list.1.conv_cc.weight f4 [4, 2, 3, 3]
0.29908967 0.30283424 0.5491936 0.22613777 0.21295677 0.3517325 0.2932917 0.43726242
0.37669495 0.20815277 0.52026993 0.4955987 0.40049565 0.1355399 0.45964044 0.5054961
0.41450018 0.25777084 0.36385676 0.2575016 0.56995165 0.5756469 0.32058156 0.18946894
0.48670158 0.4683473 0.4729892 0.17179455 0.4290726 0.24856304 0.14197901 0.18456429
0.4490651 0.43739286 0.14228266 0.48281136 -0.1677984 -0.16947432 -0.21531442 -0.38540366
-0.19046706 -0.16387591 -0.22553614 -0.51793224 -0.43066484 -0.15208562 -0.15912141 -0.18842126
-0.43732214 -0.3854901 -0.5144137 -0.47313118 -0.15787089 -0.53226745 0.28980526 0.3980854
0.20662877 0.4029957 0.31016305 0.44231603 0.16717932 0.38058123 0.13315754 0.4948056
0.57753175 0.26445013 0.38343138 0.22714165 0.19780245 0.22920574 0.23629057 0.3933195
00000000: 4822 993e 170d 9b3e f497 0c3f a990 673e
00000010: 5711 5a3e 4816 b43e 542a 963e dce0 df3e
00000020: 29de c03e 0026 553e 6930 053f 1dbf fd3e
00000030: c40d cd3e f9ca 0a3e fe55 eb3e 3168 013f
00000040: 5e39 d43e 8afa 833e 6f4b ba3e 40d7 833e
00000050: 5ae8 113f 985d 133f 4423 a43e 2504 423e
00000060: f330 f93e 38cb ef3e a42b f23e e9ea 2f3e
00000070: 67af db3e 4f87 7e3e f262 113e 6cfe 3c3e
00000080: dceb e53e f5f1 df3e 8cb2 113e 0d33 f73e
00000090: 58d3 2bbe ad8a 2dbe 627b 5cbe a153 c5be
000000a0: cc09 43be 16cf 27be f2f2 66be 3597 04bf
000000b0: 1a80 dcbe 55bc 1bbe b9f0 22be 81f1 40be
000000c0: b0e8 dfbe f55e c5be 9eb0 03bf 403e f2be
000000d0: e8a8 21be ae42 08bf 5b61 943e d9d1 cb3e
000000e0: 7e96 533e 7455 ce3e b1cd 9e3e 3f77 e23e
000000f0: 0e31 2b3e 8bdb c23e 735a 083e 2957 fd3e
00000100: 1fd9 133f 0266 873e 1e51 c43e d297 683e
00000110: ba8c 4a3e e9b4 6a3e 28f6 713e 2c61 c93e

model.cell_list.1.conv_cc.bias f4 [4]
-0.36693323 -0.32184356 0.21585046 -0.4893826
00000000: acde bbbe aec8 a4be e707 5d3e 5b90 fabe

model.cell_list.1.conv_ll.weight f4 [3, 1, 3, 3]
0.060424063 0.10941607 0.6281363 0.4728397 0.031098086 0.2933627 0.37575072 0.52707356
0.6581501 0.42979205 0.5841115 0.23068523 0.3384096 0.14807837 0.42609024 0.656987
0.5586279 0.68099463 0.19846061 0.30694926 0.4174145 0.616648 0.042243317 0.18495314
0.39701128 0.15598966 0.4731775
00000000: 397f 773d 8815 e03d 8acd 203f 0c18 f23e
00000010: 6ac1 fe3c a333 963e 6662 c03e 4bee 063f
00000020: 867c 283f b40d dc3e 5588 153f c038 6c3e
00000030: 0644 ad3e dba1 173e 8028 da3e 4d30 283f
00000040: 3d02 0f3f aa55 2e3f 4239 4b3e 7428 9d3e
00000050: 5ab7 d53e a5dc 1d3f 5407 2d3d 5b64 3d3e
00000060: 1045 cb3e c1bb 1f3e 5244 f23e

model.cell_list.2.conv_cc.weight f4 [4, 2, 3, 3]
0.33211794 0.2871097 0.47459584 0.5166367 0.57745165 0.45492244 0.34174126 0.54089874
0.53576887 -0.46627167 -0.2407814 -0.3205243 -0.4500072 -0.40427485 -0.40380022 -0.5130815
-0.4200692 -0.26882777 0.521158 0.36602885 0.11987041 0.47295588 0.27680504 0.55861896
0.120370746 0.29297858 0.5309174 -0.24611664 -0.46567538 -0.5521779 -0.35061318 -0.25702724
-0.54376096 -0.5453182 -0.35104874 -0.39642122 0.5075904 0.12771168 0.3186008 0.17344719
0.32176724 0.23566706 0.43028402 0.1589259 0.17068197 -0.49026594 -0.5629431 -0.20771426
-0.39024022 -0.48746088 -0.1913434 -0.4099851 -0.23460655 -0.42957342 0.1511104 0.40007702
0.49508005 0.11849349 0.37284634 0.39528844 0.3753638 0.34247828 0.27504376 -0.53124374
-0.30981523 -0.50656074 -0.5430081 -0.4239325 -0.50961107 -0.2760168 -0.18036859 -0.16507897
00000000: 5d0b aa3e 0b00 933e 3afe f23e 4e42 043f
00000010: dfd3 133f 98eb e83e b6f8 ae3e 5778 0a3f
00000020: 2628 093f 29bb eebe 668f 76be c31b a4be
00000030: 5867 e6be 1dfd cebe e7be cebe 4f59 03bf
00000040: 4f13 d7be cba3 89be 9c6a 053f 2268 bb3e
00000050: 9e7e f53d 4627 f23e 64b9 8d3e a701 0f3f
00000060: f084 f63d 4a01 963e 34ea 073f 0006 7cbe
00000070: 016d eebe 885b 0dbf 9283 b3be 1399 83be
00000080: eb33 0bbf f999 0bbf a9bc b3be b9f7 cabe
00000090: 72f1 013f dac6 023e a51f a33e 249c 313e
000000a0: adbe a43e b552 713e 304e dc3e 79bd 223e
000000b0: 41c7 2e3e 2304 fbbe 0a1d 10bf 0cb3 54be
000000c0: 91cd c7be 7994 f9be 86ef 43be 91e9 d1be
000000d0: b33c 70be 0cf1 dbbe afbc 1a3e e5d6 cc3e
000000e0: 227b fd3e b7ac f23d b7e5 be3e 3f63 ca3e
000000f0: af2f c03e 5059 af3e 89d2 8c3e 97ff 07bf
00000100: 1aa0 9ebe f7ad 01bf 9402 0bbf ae0d d9be
00000110: df75 02bf 1352 8dbe 8bb2 38be 760a 29be

model.cell_list.2.conv_cc.bias f4 [4]
-0.50361186 -0.22914153 -0.17077246 -0.35605288
00000000: b5ec 00bf 14a4 6abe fade 2ebe 904c b6be

model.cell_list.2.conv_ll.weight f4 [3, 1, 3, 3]
-0.20754135 -0.15955704 -0.09312158 -0.16981319 -0.20588921 -0.4746872 -0.534017 -0.50623274
-0.07390975 -0.4288362 -0.33617848 -0.6589624 -0.36290738 -0.44213408 -0.56318015 -0.08994643
-0.61797124 -0.39575064 -0.3719385 -0.6500717 -0.14676598 -0.45436662 -0.19855474 -0.16226435
-0.054374643 -0.2658542 -0.09805878
00000000: b885 54be ec62 23be 87b6 bebd 82e3 2dbe
00000010: 9fd4 52be 330a f3be 57b5 08bf 7898 01bf
00000020: ff5d 97bd 6b90 dbbe 961f acbe c3b1 28bf
00000030: ffce b9be 665f e2be 932c 10bf d535 b8bd
00000040: 5d33 1ebf d49f cabe b96e bebe 196b 26bf
00000050: d249 16be bea2 e8be ef51 4bbe a028 26be
00000060: f2b7 5ebd 0b1e 88be 0bd3 c8bd

exp_avg f4 [4, 9, 3, 3]
-4.837683e-05 -4.811055e-05 -4.7562815e-05 -4.9041773e-05 -4.8745795e-05 -4.8185062e-05 -4.9163387e-05 -4.9138467e-05
-4.84842e-05 4.394078e-06 4.419251e-06 4.457788e-06 4.414903e-06 4.4297517e-06 4.462355e-06 4.411924e-06
4.42852e-06 4.461332e-06 5.27317e-06 5.2741343e-06 5.2743603e-06 5.265198e-06 5.266601e-06 5.2672794e-06
5.2563164e-06 5.258045e-06 5.2591836e-06 -1.3281557e-07 -1.3280182e-07 -1.3278775e-07 -1.3280376e-07 -1.3278984e-07
-1.3277563e-07 -1.3279309e-07 -1.3277901e-07 -1.3276457e-07 4.629345e-06 4.629361e-06 4.6293812e-06 4.629359e-06
4.629377e-06 4.6293967e-06 4.6293812e-06 4.629397e-06 4.6294135e-06 8.990504e-06 8.990552e-06 8.99061e-06
8.990494e-06 8.990538e-06 8.990595e-06 8.990481e-06 8.990531e-06 8.99058e-06 7.264059e-06 7.26414e-06
7.2642274e-06 7.2640664e-06 7.2641524e-06 7.2642397e-06 7.264081e-06 7.2641596e-06 7.2642497e-06 1.0028623e-05
1.00287e-05 1.0028787e-05 1.0028683e-05 1.0028759e-05 1.0028836e-05 1.0028733e-05 1.0028808e-05 1.0028894e-05
8.062416e-06 8.036705e-06 7.940098e-06 8.2602155e-06 8.215647e-06 8.084681e-06 8.325172e-06 8.32223e-06
8.165252e-06 -0.00029019787 -0.00028957333 -0.00028838898 -0.00029153365 -0.00029077005 -0.00028953463 -0.0002917356
-0.00029168796 -0.00029036877 7.49745e-06 7.524985e-06 7.5396592e-06 7.5171884e-06 7.5437847e-06 7.556699e-06
7.5359653e-06 7.5603784e-06 7.5724156e-06 -7.911542e-05 -7.911964e-05 -7.912567e-05 -7.91335e-05 -7.913689e-05
-7.914192e-05 -7.915338e-05 -7.915616e-05 -7.916028e-05 -1.7051517e-06 -1.7050605e-06 -1.7049687e-06 -1.7051261e-06
-1.7050347e-06 -1.7049418e-06 -1.7051013e-06 -1.7050098e-06 -1.7049157e-06 -8.882223e-05 -8.8822184e-05 -8.882217e-05
-8.8822184e-05 -8.882212e-05 -8.882209e-05 -8.882209e-05 -8.882205e-05 -8.8822046e-05 -0.000100331265 -0.00010033147
-0.00010033166 -0.00010033148 -0.00010033166 -0.00010033185 -0.00010033166 -0.00010033187 -0.00010033206 -8.954978e-05
-8.9549416e-05 -8.954906e-05 -8.954998e-05 -8.9549656e-05 -8.954929e-05 -8.955022e-05 -8.954986e-05 -8.9549474e-05
-0.0001165386 -0.000116538846 -0.000116539086 -0.0001165386 -0.000116538846 -0.000116539086 -0.00011653858 -0.000116538846
-0.00011653904 6.756358e-05 6.752477e-05 6.737682e-05 6.7951856e-05 6.7808316e-05 6.7566405e-05 6.811598e-05
6.803228e-05 6.7669134e-05 0.00035519316 0.00035418462 0.00035089842 0.00035851265 0.00035714053 0.00035380534
0.00035850148 0.00035851425 0.0003547142 -4.1657247e-05 -4.180975e-05 -4.178986e-05 -4.1766674e-05 -4.1964613e-05
-4.1958177e-05 -4.1934258e-05 -4.2121803e-05 -4.2103402e-05 -3.4425582e-05 -3.44329e-05 -3.4436063e-05 -3.4372766e-05
-3.4382552e-05 -3.4388475e-05 -3.4314817e-05 -3.4326422e-05 -3.433489e-05 2.089554e-06 2.0894138e-06 2.0892699e-06
2.0894713e-06 2.089331e-06 2.0891855e-06 2.0893951e-06 2.0892526e-06 2.0891066e-06 -2.993723e-05 -2.9937306e-05
-2.9937424e-05 -2.9937371e-05 -2.9937459e-05 -2.9937524e-05 -2.9937475e-05 -2.993756e-05 -2.9937655e-05 -5.899467e-05
-5.8995036e-05 -5.8995454e-05 -5.899457e-05 -5.899497e-05 -5.899544e-05 -5.899457e-05 -5.8994883e-05 -5.899535e-05
-4.7436395e-05 -4.743701e-05 -4.743754e-05 -4.7436493e-05 -4.7437068e-05 -4.7437632e-05 -4.743651e-05 -4.7437115e-05
-4.7437687e-05 -6.62067e-05 -6.620741e-05 -6.6208144e-05 -6.620712e-05 -6.620782e-05 -6.620852e-05 -6.6207474e-05
-6.620821e-05 -6.620892e-05 -5.0915532e-05 -5.088184e-05 -5.0207083e-05 -5.2118172e-05 -5.1997868e-05 -5.1184797e-05
-5.2444164e-05 -5.2520787e-05 -5.1565683e-05 0.0010642395 0.0010642165 0.0010647099 0.0010616077 0.0010616394
0.0010628755 0.0010609237 0.0010608989 0.0010629427 3.7062118e-06 3.716949e-06 3.751796e-06 3.6861854e-06
00000000: 3ae8 4ab8 4fca 49b8 2f7e 47b8 34b2 4db8
00000010: 6674 4cb8 511a 4ab8 c934 4eb8 071a 4eb8
00000020: 835b 4bb8 d870 9336 1449 9436 1b94 9536
00000030: ba23 9436 47a3 9436 56bb 9536 230a 9436
00000040: b298 9436 8db2 9536 2ff0 b036 78f8 b036
00000050: 69fa b036 b5ab b036 c2b7 b036 96bd b036
00000060: 6a5f b036 436e b036 0b78 b036 119c 0eb4
00000070: 4998 0eb4 6b94 0eb4 d298 0eb4 fe94 0eb4
00000080: 1691 0eb4 e395 0eb4 0492 0eb4 0c8e 0eb4
00000090: c555 9b36 e855 9b36 1556 9b36 e455 9b36
000000a0: 0c56 9b36 3756 9b36 1556 9b36 3856 9b36
000000b0: 5c56 9b36 ecd5 1637 20d6 1637 60d6 1637
000000c0: e1d5 1637 11d6 1637 50d6 1637 d2d5 1637
000000d0: 09d6 1637 3fd6 1637 cbbd f336 7dbe f336
000000e0: 3dbf f336 dbbd f336 98be f336 58bf f336
000000f0: fbbd f336 a8be f336 6ebf f336 9c40 2837
00000100: f040 2837 5041 2837 de40 2837 3141 2837
00000110: 8641 2837 1541 2837 6741 2837 c641 2837
00000120: d043 0737 63d5 0637 7636 0537 5b95 0a37
00000130: efd5 0937 71a3 0737 57ac 0b37 b59f 0b37
00000140: 7efd 0837 b325 98b9 e0d1 97b9 ea32 97b9
00000150: fcd8 98b9 7f72 98b9 aecc 97b9 17f4 98b9
00000160: b2ed 98b9 a33c 98b9 9b92 fb36 217f fc36
00000170: 2efd fc36 283c fc36 9e20 fd36 8d8f fd36
00000180: 73dd fc36 28af fd36 8e16 fe36 c5ea a5b8
00000190: 09ed a5b8 45f0 a5b8 79f4 a5b8 4bf6 a5b8
000001a0: fff8 a5b8 26ff a5b8 a400 a6b8 da02 a6b8
000001b0: 91dc e4b5 6fd9 e4b5 47d6 e4b5 b0db e4b5
000001c0: 8cd8 e4b5 5bd5 e4b5 d6da e4b5 b1d7 e4b5
000001d0: 75d4 e4b5 1246 bab8 0c46 bab8 0a46 bab8
000001e0: 0c46 bab8 0346 bab8 ff45 bab8 ff45 bab8
000001f0: fa45 bab8 f945 bab8 f068 d2b8 0c69 d2b8
00000200: 2669 d2b8 0e69 d2b8 2669 d2b8 4069 d2b8
00000210: 2669 d2b8 4369 d2b8 5d69 d2b8 accc bbb8
00000220: 7acc bbb8 49cc bbb8 c8cc bbb8 9bcc bbb8
00000230: 69cc bbb8 e9cc bbb8 b7cc bbb8 82cc bbb8
00000240: 2f66 f4b8 5166 f4b8 7266 f4b8 2f66 f4b8
00000250: 5166 f4b8 7266 f4b8 2c66 f4b8 5166 f4b8
00000260: 6c66 f4b8 ecb0 8d38 169c 8d38 a84c 8d38
00000270: 6081 8e38 5034 8e38 70b2 8d38 7dd9 8e38
00000280: 8dac 8e38 97e9 8d38 3839 ba39 dbb1 b939
00000290: caf8 b739 c1f6 bb39 973e bb39 f37e b939
000002a0: 41f5 bb39 f8f6 bb39 eff8 b939 21b9 2eb8
000002b0: e15c 2fb8 8547 2fb8 a02e 2fb8 2903 30b8
000002c0: 40fc 2fb8 91e2 2fb8 f1ab 30b8 2f98 30b8
000002d0: 3064 10b8 0b6c 10b8 716f 10b8 7a2b 10b8
000002e0: fc35 10b8 583c 10b8 41ed 0fb8 b7f9 0fb8
000002f0: cf02 10b8 443a 0c36 db37 0c36 6235 0c36
00000300: d838 0c36 6f36 0c36 ef33 0c36 8937 0c36
00000310: 1635 0c36 9432 0c36 b621 fbb7 e021 fbb7
00000320: 2122 fbb7 0422 fbb7 3422 fbb7 5822 fbb7
00000330: 3d22 fbb7 6c22 fbb7 a022 fbb7 0b71 77b8
00000340: 7071 77b8 e371 77b8 f070 77b8 5e71 77b8
00000350: df71 77b8 f070 77b8 4671 77b8 c671 77b8
00000360: 71f6 46b8 1af7 46b8 acf7 46b8 8cf6 46b8
00000370: 2af7 46b8 c5f7 46b8 91f6 46b8 37f7 46b8
00000380: d4f7 46b8 74d8 8ab8 d5d8 8ab8 3ad9 8ab8
00000390: add8 8ab8 0dd9 8ab8 6ed9 8ab8 ded8 8ab8
000003a0: 43d9 8ab8 a5d9 8ab8 238e 55b8 f669 55b8
000003b0: 7295 52b8 7699 5ab8 4918 5ab8 42af 56b8
000003c0: 7ef7 5bb8 c449 5cb8 3b48 58b8 f47d 8b3a
000003d0: 2e7d 8b3a bc8d 8b3a a525 8b3a b526 8b3a
000003e0: 2f50 8b3a b10e 8b3a dc0d 8b3a 7052 8b3a
000003f0: 3cb8 7836 b370 7936 5dc7 7b36 2f60 7736

exp_avg_sq f4 [4, 9, 3, 3]
6.6453275e-08 6.571371e-08 6.421678e-08 6.8304495e-08 6.7474645e-08 6.5922826e-08 6.864712e-08 6.8574145e-08
6.674804e-08 5.5936616e-10 5.657422e-10 5.7560967e-10 5.64648e-10 5.6841776e-10 5.7678723e-10 5.6391536e-10
5.6813865e-10 5.765626e-10 9.385747e-10 9.388934e-10 9.389716e-10 9.359586e-10 9.364206e-10 9.366468e-10
9.330503e-10 9.336181e-10 9.339935e-10 4.8219523e-13 4.820937e-13 4.819894e-13 4.821068e-13 4.820043e-13
4.818987e-13 4.8202707e-13 4.8192326e-13 4.8181657e-13 7.476171e-10 7.4762185e-10 7.476275e-10 7.476213e-10
7.476267e-10 7.476323e-10 7.476275e-10 7.476323e-10 7.476372e-10 2.635096e-09 2.6351246e-09 2.6351574e-09
2.6350926e-09 2.6351163e-09 2.6351505e-09 2.6350848e-09 2.635113e-09 2.6351408e-09 1.7360812e-09 1.7361161e-09
1.7361548e-09 1.7360836e-09 1.7361221e-09 1.7361602e-09 1.7360902e-09 1.736125e-09 1.7361644e-09 3.293601e-09
3.29365e-09 3.293705e-09 3.2936387e-09 3.2936864e-09 3.2937368e-09 3.2936711e-09 3.2937175e-09 3.2937733e-09
1.8758204e-09 1.8638886e-09 1.8194043e-09 1.968873e-09 1.9477098e-09 1.8861834e-09 1.9999218e-09 1.99851e-09
1.9239166e-09 2.4214635e-06 2.4110464e-06 2.3913592e-06 2.4438214e-06 2.431029e-06 2.4104095e-06 2.4472051e-06
2.4464066e-06 2.4243147e-06 1.6258602e-09 1.6378032e-09 1.6441598e-09 1.6344285e-09 1.6459946e-09 1.6515976e-09
1.6425667e-09 1.6532085e-09 1.6584477e-09 1.7920128e-07 1.7922045e-07 1.7924768e-07 1.7928342e-07 1.7929878e-07
1.7932157e-07 1.793738e-07 1.7938648e-07 1.7940506e-07 8.348407e-11 8.3475185e-11 8.346608e-11 8.3481534e-11
8.347256e-11 8.3463424e-11 8.347912e-11 8.347014e-11 8.346093e-11 2.2593288e-07 2.2593264e-07 2.2593241e-07
2.2593258e-07 2.2593231e-07 2.2593207e-07 2.259322e-07 2.2593201e-07 2.2593184e-07 2.8813565e-07 2.8813682e-07
2.8813778e-07 2.8813693e-07 2.881381e-07 2.8813898e-07 2.881381e-07 2.8813923e-07 2.881401e-07 2.2957205e-07
2.2957028e-07 2.295685e-07 2.295732e-07 2.2957148e-07 2.295696e-07 2.2957437e-07 2.2957248e-07 2.295706e-07
3.8875177e-07 3.8875334e-07 3.8875504e-07 3.8875177e-07 3.8875342e-07 3.8875504e-07 3.887515e-07 3.8875334e-07
3.8875476e-07 1.3142298e-07 1.3127205e-07 1.3069746e-07 1.329377e-07 1.3237674e-07 1.3143395e-07 1.335806e-07
1.3325251e-07 1.3183391e-07 3.6320075e-06 3.6114116e-06 3.5447092e-06 3.70021e-06 3.6719407e-06 3.6036804e-06
3.6999766e-06 3.7002417e-06 3.6222182e-06 4.9952043e-08 5.0318473e-08 5.0270597e-08 5.0214872e-08 5.0691956e-08
5.0676384e-08 5.0618603e-08 5.1072398e-08 5.1027808e-08 3.4074027e-08 3.4088504e-08 3.4094803e-08 3.396951e-08
3.3988847e-08 3.400058e-08 3.385498e-08 3.3877896e-08 3.389462e-08 1.257152e-10 1.2569837e-10 1.2568105e-10
1.2570527e-10 1.2568832e-10 1.2567086e-10 1.2569606e-10 1.2567898e-10 1.2566136e-10 2.5761269e-08 2.5761413e-08
2.5761606e-08 2.5761524e-08 2.5761668e-08 2.5761784e-08 2.57617e-08 2.5761846e-08 2.5762e-08 1.00093274e-07
1.0009448e-07 1.000959e-07 1.00092954e-07 1.000943e-07 1.0009587e-07 1.0009292e-07 1.0009398e-07 1.0009557e-07
6.4709724e-08 6.471143e-08 6.4712886e-08 6.471002e-08 6.4711614e-08 6.471316e-08 6.471007e-08 6.471172e-08
6.4713284e-08 1.2605845e-07 1.2606127e-07 1.2606405e-07 1.2606014e-07 1.260628e-07 1.2606556e-07 1.2606151e-07
1.2606435e-07 1.2606705e-07 7.4621795e-08 7.452305e-08 7.2559644e-08 7.81886e-08 7.782809e-08 7.5413126e-08
7.916988e-08 7.940131e-08 7.6539685e-08 3.2635162e-05 3.2633805e-05 3.2664007e-05 3.247405e-05 3.2476077e-05
3.255166e-05 3.24322e-05 3.243077e-05 3.2555687e-05 3.9538767e-10 3.9767992e-10 4.0517062e-10 3.9112588e-10
00000000: 13b5 8e33 7e1e 8d33 8ce7 8933 cbae 9233
00000010: 94e6 9033 7591 8d33 276b 9333 0943 9333
00000020: 2057 8f33 e5c1 1930 9182 1b30 ee38 1e30
00000030: 9235 1b30 d83e 1c30 cb8b 1e30 0402 1b30
00000040: 342b 1c30 fc7b 1e30 29ff 8030 600a 8130
00000050: 200d 8130 1ea3 8030 5fb3 8030 54bb 8030
00000060: ca3c 8030 c450 8030 fa5d 8030 d4b9 072b
00000070: 83b2 072b ffaa 072b 75b3 072b 12ac 072b
00000080: 76a4 072b b6ad 072b 3ba6 072b 8b9e 072b
00000090: e080 4d30 3681 4d30 9c81 4d30 2c81 4d30
000000a0: 8d81 4d30 f281 4d30 9c81 4d30 f281 4d30
000000b0: 4a82 4d30 1915 3531 9a15 3531 2e16 3531
000000c0: 0a15 3531 7515 3531 0f16 3531 e714 3531
000000d0: 6615 3531 e315 3531 ed9a ee30 289c ee30
000000e0: 849d ee30 039b ee30 5e9c ee30 b59d ee30
000000f0: 3e9b ee30 789c ee30 db9d ee30 a455 6231
00000100: 8156 6231 7957 6231 4e56 6231 2557 6231
00000110: 0858 6231 e056 6231 b157 6231 ac58 6231
00000120: c8e7 0031 e015 0031 990e fa30 c84c 0731
00000130: 79d8 0531 179e 0131 ff6e 0931 2956 0931
00000140: e635 0431 6d80 2236 76cd 2136 3d7b 2036
00000150: 8800 2436 c324 2336 85c2 2136 aa3a 2436
00000160: f22c 2436 69b1 2236 df74 df30 1419 e130
00000170: bbf8 e130 57a2 e030 4939 e230 6dfe e230
00000180: aec0 e130 1a37 e330 71ef e330 796a 4034
00000190: be6f 4034 3a77 4034 0d81 4034 4685 4034
000001a0: 8a8b 4034 e599 4034 619d 4034 7da2 4034
000001b0: 5a95 b72e 5a90 b72e 3a8b b72e ed93 b72e
000001c0: e08e b72e bb89 b72e 9192 b72e 838d b72e
000001d0: 5488 b72e f597 7234 e497 7234 d497 7234
000001e0: e097 7234 cd97 7234 bc97 7234 c597 7234
000001f0: b897 7234 ac97 7234 10b1 9a34 39b1 9a34
00000200: 5bb1 9a34 3db1 9a34 66b1 9a34 85b1 9a34
00000210: 66b1 9a34 8eb1 9a34 acb1 9a34 4980 7634
00000220: cc7f 7634 4f7f 7634 9a80 7634 2180 7634
00000230: 9c7f 7634 ec80 7634 6780 7634 e37f 7634
00000240: a3b5 d034 dab5 d034 16b6 d034 a3b5 d034
00000250: ddb5 d034 16b6 d034 99b5 d034 dab5 d034
00000260: 0cb6 d034 461d 0d34 c9f3 0c34 d855 0c34
00000270: a3bd 0e34 7123 0e34 4a20 0d34 5b6e 0f34
00000280: 2c14 0f34 3b8e 0d34 6abd 7336 945b 7236
00000290: a4e1 6d36 2051 7836 766b 7636 c2d6 7136
000002a0: 1d4d 7836 ab51 7836 3c15 7336 da8a 5633
000002b0: bf1d 5833 1be9 5733 d6ab 5733 65b8 5933
000002c0: 46a7 5933 be67 5933 b25a 5b33 ab29 5b33
000002d0: ca58 1233 b568 1233 a26f 1233 dfe5 1133
000002e0: 22fb 1133 0808 1233 f267 1133 2481 1133
000002f0: 8793 1133 af39 0a2f f234 0a2f 1230 0a2f
00000300: e336 0a2f 1e32 0a2f 342d 0a2f 4c34 0a2f
00000310: 7d2f 0a2f 872a 0a2f a149 dd32 f249 dd32
00000320: 5f4a dd32 314a dd32 824a dd32 c34a dd32
00000330: 944a dd32 e64a dd32 3d4b dd32 dcf2 d633
00000340: 86f3 d633 4ef4 d633 aff2 d633 6cf3 d633
00000350: 49f4 d633 aaf2 d633 3ff3 d633 1ff4 d633
00000360: 8cf6 8a33 7cf7 8a33 49f8 8a33 b6f6 8a33
00000370: 96f7 8a33 70f8 8a33 bdf6 8a33 a5f7 8a33
00000380: 81f8 8a33 af5a 0734 755b 0734 395c 0734
00000390: 265b 0734 e15b 0734 a35c 0734 865b 0734
000003a0: 4e5c 0734 0c5d 0734 c43f a033 7b09 a033
000003b0: 16d2 9b33 a3e8 a733 7222 a733 cef2 a133
000003c0: 1a04 aa33 5583 aa33 235e a433 bde1 0838
000003d0: 48e0 0838 b600 0938 bf34 0838 ec36 0838
000003e0: 1488 0838 cf07 0838 4606 0838 678c 0838
000003f0: de5d d92f 79a0 da2f b2be de2f 1306 d72f

exp_avg f4 [4]
9.478658e-06 -0.00014750427 -6.2025705e-05 0.00090281334
00000000: 8706 1f37 60ab 1ab9 cc13 82b8 c7aa 6c3a

exp_avg_sq f4 [4]
3.040873e-09 6.229818e-07 1.1061035e-07 2.3517836e-05
00000000: 9bf7 5031 fc3a 2735 af88 ed33 2b48 c537

exp_avg f4 [3, 1, 3, 3]
6.550568e-05 6.538146e-05 6.503173e-05 6.605335e-05 6.588967e-05 6.541554e-05 6.6252935e-05 6.6284425e-05
6.577016e-05 0.0004422334 0.00044185354 0.00044123307 0.00044406735 0.00044325495 0.00044207723 0.0004454564
0.00044507114 0.00044347605 -0.0019018683 -0.0019027372 -0.0019040434 -0.0018964898 -0.0018977389 -0.0019002369
-0.0018926922 -0.0018932889 -0.001896632
00000000: 1860 8938 671d 8938 a561 8838 1f86 8a38
00000010: 3f2e 8a38 b32f 8938 46f1 8a38 2e02 8b38
00000020: 16ee 8938 90db e739 94a8 e739 4d55 e739
00000030: b6d1 e839 ac64 e839 9ac6 e739 258c e939
00000040: 7058 e939 5982 e839 1c48 f9ba 4465 f9ba
00000050: 1891 f9ba a393 f8ba 8dbd f8ba 5f11 f9ba
00000060: 3614 f8ba 3c28 f8ba 6998 f8ba

exp_avg_sq f4 [3, 1, 3, 3]
1.2457836e-07 1.2410814e-07 1.227895e-07 1.2666153e-07 1.260377e-07 1.2423789e-07 1.2742467e-07 1.2754549e-07
1.2558236e-07 5.6334666e-06 5.623793e-06 5.608017e-06 5.6802724e-06 5.659515e-06 5.629486e-06 5.715849e-06
5.7059683e-06 5.665157e-06 0.00010406547 0.00010416061 0.00010430369 0.00010347748 0.00010361385 0.0001038869
0.00010306341 0.00010312842 0.00010349301
00000000: d7c3 0534 9642 0534 1fd8 0334 7500 0834
00000010: fb54 0734 4066 0534 3ad2 0834 70f3 0834
00000020: d1d7 0634 1c07 bd36 04b4 bc36 802c bc36
00000030: 2b99 be36 dde6 bd36 ebe4 bc36 c5ca bf36
00000040: e575 bf36 5417 be36 b93d da38 cd70 da38
00000050: 9ebd da38 0d02 d938 434b d938 dbdd d938
00000060: bf23 d838 a646 d838 630a d938

exp_avg f4 [4, 2, 3, 3]
-0.0004927355 -0.00049331516 -0.0004938085 -0.0004920368 -0.00049244426 -0.00049313373 -0.00049173733 -0.0004917111
-0.000492278 -0.0004968107 -0.0004968729 -0.00049690413 -0.0004966578 -0.00049675343 -0.0004968389 -0.00049648376
-0.00049653783 -0.000496673 -0.00038703284 -0.00038747257 -0.0003878257 -0.00038646298 -0.0003867874 -0.00038732082
-0.00038622975 -0.0003862011 -0.00038665245 -0.00047734377 -0.00047738367 -0.00047740154 -0.0004772238 -0.00047729642
-0.0004773553 -0.0004770819 -0.00047712546 -0.00047722983 0.0021349527 0.0021365865 0.0021391627 0.0021331832
0.0021338086 0.0021364645 0.002133324 0.0021325457 0.0021344265 -0.005292129 -0.0052919025 -0.0052916
-0.005292757 -0.005292559 -0.005292125 -0.0052931993 -0.0052932305 -0.0052927537 -0.0005153603 -0.00051592465
-0.0005163396 -0.0005146374 -0.00051504135 -0.0005156611 -0.00051430834 -0.0005142985 -0.0005148014 -0.00041627322
-0.00041632933 -0.00041635198 -0.00041611484 -0.00041620914 -0.00041628547 -0.000415937 -0.00041599278 -0.0004161188
00000000: eb2a 01ba d251 01ba ed72 01ba 08fc 00ba
00000010: 6017 01ba a545 01ba efe7 00ba 2ce6 00ba
00000020: 380c 01ba 673c 02ba 9340 02ba ac42 02ba
00000030: 2432 02ba 8f38 02ba 4b3e 02ba 7626 02ba
00000040: 172a 02ba 2933 02ba abea cab9 b025 cbb9
00000050: 1655 cbb9 2f9e cab9 bac9 cab9 5211 cbb9
00000060: e17e cab9 097b cab9 9db7 cab9 ff43 fab9
00000070: 5a49 fab9 c04b fab9 e533 fab9 a43d fab9
00000080: 8b45 fab9 d920 fab9 b226 fab9 b434 fab9
00000090: 90ea 0b3b f905 0c3b 3231 0c3b e0cc 0b3b
000000a0: 5ed7 0b3b ed03 0c3b 3dcf 0b3b 2ec2 0b3b
000000b0: bce1 0b3b 9869 adbb b267 adbb 2865 adbb
000000c0: dd6e adbb 346d adbb 9069 adbb 9372 adbb
000000d0: d672 adbb d66e adbb 3f19 07ba 1e3f 07ba
000000e0: f75a 07ba bbe8 06ba d703 07ba 6e2d 07ba
000000f0: a6d2 06ba fdd1 06ba bdf3 06ba 3f3f dab9
00000100: c746 dab9 d149 dab9 fd29 dab9 a536 dab9
00000110: e440 dab9 1e12 dab9 9b19 dab9 852a dab9

exp_avg_sq f4 [4, 2, 3, 3]
6.9850335e-06 7.001484e-06 7.015498e-06 6.9652356e-06 6.9767793e-06 6.99634e-06 6.956755e-06 6.9560156e-06
6.9720695e-06 1.7391551e-06 1.7400346e-06 1.7404777e-06 1.7369939e-06 1.7383463e-06 1.7395537e-06 1.7345345e-06
1.7352987e-06 1.737208e-06 4.3094524e-06 4.3192526e-06 4.327133e-06 4.296767e-06 4.303988e-06 4.31587e-06
4.2915804e-06 4.2909423e-06 4.300983e-06 1.0847007e-06 1.085146e-06 1.0853454e-06 1.0833612e-06 1.0841718e-06
1.0848291e-06 1.0817772e-06 1.0822632e-06 1.0834287e-06 0.00013076072 0.00013096127 0.00013127798 0.00013054357
0.00013062033 0.00013094643 0.00013056082 0.00013046553 0.00013069609 3.4574885e-05 3.458888e-05 3.4607678e-05
3.4535882e-05 3.4548197e-05 3.4575078e-05 3.450846e-05 3.4506502e-05 3.4536104e-05 7.640707e-06 7.657453e-06
7.669786e-06 7.6192773e-06 7.631249e-06 7.649639e-06 7.609536e-06 7.609249e-06 7.6241413e-06 1.9087686e-06
1.9096008e-06 1.9099368e-06 1.9064228e-06 1.9078186e-06 1.908951e-06 1.9037891e-06 1.9046141e-06 1.9064806e-06
00000000: fb60 ea36 4aee ea36 ab66 eb36 ebb6 e936
00000010: 141a ea36 1ac2 ea36 126e e936 b867 e936
00000020: 9ff1 e936 ea6c e935 228b e935 5c9a e935
00000030: a822 e935 2051 e935 9c7a e935 27ce e835
00000040: 69e8 e835 032a e935 ea99 9036 19ee 9036
00000050: ca31 9136 f32c 9036 fa6a 9036 0ad1 9036
00000060: 6500 9036 eafa 8f36 2a51 9036 0896 9135
00000070: 55a5 9135 2fac 9135 0268 9135 dc83 9135
00000080: 729a 9135 9531 9135 4842 9135 546a 9135
00000090: d01c 0939 a652 0939 aaa7 0939 86e2 0839
000000a0: 21f7 0839 aa4e 0939 27e7 0839 93cd 0839
000000b0: 770b 0939 8004 1138 8713 1138 b627 1138
000000c0: 9fda 1038 d8e7 1038 b504 1138 2dbd 1038
000000d0: 13bb 1038 dcda 1038 9630 0037 8378 0037
000000e0: 7bad 0037 18a9 ff36 f707 0037 f356 0037
000000f0: 6b55 ff36 f452 ff36 e0d2 ff36 6518 0036
00000100: b126 0036 772c 0036 30e0 ff35 1308 0036
00000110: 871b 0036 b285 ff35 0ba2 ff35 2de2 ff35

exp_avg f4 [4]
-0.0042109136 -0.0052568917 -0.15329647 -0.0020474878
00000000: b4fb 89bb 0142 acbb c0f9 1cbe 252f 06bb

exp_avg_sq f4 [4]
6.976499e-05 4.4174536e-05 0.0020103094 7.5437136e-05
00000000: cb4e 9238 0c48 3938 65bf 033b 0134 9e38

exp_avg f4 [3, 1, 3, 3]
-0.0010109657 -0.0010110749 -0.001011119 -0.0010106891 -0.0010108695 -0.001011021 -0.0010103544 -0.0010104566
-0.0010107078 -0.0009776542 -0.0009777232 -0.0009777448 -0.0009774363 -0.0009775745 -0.0009776776 -0.0009771619
-0.000977245 -0.00097744 -0.00083929126 -0.0008393894 -0.0008394178 -0.00083900354 -0.00083918317 -0.0008393183
-0.0008386627 -0.0008387688 -0.0008390043
00000000: 6182 84ba 0b86 84ba 8687 84ba 1979 84ba
00000010: 277f 84ba 3c84 84ba de6d 84ba 4c71 84ba
00000020: ba79 84ba a224 80ba f226 80ba ac27 80ba
00000030: 521d 80ba f521 80ba 6b25 80ba 1d14 80ba
00000040: e716 80ba 721d 80ba e203 5cba 780a 5cba
00000050: 600c 5cba 93f0 5bba a1fc 5bba b305 5cba
00000060: b3d9 5bba d2e0 5bba a0f0 5bba

exp_avg_sq f4 [3, 1, 3, 3]
6.674394e-06 6.677419e-06 6.6786424e-06 6.6667276e-06 6.671732e-06 6.6759226e-06 6.6574653e-06 6.6602915e-06
6.6672465e-06 4.1651842e-06 4.1666876e-06 4.1671597e-06 4.160416e-06 4.1634366e-06 4.1656967e-06 4.154419e-06
4.1562344e-06 4.1604985e-06 7.3190604e-06 7.3219135e-06 7.322734e-06 7.310715e-06 7.315926e-06 7.3198544e-06
7.3008296e-06 7.303906e-06 7.310735e-06
00000000: 9cf4 df36 980e e036 1a19 e036 c1b2 df36
00000010: bedd df36 bd01 e036 3163 df36 787b df36
00000020: 36b7 df36 a9c2 8b36 93cf 8b36 a1d3 8b36
00000030: b499 8b36 a6b3 8b36 10c7 8b36 3066 8b36
00000040: c875 8b36 699a 8b36 4096 f536 c2ae f536
00000050: ceb5 f536 904e f536 537b f536 129d f536
00000060: a6f9 f436 1314 f536 bc4e f536

exp_avg f4 [4, 2, 3, 3]
-0.0006499848 -0.00065031706 -0.00065042 -0.0006495437 -0.00064984564 -0.0006502706 -0.0006491122 -0.0006491691
-0.000649586 0.00055046374 0.0005505166 0.00055056537 0.00055034587 0.0005504053 0.0005504819 0.0005502564
0.0005502838 0.000550374 -0.0005466297 -0.0005469127 -0.00054700515 -0.00054626126 -0.0005465102 -0.0005468738
-0.00054591376 -0.00054595043 -0.00054629805 0.00046889696 0.0004689418 0.0004689838 0.00046879935 0.00046884865
0.00046891367 0.00046872676 0.0004687488 0.00046882423 -0.015798673 -0.015800769 -0.015801623 -0.015795635
-0.015797323 -0.015800187 -0.015793119 -0.015793063 -0.015795657 0.006682422 0.0066827545 0.0066831256
0.0066816653 0.0066820076 0.0066825394 0.0066811717 0.006681295 0.0066818804 -0.00051631295 -0.0005166037
-0.000516679 -0.0005159829 -0.0005162684 -0.0005166294 -0.00051564537 -0.00051572867 -0.000516089 0.00044204982
0.0004420968 0.0004421329 0.00044195898 0.00044201224 0.00044207333 0.0004418839 0.00044191108 0.00044198334
00000000: be63 2aba 0a7a 2aba f380 2aba 2446 2aba
00000010: 675a 2aba ec76 2aba 2f29 2aba 002d 2aba
00000020: fb48 2aba ff4c 103a 8b50 103a d153 103a
00000030: 1645 103a 1349 103a 374e 103a 153f 103a
00000040: ec40 103a f946 103a b34b 0fba b15e 0fba
00000050: e564 0fba f932 0fba ae43 0fba 145c 0fba
00000060: a71b 0fba 1d1e 0fba 7135 0fba 49d6 f539
00000070: 4edc f539 f1e1 f539 2fc9 f539 cdcf f539
00000080: 87d8 f539 71bf f539 66c2 f539 86cc f539
00000090: 386c 81bc 9d70 81bc 6872 81bc d965 81bc
000000a0: 6369 81bc 656f 81bc 9260 81bc 7460 81bc
000000b0: e565 81bc 38f8 da3b 02fb da3b 1ffe da3b
000000c0: dff1 da3b bef4 da3b 34f9 da3b bbed da3b
000000d0: c4ee da3b adf3 da3b 2d59 07ba b06c 07ba
000000e0: be71 07ba 0743 07ba 3056 07ba 6a6e 07ba
000000f0: 602c 07ba f731 07ba 264a 07ba ecc2 e739
00000100: 3ac9 e739 13ce e739 bbb6 e739 e1bd e739
00000110: 14c6 e739 a7ac e739 4db0 e739 00ba e739

exp_avg_sq f4 [4, 2, 3, 3]
1.8396882e-05 1.841219e-05 1.8416922e-05 1.837659e-05 1.8390489e-05 1.841006e-05 1.8356757e-05 1.8359358e-05
1.8378543e-05 1.0000098e-05 1.0001893e-05 1.0003545e-05 9.996098e-06 9.998112e-06 1.0000714e-05 9.993068e-06
9.993994e-06 9.99705e-06 1.3473588e-05 1.3484741e-05 1.3488384e-05 1.3459087e-05 1.3468878e-05 1.34832e-05
1.3445399e-05 1.34468455e-05 1.346053e-05 7.3362253e-06 7.3375245e-06 7.338747e-06 7.3333863e-06 7.334819e-06
7.3367064e-06 7.331273e-06 7.3319156e-06 7.334108e-06 0.0007994128 0.00080004695 0.00080030697 0.0007984927
0.0007990029 0.0007998704 0.0007977306 0.0007977129 0.000798499 0.0004353397 0.0004354144 0.00043549732
0.00043517037 0.0004352472 0.00043536615 0.00043506018 0.00043508766 0.00043521874 1.1937696e-05 1.1948483e-05
1.1951268e-05 1.1925463e-05 1.1936047e-05 1.1949425e-05 1.1912952e-05 1.1916036e-05 1.1929391e-05 6.4979095e-06
6.4991955e-06 6.500184e-06 6.4954274e-06 6.4968813e-06 6.498554e-06 6.4933765e-06 6.494117e-06 6.496094e-06
00000000: 0153 9a37 e073 9a37 0a7e 9a37 6d27 9a37
00000010: 4645 9a37 4e6f 9a37 d6fc 9937 6c02 9a37
00000020: 9f2b 9a37 18c6 2737 cecd 2737 e6d4 2737
00000030: eab4 2737 90bd 2737 bdc8 2737 e6a7 2737
00000040: e1ab 2737 01b9 2737 9f0c 6237 863c 6237
00000050: 2b4c 6237 57ce 6137 64f8 6137 e735 6237
00000060: 8d93 6137 c399 6137 89d4 6137 b229 f636
00000070: db34 f636 5b3f f636 4f11 f636 9e1d f636
00000080: d42d f636 28ff f536 ad04 f636 8217 f636
00000090: af8f 513a 3eba 513a b1cb 513a f051 513a
000000a0: 2d74 513a 65ae 513a cb1e 513a 9b1d 513a
000000b0: 5c52 513a 4e3e e439 5548 e439 7653 e439
000000c0: 9427 e439 e431 e439 db41 e439 ca18 e439
000000d0: 7a1c e439 122e e439 0448 4837 5876 4837
000000e0: 4e82 4837 7913 4837 ee40 4837 647a 4837
000000f0: bddd 4737 fcea 4737 5824 4837 9e08 da36
00000100: aa13 da36 281c da36 4cf3 d936 c9ff d936
00000110: 270e da36 aee1 d936 0ae8 d936 06f9 d936

exp_avg f4 [4]
0.008701579 0.007673494 -0.20770395 0.0071961125
00000000: 1191 0e3c ef71 fb3b 58b0 54be 5ecd eb3b

exp_avg_sq f4 [4]
0.000721687 0.0005295831 0.03396654 0.00046671834
00000000: 982f 3d3a b8d3 0a3a 8020 0b3d e0b1 f439

exp_avg f4 [3, 1, 3, 3]
0.0010254672 0.0010255532 0.0010256281 0.00102526 0.0010253702 0.0010254947 0.0010250816 0.0010251468
0.0010253123 0.0008728014 0.0008728742 0.0008729389 0.00087262905 0.00087272114 0.0008728268 0.00087248365
0.00087253645 0.0008726758 0.0008228645 0.0008229405 0.0008229942 0.00082270656 0.0008228049 0.00082290213
0.0008225593 0.00082262064 0.0008227525
00000000: f868 863a db6b 863a 5e6e 863a 0462 863a
00000010: b765 863a e469 863a 085c 863a 385e 863a
00000020: c663 863a b6cc 643a 99d1 643a f0d5 643a
00000030: 25c1 643a 53c7 643a 6ace 643a 63b7 643a
00000040: eeba 643a 48c4 643a 80b5 573a 9aba 573a
00000050: 35be 573a e7aa 573a 81b1 573a 07b8 573a
00000060: 05a1 573a 23a5 573a fcad 573a

exp_avg_sq f4 [3, 1, 3, 3]
3.5392353e-05 3.5397858e-05 3.540261e-05 3.537913e-05 3.5386183e-05 3.5394118e-05 3.536775e-05 3.537192e-05
3.5382476e-05 2.5964608e-05 2.5968597e-05 2.5972144e-05 2.5955193e-05 2.5960233e-05 2.596601e-05 2.5947242e-05
2.5950132e-05 2.5957752e-05 2.2988557e-05 2.299247e-05 2.2995242e-05 2.2980441e-05 2.2985501e-05 2.2990504e-05
2.2972861e-05 2.2976023e-05 2.2982807e-05
00000000: 4072 1438 2978 1438 437d 1438 0d64 1438
00000010: a06b 1438 2574 1438 d557 1438 4f5c 1438
00000020: a567 1438 92ce d937 23d7 d937 c1de d937
00000030: 5aba d937 2dc5 d937 95d1 d937 47a9 d937
00000040: 7caf d937 d9bf d937 8dd7 c037 f4df c037
00000050: e8e5 c037 1fc6 c037 fdd0 c037 bbdb c037
00000060: d8b5 c037 a2bc c037 34cb c037
