drought_impact_forecasting-scripts/gc8yvuh4/checkpoints/epoch=1-step=9.ckpt (torch, 126521 bytes, 34 tensors)

model.cell_list.0.conv_block.norm.weight f4 [15]
00000000: b2dc 7b3f f81d 803f b329 863f 8309 7f3f
00000010: 2060 853f 472d 843f 547e 7f3f 1a66 823f
00000020: 225f 723f 3108 7a3f e6aa 793f 6205 813f
00000030: f4b7 823f c131 7d3f f66d 843f
0.9838363 1.0009146 1.0481476 0.9962389 1.041996 1.0326318 0.99802136 1.0187409
0.9467641 0.9766875 0.97526395 1.0079768 1.0212388 0.98904043 1.0346057

model.cell_list.0.conv_block.norm.bias f4 [15]
00000000: e900 81bc ccdc a23d baa7 843d c0ce 31b9
00000010: 2f7b 8d3c b69c b23c 0054 85bd 1941 3ebd
00000020: 066f 27bd 9134 afbc 21dd 243d 4159 943d
00000030: 6c60 443d 1d58 bd3c bc85 573d
-0.015747504 0.0795227 0.06477304 -0.00016957056 0.017270653 0.021803241 -0.06510162 -0.0464488
-0.040877365 -0.02138737 0.040249947 0.07243586 0.047943518 0.023113305 0.052617773

model.cell_list.0.conv_block.norm.running_mean f4 [15]
00000000: 3c52 4e3e 5c28 e03e d7ec 963e 1464 913e
00000010: 6c95 2b3e 2051 e13e 78a9 5fbf bba8 fe3e
00000020: 487f 8ebe 68ea ebbe e0f7 f53e 9ca3 8abe
00000030: 0fbd e5be 03a1 f73e d724 4ebe
0.20148557 0.43780792 0.2947757 0.28396666 0.16756219 0.44007206 -0.87367964 0.49738106
-0.27831483 -0.46077275 0.48040676 -0.2707795 -0.44870803 0.4836503 -0.20131241

model.cell_list.0.conv_block.norm.running_var f4 [15]
00000000: 0ad5 3f3e 024d 3d3f 50af 583e e593 5c3e
00000010: d292 953e d1c1 963e 0e33 d43f 8a24 443f
00000020: 2f3a bf3e 65bb 833e c251 e93e 2ab2 de3e
00000030: 968f 583f 1a89 af3f 43fc 083e
0.18733612 0.7394563 0.21160626 0.21540792 0.29213578 0.29444745 1.6578081 0.76618254
0.37349078 0.25728908 0.4557019 0.43495303 0.84594095 1.3713715 0.1337748

model.cell_list.0.conv_block.in_mid_conv.weight f4 [15, 15, 3, 3]
00000000: c692 ab3b 07da 9bbd 97eb c5bc 47e9 353b
00000010: d5aa f4bd 7cea 353d 6a0a c83c 6c0e 2c3c
00000020: 34ed c53c 8259 293d 02e3 273b 6945 393d
00000030: b9ad a23d cc87 47bd 6652 193d b0e4 283d
00000040: cb33 3e3d 14f2 3a3d 3cca 0d3e 9640 943d
00000050: 3b61 0ebd 3c1a 893b 9953 25bc 34f4 11bd
00000060: eb59 1bbc 7f3d cd3c 8e7d 3c3d dc2a d83d
00000070: 5d65 45bd 91d9 e53d 21c8 af3d 5062 043e
00000080: 46e7 eb3d 9961 87bc 3b9d 50bd a990 7c3c
00000090: 2134 543d b623 26bd df11 9e3b ac52 84bd
000000a0: 0156 793d ed5c 8fbd ff46 483d dfa9 5abc
000000b0: 304f 90bd 59fc 0f3b b92e c1bd ef5e 14bc
000000c0: d6dd 7dbd 147b 5cbd 87ce 91bd 7963 8ebd
000000d0: e1ec 893b 6874 0c3d cab4 f33d d43e f13c
000000e0: a8be 183d 54d5 8fbc ef7b 763c e08b 903d
000000f0: 677c 6dbc a420 a13c b027 c83d 400e df3d
00000100: 5efc d7bd 785f 4e3d dc36 0d3d 38e1 183d
00000110: 224d 293b 0bf7 99bd 7744 833d 03c4 36bd
00000120: 5d5a 8c3d b7cb 503d 852e 9c3d 54e8 3c3d
00000130: f059 a23d c8d8 e43d ee72 22bd 7ce4 c53d
00000140: aed5 93bd a047 d1bc 9415 e63c d27c 5ebd
00000150: 5dbc b73d 9807 c0bd 25dc c2bd c0b0 b13d
00000160: ad23 5fbd 8704 123c b345 853d c2f9 d2bd
00000170: 8329 91bc dd1e 713d 7f1f adbd f9fd 9dbd
00000180: 9483 9b3d f3b2 38bb 0a12 91bd e812 313c
00000190: 9d24 223d ab81 053d d01e b03d d89a 11ba
000001a0: cc5b a63b 7204 14bd d6f0 573d 10bb a8bb
000001b0: cb5e cb3d e14b 66bc 9e2d 8c3d eb20 d93d
000001c0: fccf 863d beab a1bc 0d6d dfbc 7404 ea3d
000001d0: 1259 d53d 4930 c43d 2a43 cebd 52d3 bbbb
000001e0: 5814 e0bb fbd1 e4bc bd06 123e ddf1 b4bd
000001f0: 946e ee3b fc78 91bd e43d fdbd 0a86 a7bd
00000200: 688c 623a 1372 fe3c f000 eabd 5e87 0bbd
00000210: 7026 b93c 9434 c13a f465 f53a 461d 7c3c
00000220: 2038 09bc f856 95bc 7911 dcbd ad69 00be
00000230: bca3 acbd 60a4 6cbd 2e7c e5bd fba6 6dbc
00000240: 2d8e 98bb 6fa4 62bd fc49 b7bb ded0 b33d
00000250: 5bd2 173d 5a2f a03c bba1 973c dbe3 063e
00000260: 0260 033d aa19 03bd 88b6 e2bd 3350 90bd
00000270: 7f02 8cbd 8857 87bd ea16 6b3d ba27 ffbc
00000280: 0500 adbd 59b2 c73c cd6c 5bbb 5ef0 fb3c
00000290: 16e5 8fbd 5596 3ebc 637f 1fbd 4c32 1dbd
000002a0: 78c4 b8bd 26e0 7bbd 58bb b63c af86 a93d
000002b0: 7988 793d 0a5b a7bc e267 033e 6f64 003e
000002c0: c47f 893d 8d8b 3b3d e6e9 8ebc e152 dd3d
000002d0: 75d1 36bd 9204 fc3c c7b7 cfbc ff3f 90bd
000002e0: 51b3 83bc 32fb e23d 33cc 19bd 028e 03bd
000002f0: 39b1 213d 5593 94bc e786 b1bc 4fb1 a8bd
00000300: ef0e babb 4fcb 48bd 0b27 a33c 42f4 b0bc
00000310: 5df0 72bc e0d2 873d 2822 c93d fec8 44bd
00000320: 1d96 a03d fc22 46ba bf80 c43d 379c f63c
00000330: 44ec e43d c46a 8b3c e2cb 543d 081a 9a3c
00000340: febb 1ebd 3024 c6bb ec5e 003c 658a 1abd
00000350: e065 0cbe dc0b b33d 23fe 903d 5bbb 343c
00000360: 0939 d43d 81d5 8ebc 685d 163c aa29 c73d
00000370: 3a55 05bd e8fb e83d 5638 02bd 1709 c0bc
00000380: 2b92 a53d 38f2 95bd 1a4e 12bd 95f9 f83c
00000390: d4cb ee3d f0bc b43d 11d9 66bd 2d8a b6bc
000003a0: 03fd 0f3e b877 66bd bac1 73ba 6045 dcbc
000003b0: 591f b6bd 371b bd3d b6cc 0c3d 682b 27bd
000003c0: 9963 cfbc f114 153d 6ffc b43d 13f6 2a3d
000003d0: bb58 84bb bb2d 233d 881e 1abd c457 afbc
000003e0: ec1c 88bc 7bfe ef3d c5cb f43d 736a 5e3c
000003f0: a6a2 723d c650 cc3d baed c6bc 7f02 4f3b
0.0052360026 -0.07609945 -0.02416019 0.0027757452 -0.11946646 0.044413075 0.024419028 0.010501485
0.024160959 0.041345127 0.0025617485 0.04523221 0.07943291 -0.04871349 0.037432097 0.04123372
0.046436112 0.04564102 0.13846678 0.07238881 -0.034760695 0.0041840356 -0.010090732 -0.03563328
-0.009481887 0.025053738 0.046018176 0.1055505 -0.04819237 0.11223138 0.085830934 0.12928128
0.11518721 -0.01652603 -0.050931197 0.015415349 0.051807526 -0.0405614 0.0048239077 -0.06461081
0.060873035 -0.07000146 0.048895832 -0.0133461645 -0.07046354 0.002197048 -0.0943274 -0.009055837
-0.061979137 -0.053828314 -0.0711947 -0.06952567 0.0042091464 0.0342907 0.11899717 0.029448904
0.0372912 -0.017557777 0.0150441965 0.07057929 -0.014494992 0.019668885 0.09773195 0.1089139
-0.10546182 0.050384015 0.034476146 0.03732416 0.0025833328 -0.07517823 0.06409543 -0.044620525
0.06853173 0.050975528 0.076260604 0.046120003 0.079273105 0.1117416 -0.039660387 0.096627206
-0.072184905 -0.025546849 0.028086461 -0.054318257 0.08971474 -0.093764484 -0.095146455 0.086762905
-0.054477382 0.008912212 0.06507435 -0.10301544 -0.01771999 0.058867324 -0.08453273 -0.07714457
0.07593456 -0.0028182834 -0.07083519 0.01080773 0.0395857 0.032594364 0.08599627 -0.00055543846
0.005076861 -0.036137052 0.052719913 -0.0051492527 0.0993019 -0.014056177 0.06844638 0.10601982
0.065826386 -0.019735213 -0.02727368 0.114266306 0.104173794 0.09579522 -0.10071404 -0.0057319785
-0.0068383627 -0.027932158 0.14260383 -0.08835194 0.0072763655 -0.07103154 -0.1236532 -0.08179863
0.0008642138 0.031060254 -0.1142596 -0.034064643 0.022601336 0.0014740401 0.0018722401 0.015387839
-0.008375198 -0.018229946 -0.1074552 -0.12540312 -0.08429667 -0.057773948 -0.11205326 -0.014505143
-0.0046556205 -0.055332597 -0.0055935364 0.08780073 0.037065845 0.019553829 0.018509736 0.13172857
0.032073982 -0.032006897 -0.11069971 -0.07046547 -0.068364136 -0.06608492 0.0573949 -0.031146873
-0.08447269 0.024377035 -0.0033481598 0.030754264 -0.070261165 -0.011632522 -0.038939845 -0.038378045
-0.090218484 -0.06149306 0.02230613 0.08277642 0.060921166 -0.020429153 0.12832597 0.12538312
0.067138225 0.045787383 -0.017445516 0.108068235 -0.044633348 0.030763898 -0.025356187 -0.07043456
-0.016076716 0.11083068 -0.037548255 -0.03211785 0.039475653 -0.01813666 -0.021670772 -0.08236944
-0.0056780498 -0.049022015 0.019916078 -0.021600846 -0.014827815 0.06632018 0.09820968 -0.048043244
0.07841132 -0.00075583137 0.09594869 0.030103786 0.111778766 0.017018683 0.05195225 0.01881124
-0.038753502 -0.0060467944 0.007835131 -0.03772964 -0.13710737 0.08742496 0.07079723 0.011030997
0.10362441 -0.017435791 0.009177543 0.09724744 -0.03255198 0.11376172 -0.031792007 -0.023441834
0.0808452 -0.0732159 -0.035719015 0.030392447 0.11659971 0.088250995 -0.056359354 -0.022282684
0.1406136 -0.056266516 -0.0009298582 -0.02688855 -0.08892698 0.092337064 0.034374915 -0.04081288
-0.025316047 0.036396924 0.088372104 0.04173858 -0.004038898 0.039838534 -0.037626773 -0.021404155
-0.016615354 0.1171846 0.119529285 0.013575184 0.059237145 0.09976344 -0.024283279 0.003158718

model.cell_list.0.conv_block.out_conv.weight f4 [16, 15, 3, 3]
00000000: f23f f4bd 4a3b 0dbd 1342 b0bd 0551 ddbc
00000010: 563d 5abd fc16 50bd e2b8 9f3d ffbf 83bd
00000020: 9b1a d8bd ce5a b73c c08a d2bc 108f 8ebd
00000030: 150c 4cbb 72d4 ba3c fb91 08be dd89 0cbe
00000040: 859a e0bd 1876 0dbe 3121 d2bc 768f e5bc
00000050: 77cc 97bd f80b 1ebe efe8 b4bd 6b5b d1bd
00000060: ff12 d0bb 2c69 da3b 9cd0 0a3d b3cb 6abd
00000070: 34cf 10bc a4d3 7a3c 3e6a eabd d254 c63d
00000080: f072 8ebc ff1c df3c 7578 c03d 9afd b3bd
00000090: 5e65 a8bd 534e ccbd 4e25 953c 24e6 ddbd
000000a0: 81da 38bd 3afa 203d c137 6e3d 15da d4bd
000000b0: 239b d7bd 77af bb3d f22b 9d3d 6fcc adbd
000000c0: c456 523c 269e 60bc d2a7 bc3c bdc4 c13d
000000d0: a1c5 d83d e2cf 34bb f28d 1abd ab75 eebd
000000e0: aa95 983b bd39 29bd 589b 7d3c 530c a8bd
000000f0: 223d 8a3d 1ac9 13bb ede9 a0bd 0952 a23d
00000100: 060f 53bd 42e4 46bd fd4e 75bc 0927 58bd
00000110: 75ca e4bc 5ef1 943c 3294 dbbd dd33 673d
00000120: 4a9c 8b3d 3573 eebb ea88 c1bb c47e 0b3d
00000130: a4fe 973d e4c1 b53d 3fa2 f93d 4408 b4bc
00000140: 5373 cd3c 7d73 6b3d 8cff ccbd bc87 543c
00000150: 56ec e43c d7d2 5dbd 0ddf ebbd 4d24 d03d
00000160: b2c6 f6bd 07c0 34bd 8d85 fbbd 1f00 f73c
00000170: c52e 13bd 956e 96bc 78b9 c7bd f223 12bd
00000180: 88c0 dcbc 9041 213d 1402 b13c 9af4 f13c
00000190: 36eb dfbc 2e85 e2bc a789 ae3c 1adb 44bd
000001a0: c941 10be b99e dcbc b149 6abd 29db 4abd
000001b0: 8cd0 483d 3318 133d 3648 393c 19d6 5c3c
000001c0: fdd3 b0bd 2cff 273c bf03 61bd 6742 88bd
000001d0: 0eab 1abd d9e8 2bbd a09c 1bbd 72c4 f3bd
000001e0: 2644 283c c396 56bd d2a3 4f3c 5c68 bbbc
000001f0: 0699 69bc 124a 3bbd becf 92bd 4f36 d2bd
00000200: 956d 54bd f905 013d 2ced c4bb 1922 c13c
00000210: 703c df3b cc7a 463c b6eb f8bd 54f0 e0bd
00000220: ca7b 80bd 354b b7bd 0df3 36bd 911c a7bd
00000230: a9e8 e83c b68f d3bb 4277 c93c 8c4b e9bd
00000240: 3c0a 08be 9c8e 13bd 3065 c2bc 22bc a4bd
00000250: 094d c0bd c7fb 5bbc e4d5 2cbd 8461 70bd
00000260: e8ce 2c3c bc66 16bd faa5 a43c 397b c3bc
00000270: 1db4 74bd a74b aabc 926b 9d3d d7bf 77bd
00000280: 0be5 f0bd 33c4 df3c bd2b a3bd 7023 28bd
00000290: e7e8 8fbd 745a f8bc 6100 9dbd 4cba eabd
000002a0: 16eb 92bd 8f81 04be 38bd 0fbe 2afa 0a3d
000002b0: dd60 463c c4e4 b23c 4dcd b93a fe53 91bd
000002c0: 440d c3bd 747e 903c 3233 b7bd edf9 b53c
000002d0: 7ffb a3bd b6d9 06be 6b8f cfbd 3648 a03d
000002e0: 966c 5b3c 8e57 06bd 7e5b 873c a0f3 913d
000002f0: 6c63 d9ba e201 843b 1830 d3bd 6208 173d
00000300: 1db6 013d fcd0 d4bd 9993 1e3d 2873 d3bd
00000310: a143 8ebd 647c 53bd 7e4c 853c 5d3a 8bbc
00000320: 2a16 cebd 5a08 b23c 067e b6bc b758 78bd
00000330: 1f49 0fbe 1c62 053d 01d1 adbd b6e1 d8bd
00000340: faa3 123d 9c2c 0ebc aec9 baba 21bc 293b
00000350: 454e b1bc f02c 01be ff64 c3bd e921 4c3d
00000360: 76f5 a93c c1f3 6bbd 4442 9ebd 1e13 afbd
00000370: c9a9 33bd 730b 033d 9d1b 75bd 136e 29bd
00000380: 0a4c e3bd 223d dc3b 99fb 6cbc 20ec c03a
00000390: e552 65bd fa5f 92bd 0d07 cdbc 7408 4fbd
000003a0: c059 a6bd f36d 08bd ec1c 54bd f651 ebbd
000003b0: b9b0 9dbc 818e e9bd b0b5 5ebd 950c 28bd
000003c0: 7419 a63d 5a6d f4bc cbfc 50bd 4673 79bd
000003d0: 9d8b 46bd 48b4 183c 196a 61bd 8662 2bbd
000003e0: 99d0 6f3d f821 603d d057 20bd 8d79 bcbc
000003f0: 8534 113d 5c57 81bd 3576 01be 451b f23b
-0.11926259 -0.03448037 -0.08606353 -0.027016172 -0.05328115 -0.05080317 0.077989355 -0.06433105
-0.105519496 0.022382166 -0.025700927 -0.06960881 -0.003113513 0.02280638 -0.13336937 -0.13724466
-0.10966972 -0.1381458 -0.025650593 -0.028022509 -0.074120454 -0.15434253 -0.08833491 -0.10222515
-0.0063499208 0.0066653695 0.03389035 -0.05732317 -0.008838464 0.015309248 -0.11446045 0.09684147
-0.01738879 0.027235506 0.09397975 -0.08788605 -0.08222459 -0.09975877 0.018206265 -0.108349115
-0.045130257 0.039301135 0.05815864 -0.10393158 -0.10527637 0.09164327 0.076743975 -0.08486258
0.012838069 -0.0137095805 0.023029242 0.09461353 0.1058457 -0.0027589728 -0.037733026 -0.11643537
0.004656513 -0.04131483 0.015478931 -0.08205476 0.067499414 -0.0022550286 -0.07857118 0.07925803
-0.051528 -0.048557527 -0.014972446 -0.0527716 -0.02792857 0.0181815 -0.107216254 0.056445945
0.06816919 -0.0072769173 -0.005906214 0.03405644 0.07421616 0.08874872 0.12189149 -0.021976598
0.025079405 0.057483185 -0.10009679 0.012971815 0.027944725 -0.05415615 -0.11517153 0.10163174
-0.12049617 -0.044128444 -0.12281332 0.030151425 -0.035933275 -0.018363276 -0.09752172 -0.03567881
-0.026947275 0.039369166 0.021607436 0.02953558 -0.027333837 -0.027651396 0.021305872 -0.048060514
-0.14087595 -0.026931154 -0.057199184 -0.049525414 0.04902701 0.03591175 0.01130872 0.013478779
-0.086341836 0.010253709 -0.054935213 -0.0665329 -0.037760787 -0.041970108 -0.037991166 -0.11902703
0.010270154 -0.05238987 0.012673335 -0.02287691 -0.014257675 -0.045724936 -0.0716853 -0.10264265
-0.051862318 0.031499837 -0.0060097184 0.02357583 0.0068126246 0.012114238 -0.12154333 -0.10983339
-0.06273611 -0.089498915 -0.044665385 -0.081597455 0.028431254 -0.0064563407 0.024593 -0.113913625
-0.13285154 -0.036024675 -0.02372989 -0.08043696 -0.09389693 -0.013426728 -0.04219617 -0.05868675
0.010547377 -0.03671907 0.020098675 -0.023862468 -0.059742082 -0.020788027 0.07686533 -0.060485687
-0.117624365 0.027315235 -0.07967327 -0.04104942 -0.070268445 -0.030316569 -0.07666088 -0.114613146
-0.07173745 -0.12940048 -0.14037025 0.03392998 0.012108055 0.0218376 0.0014175564 -0.07096098
-0.095240146 0.017638423 -0.089453116 0.0222139 -0.080069534 -0.13168988 -0.10134777 0.07826273
0.013392588 -0.032798342 0.016523119 0.07126546 -0.0016585416 0.0040285448 -0.103119075 0.03687323
0.031667817 -0.10391423 0.03871498 -0.10324699 -0.06946493 -0.0516323 0.016271826 -0.016995603
-0.10062821 0.021732498 -0.02227689 -0.06063148 -0.13992737 0.032564268 -0.0848713 -0.10589926
0.03580091 -0.008677628 -0.0014250779 0.0025899487 -0.021643767 -0.12614799 -0.09540748 0.049837027
0.020746928 -0.05760551 -0.07727483 -0.08548568 -0.04386309 0.03199334 -0.059840787 -0.04136474
-0.11098488 0.006721155 -0.014464282 0.0014718808 -0.055987258 -0.07147212 -0.025027776 -0.05054517
-0.08122587 -0.03330798 -0.051785395 -0.11490242 -0.019249307 -0.114041336 -0.05437249 -0.041027624
0.081103235 -0.0298373 -0.051022332 -0.06090095 -0.04847299 0.009320326 -0.055032823 -0.041842006
0.058548544 0.054719895 -0.039146245 -0.023007179 0.035450477 -0.063154906 -0.12642749 0.0073885047

model.cell_list.0.conv_block.out_conv.bias f4 [16]
00000000: 9fbc 37bd c4ee aebd f8ba b9bc 7dd7 15be
00000010: 1f43 7dbd b16d 37bd bcea b9bd 4d37 933c
00000020: 3965 1dbe 2255 f8bd 1620 55bb 13fb c2bd
00000030: 3133 cc3c ed66 403d 4632 313d 3eb4 6cbc
-0.044857617 -0.08541635 -0.022672161 -0.14632984 -0.06183159 -0.044782344 -0.09077975 0.017970705
-0.15370645 -0.12125613 -0.0032520345 -0.09520545 0.024926754 0.046973158 0.043260835 -0.01444727

model.cell_list.0.conv_block_mem.norm.weight f4 [19]
00000000: 7e7f 763f ad65 813f a072 733f 2e0e 773f
00000010: ab85 803f 6174 733f fc0b 843f 3636 883f
00000020: 8e91 723f 0a66 803f 3f41 803f 25d4 733f
00000030: 9c2f 873f 3482 873f 143c 853f a76c 703f
00000040: 99fa 793f 5197 7f3f d13c 703f
0.9628829 1.0109154 0.9509678 0.9650601 1.0040792 0.95099455 1.0316157 1.0641544
0.9475335 1.003114 1.0019912 0.9524558 1.0561404 1.058661 1.0408959 0.9391579
0.97648007 0.99840266 0.938428

model.cell_list.0.conv_block_mem.norm.bias f4 [19]
00000000: 6ed6 59bc 0054 2f3c 7c8e 37bd e0b5 41bd
00000010: ae94 64bc f775 05bd 6a42 1d3d 0e9f 683d
00000020: a67f e0bc b61e 35bd 5fe1 323b 6957 8abd
00000030: e02a e23b b0e5 923c 8b0c 45bb 2985 33bd
00000040: c066 e7bc 4a2f a83c f803 44bd
-0.013295753 0.0107011795 -0.044813618 -0.04729259 -0.013951464 -0.032583203 0.038393416 0.05679231
-0.027404618 -0.04421874 0.0027294976 -0.067549534 0.0069020838 0.01793179 -0.003006729 -0.043828163
-0.028247237 0.020530362 -0.047855347

model.cell_list.0.conv_block_mem.norm.running_mean f4 [19]
00000000: c1c4 9fbf 3c58 07bd bf7e 093f d618 70bf
00000010: fceb 293e 6d9e 09bf 4d48 8cbf fe75 e03e
00000020: cecb 61bf b49b e23e 0f61 1d3f 7e41 eebe
00000030: 00ca 843f 61a4 dd3d 71ca 7b3f c193 e8be
00000040: 09e7 443e 326a 093f 4299 223f
-1.248192 -0.03304313 0.53709024 -0.93787897 0.16593927 -0.53757364 -1.0959564 0.4384002
-0.88201606 0.44259417 0.61476225 -0.46534342 1.0374146 0.108223684 0.98355776 -0.45425227
0.19228758 0.53677666 0.635151

model.cell_list.0.conv_block_mem.norm.running_var f4 [19]
00000000: df79 363f 63a9 f83e 881a 4e3f b506 0c3f
00000010: 6cfa 633f cd80 a83e 2ef1 8f3f 675a 883e
00000020: 6ea4 a73e 9dd6 8a3e 96ac d33e de5d 8a3e
00000030: 5342 0b3f 2182 fe3d 95b2 663f 607b 333e
00000040: c6dd af3e 1958 b93e c08a 373f
0.7127971 0.48566732 0.80509233 0.54697734 0.8905399 0.32910767 1.1245477 0.26631472
0.32742637 0.27116862 0.4134261 0.2702474 0.5439808 0.12427164 0.90116245 0.17527533
0.34348887 0.36200026 0.7169609

model.cell_list.0.conv_block_mem.in_mid_conv.weight f4 [19, 19, 3, 3]
00000000: 3d3c 87bd d930 9dbd 61a9 88bd e25b cabd
00000010: 96aa b8bc 9c35 41bd fe8c bdbd 0c6a 87bd
00000020: 16eb 70bd 877d 7abc 7e57 b9bd 6178 0d3d
00000030: 49e0 e3bd e197 173d 6692 13bd afd5 40bc
00000040: 06b9 50bc 38c8 d4bd ee80 f1bc 06c1 1d3d
00000050: 56b7 8dbc 5e72 0f3c df4e 85bd 322e 90ba
00000060: cdcf 9c3d 33fc bbbd 38e7 933c b860 a7bb
00000070: 75bb 49bc de75 96bd b958 fbbd 4ba1 03bc
00000080: 1a45 5a3c 7b6f b3bd e3a9 a63c 2241 d4bd
00000090: 00d9 6c3c cf95 b2bb ec17 d1bd 477d aabc
000000a0: e2a1 a1bd c9c9 7ebd f8f5 1dbd 25c1 c0bd
000000b0: 7b6b 43bc c154 d23d 7280 85bd 9baa adbb
000000c0: 670d dfbd 9436 233d f0ef 003c 8787 69bd
000000d0: 0866 233c 7c1a 663a 5c28 a93c de63 e8bc
000000e0: f89c a43b 7805 c03a 8465 eb3d 0b43 8dba
000000f0: b62a 093d aecc 873c 779e c6bc 9ed2 9ebc
00000100: bcef c6bd ed2a 4cbc 6200 95bd d6f0 ecbb
00000110: abdc 0b3c 63bd 903c de14 003d a93d 6dbd
00000120: 6578 f1bd 5dd9 87bd 00e2 e9bd b73d f4bc
00000130: 442c e1bd b822 58bd e40a a83c a108 35bd
00000140: 011b 24bd 37b1 e43c 7566 a3bd 4326 e8bd
00000150: eee1 2fbb 6f00 2e3c f5fa 46bd eb06 d4bd
00000160: 3eed c8bc b061 9abc 7d63 b7bd f70e 94bd
00000170: f7cc 23bd 5c9d ae3d bd77 09bd d522 013d
00000180: c05c cf3d 856e 8abb dab7 b5bd 28ff afbd
00000190: 3806 7fbd 26ef 55bd 8c22 bbbd 6642 ecbd
000001a0: c2a6 88bd 8209 cfbd cc8f 8ebc 1b87 adbd
000001b0: 1379 0a3d 8761 a33d a054 7c3d 6fcb 00bd
000001c0: c918 b43d 7c56 15bc 3403 67bc 80b9 4f3d
000001d0: 02b7 ebbc 7d17 713d ecc0 6abc febc 33bd
000001e0: 463b 1abc 721a 14bd 496d d93b 1c0f 833d
000001f0: c5c6 393d 96f5 49bc aefa 113d 6389 8abd
00000200: 0685 c0bd cee7 aabd afb6 b2bc 34dc abbd
00000210: 4ac9 26bd 55f4 e5bd 2373 76bd b037 92bd
00000220: 0361 c5bd 1996 cbbc 28ea 4fbd bdd7 7e3c
00000230: 2711 8fbd 9a70 d0bd 82dd e13c acb0 2ebd
00000240: a44c b2bc f93a d1bd 96e5 453d 515d c7bd
00000250: a097 51bc 2831 0bbd 874d e7bd f0ef a139
00000260: caaf 0e3d c12f 843d 4c40 09bd 1f0d c2bd
00000270: dca0 0a3d 6409 4bbd ff96 873c 387f 67bd
00000280: 8fb7 61bd fa46 76bd 1ee3 a9bd 27d4 cfbc
00000290: 464a b4bc b77d 7cbd c21f 9cbb c53b b33c
000002a0: 3872 cfbc 2e8f 963d 35ea a6bd ad0b c13d
000002b0: 25c9 8c3c cae9 543d fcd7 fd3d c434 193c
000002c0: 90fe e23d a7af 893c 4c2e 4cbd c226 1c3d
000002d0: 22ee 963b 9248 b33d c02f 3ebd 3f5d 833d
000002e0: 0c8b c03d e0ad 0ebd 3717 d43d a3c1 ab3c
000002f0: d90b 743c b94c 5b3d b458 2ebd 2be2 d83c
00000300: a799 743d 661a 73bd 6eac 60bd 4e2d e6bd
00000310: f8ec 703c 6a9d 113d 5396 293c b083 dd3c
00000320: 8621 22bd 67ea fbbc b1e5 ecbc 40a9 453d
00000330: d40b ebbd 6013 5cbd 0967 813d b921 c4bc
00000340: 1f8c 92bd b4eb ccbd 35ec 50bd 1027 603d
00000350: b11d 363c 165a 1c3d b576 4a3d fa8e 1d3d
00000360: d0b8 d9bc f136 30bd fffd 1d3b 90ec 8bbd
00000370: 61c8 44bb 9eeb 113c 57d2 eabd dc99 a5bb
00000380: fd4e 88bc 684b 08be c4d7 6fbd 0e14 3d3d
00000390: 1def 743d e775 023e 66e1 c13c 0e88 e7bd
000003a0: f023 c33d 9833 ec3d c6ee d43d 2c83 a7bc
000003b0: de1c 863d 79f7 a33d 965f 993d 66e8 ecbc
000003c0: 83f1 853d 72b4 da3c 807f a83d 671f 64bd
000003d0: f5bc 3c3d 74ef e3bc c167 513d 208f b0bc
000003e0: bb90 0abc e247 673d ad3a 48bd a7e5 cdbc
000003f0: 2d0f ac3d 2850 083d bb85 d33d 423b 0e3c
-0.066032864 -0.076753326 -0.066729315 -0.098808065 -0.02254228 -0.047170267 -0.09255408 -0.06612024
-0.058817945 -0.015288717 -0.09049891 0.03453863 -0.111267634 0.037010077 -0.03602829 -0.011769696
-0.0127394255 -0.10389751 -0.029480424 0.03851416 -0.017299335 0.008755295 -0.06509184 -0.0011000095
0.07656822 -0.091789626 0.01805459 -0.0051079653 -0.01231276 -0.073467 -0.12272782 -0.008034061
0.013322139 -0.087614976 0.02034468 -0.103639856 0.014456034 -0.0054499875 -0.10209641 -0.02081169
-0.07892205 -0.062204156 -0.038564652 -0.094118394 -0.011927481 0.10270072 -0.065186396 -0.005299879
-0.10891228 0.03984697 0.007869706 -0.057014015 0.009973057 0.000877775 0.020649128 -0.028367933
0.005023595 0.0014650067 0.11493972 -0.0010777427 0.033487998 0.016577091 -0.024245484 -0.01938754
-0.097136945 -0.012461406 -0.07275464 -0.0072308583 0.008536498 0.017668432 0.0312699 -0.05792013
-0.117905416 -0.06633256 -0.11420059 -0.029814584 -0.10994771 -0.052767485 0.020513006 -0.044197682
-0.040064815 0.027916534 -0.079785265 -0.11335423 -0.0026837545 0.010620221 -0.048579175 -0.10352882
-0.024527188 -0.01884541 -0.08954523 -0.07229417 -0.03999039 0.08526108 -0.033561457 0.03152736
0.101251125 -0.0042246007 -0.088729575 -0.08593589 -0.06226179 -0.052230023 -0.09137449 -0.11536102
-0.066724315 -0.10109235 -0.017402552 -0.08473035 0.03380687 0.07977586 0.061604142 -0.03144401
0.0879379 -0.009114858 -0.014099885 0.050714016 -0.028773788 0.05886029 -0.014328223 -0.04388141
-0.009413546 -0.036158033 0.0066353423 0.06399366 0.045355577 -0.012326619 0.035639457 -0.06764486
-0.09400372 -0.083449945 -0.021815626 -0.0839161 -0.040719308 -0.11228243 -0.060168397 -0.07139528
-0.09637644 -0.024851846 -0.05076042 0.015554366 -0.069856934 -0.10177727 0.027571443 -0.042648956
-0.02176506 -0.10216326 0.048314653 -0.097345956 -0.012792498 -0.033982426 -0.11294084 0.0003088708
0.034835614 0.06454421 -0.033508584 -0.09475159 0.033844814 -0.049569502 0.016551493 -0.05651781
-0.055106696 -0.060126282 -0.08295272 -0.025369717 -0.022008073 -0.06164333 -0.004764528 0.021879086
-0.025323018 0.07351528 -0.0815014 0.09426055 0.017185757 0.05198077 0.123947114 0.009350959
0.1108371 0.01680739 -0.04984884 0.0381229 0.0046060244 0.08754076 -0.046432257 0.0641427
0.09401521 -0.03483379 0.103559904 0.020966357 0.014895403 0.053539965 -0.042565063 0.026475033
0.059716847 -0.059351347 -0.05485194 -0.1123911 0.014704935 0.035550512 0.0103507815 0.027040333
-0.03958275 -0.03075142 -0.02891812 0.048257113 -0.114768654 -0.053729415 0.063184805 -0.023941861
-0.07155632 -0.10005894 -0.051006515 0.054724753 0.011115477 0.03817185 0.049429614 0.03846643
-0.026577383 -0.043021146 0.0024107692 -0.0683223 -0.0030026662 0.008906273 -0.114659004 -0.005053742
-0.016639227 -0.13310015 -0.05855538 0.046161704 0.05979835 0.12740289 0.023667049 -0.11305247
0.09528339 0.11533278 0.10397105 -0.02044829 0.06548475 0.08006186 0.07488935 -0.02891941
0.06540205 0.026697371 0.08227444 -0.05569401 0.04607864 -0.027824141 0.051124338 -0.021552622
-0.008457358 0.056465037 -0.048884083 -0.02513392 0.08401332 0.033279568 0.103282414 0.00868112

model.cell_list.0.conv_block_mem.out_conv.weight f4 [12, 19, 3, 3]
00000000: 2c5f c13d 0822 1f3d 5f8c c3bb 17e3 f53c
00000010: 629a 503d ea36 c8ba 44c8 3fbd a44a 00bd
00000020: 3568 753d 797b fe3c 30be b43b 98e4 813c
00000030: 2948 ca3c 11af b0bb 2ce6 c2ba df66 ae3d
00000040: 5882 e0bc 05dc b33d 83e8 4dbd 8e34 02bd
00000050: 107f 6bbd b31e f73c 7ca5 81bd f2d0 083d
00000060: 05a8 4c3d 2e11 b33b 02a5 cdbc c4ea 613d
00000070: 97f2 9abd 7ae3 b33d 7dd8 103d 60b7 e4bd
00000080: 0013 923d 36f8 603c 2dfe 323d cf65 e7bc
00000090: 8c89 5b3d 889d e63a 901c b6bd 3879 383d
000000a0: 30c0 f9bc a32b 4d3c aad8 8e3d 8911 3abd
000000b0: c2a4 283b ca7a f8bb 4e51 04bc a3ae 14bd
000000c0: 45fd eebc e27b af3c 39e4 f6bd 3e5d e9bc
000000d0: 4e3a 273d 5841 dfbd ca0d 1d3d eeac 4c3d
000000e0: bd06 2b3d 4e0a 523d b103 3abd 62f9 273d
000000f0: 2f5b 963c e395 ebbc 055a 5b3d 054f 35bc
00000100: 11cd b13c 821e af3b e758 f23d b523 883c
00000110: 104e 7ab9 64f9 863d f2db 5cbd 7fd7 76bd
00000120: f794 65bc b8f8 a2bd 94f7 e83d a74d 5fbd
00000130: 6454 3bbc 631f 083c b897 95bd cc41 8a3d
00000140: 1009 a4bd dc3e 793d 3316 453d 2622 ae3d
00000150: 2df7 ecba e1f9 9fbd f6ef 69bc 3e9a 70bd
00000160: 12d4 43ba 9425 febc 5d5f 9abd 80ac bebb
00000170: 37ca 3dbd 2f9d 8ebd 9b6c 0ebd 7d07 833c
00000180: d6bb 6fbd 4b5c 9bbc 8b8b c8bd 6ac0 ca3d
00000190: ce99 8f3c 8218 91bc 83d4 a33d 4f95 5abc
000001a0: c235 d03d 1014 3e3d ea24 2f3d 8a17 8c3d
000001b0: 55dd 29bd a741 8b3d d682 46bb d012 89bd
000001c0: fac1 1b3c 6c10 dfbd 3416 86bd cc4f 81bd
000001d0: 9d37 bdbd 923e 9e3d 57f5 d9bd 4163 0d3b
000001e0: b54f 8a3c 4c8b b03c 7d29 6dbd 8075 89bd
000001f0: 4091 90bc afdd 2dbc b6a2 e93c 57f5 dd3d
00000200: 0f68 eebc a5b2 883d 783d 6fbd 6d61 b8bb
00000210: bf90 ce3d 0597 34bd bbf2 a6ba 6a83 0ebd
00000220: 04c4 9b3c 7f69 c13d 10b3 08be 75bc 94bd
00000230: 2581 153c 04e0 163d 511c b2bd 81bc ba3d
00000240: 1a24 71bd aeee d03c b7b9 ccbd 8acc a9bd
00000250: d46d e1bd 1de4 143c e4ec 5c3c 708f dcbd
00000260: fde9 54bd 3ca4 5e3c b8c8 563c 22a2 a03c
00000270: 3dfd fbbc fbc2 8dbd 6dbf e9bc 3eb1 5fbc
00000280: 84bb 45bd bbb5 093d 4800 013b 3ebf 5cbd
00000290: 584c 0abe 4050 8b3c cfed 1a3d 2f1e fdbc
000002a0: f874 ea3c 79b9 f7bd 0a06 02be c2e9 bbbb
000002b0: 3242 a83c f0ea cabd e46a 03bd 5fd1 bd3c
000002c0: ef2f 663c 38ed b93c 0fe5 1b3d 3a4b 9dbc
000002d0: af70 87bd 8ef1 11bd 71fa 8e3c 4497 19bc
000002e0: da99 75bd 6f16 d23c bbd6 54bd b74d 7fbd
000002f0: 9dc5 483d 1f03 fe3c e8c1 a43a 588d bc3d
00000300: 2783 953c 3b8b cfbd f2d4 64bd 3071 203d
00000310: 3849 84bd cb2d 933d c486 8bbd e6f3 ff3b
00000320: df75 8ebc 867a 3e3d 04e8 77bb 0e8a 443d
00000330: c768 20bc fc2a e0bd 10fa a63d 29a6 853b
00000340: 2ea0 5c3c 9033 2dbc 9284 05bb 873d a6bd
00000350: e288 353d caed 0ebc 88fd eabd 4d25 e53c
00000360: 4e17 903a addf f6bd 0573 2c3d cb2a 9b3c
00000370: d6ef edbd 8883 08bd 3ec1 a8bc f595 13bc
00000380: 9ce6 19bd b04f 5e3d ca3f cebd 657b dd3d
00000390: a8ad d13d 7e07 c53c 4e55 ca3d 592a be3d
000003a0: 88a3 b93d 1cb5 cdbc f53a 813d 2c52 dd3c
000003b0: f82e b2bd 38e3 943c b618 9b3d 9d83 f63d
000003c0: 8387 bbbc 66cb d23d 8d61 053d f945 e8bc
000003d0: 9f47 4abc 2a64 80bc b8f0 18bc e718 783d
000003e0: 9113 17bd 437b b3bd 257b 6dbb fe8c c4bd
000003f0: 63d1 973d 9f0a a43c df09 01bc ce72 643d
0.09441981 0.038850814 -0.0059676613 0.030015511 0.05092848 -0.0015275155 -0.046821848 -0.031321183
0.059913833 0.031064736 0.005515836 0.015856072 0.024692612 -0.0053919633 -0.0014869622 0.08515715
-0.027405903 0.087822 -0.05027057 -0.0317884 -0.057494223 0.030166006 -0.06330392 0.03340239
0.049964923 0.0054646945 -0.025103096 0.05515553 -0.075658016 0.08783622 0.03536271 -0.111677885
0.0713253 0.013731053 0.043699432 -0.028246788 0.05359797 0.0017594555 -0.088921666 0.04503748
-0.03048715 0.012522611 0.06974919 -0.04542688 0.002573297 -0.007582997 -0.008076025 -0.03629936
-0.029173503 0.021421377 -0.12055249 -0.028486844 0.040827088 -0.10901135 0.03834323 0.049969606
0.041754473 0.05127936 -0.045413677 0.041009314 0.018354027 -0.028757995 0.053552646 -0.011066203
0.021704229 0.005344213 0.11833363 0.016618589 -0.00023870938 0.06590536 -0.053920694 -0.060264107
-0.014012567 -0.079575956 0.11375347 -0.054517414 -0.0114336945 0.008308264 -0.07304329 0.06750831
-0.08009541 0.060850963 0.048116874 0.08502607 -0.0018079035 -0.078113325 -0.014278403 -0.058740847
-0.00074702606 -0.031023778 -0.0753772 -0.0058189034 -0.046335425 -0.06963574 -0.034771543 0.015994782
-0.058528744 -0.018964907 -0.09792241 0.09899981 0.017529394 -0.017711882 0.07999518 -0.013341262
0.101665035 0.04640585 0.042759813 0.06840427 -0.041470844 0.067996316 -0.0030290387 -0.06693041
0.009506697 -0.10891804 -0.06547204 -0.06314048 -0.09239123 0.07726778 -0.10642498 0.0021574053
0.01688371 0.021550797 -0.057900894 -0.067118645 -0.017647386 -0.0106119355 0.02851997 0.108378105
-0.029102353 0.06674699 -0.05840823 -0.0056268484 0.10086202 -0.044089336 -0.0012737134 -0.034793295
0.019014366 0.0944395 -0.13349557 -0.07262508 0.009125029 0.03683473 -0.08696807 0.091179855
-0.05887232 0.025504436 -0.0999636 -0.08290966 -0.11007276 0.00908759 0.0134842135 -0.10769546
-0.05198096 0.013588961 0.0131093785 0.019608561 -0.030760402 -0.06921955 -0.028533662 -0.013653098
-0.048274532 0.033620577 0.0019684006 -0.05389332 -0.13505685 0.01700604 0.03782445 -0.030898182
0.028620228 -0.12095923 -0.12697616 -0.005734653 0.020539377 -0.09908092 -0.03208436 0.023171125
0.014049514 0.022696123 0.038060244 -0.01920091 -0.066132896 -0.035630755 0.017453404 -0.009374443
-0.059961177 0.025645463 -0.051962595 -0.062329974 0.049016584 0.031007348 0.0012569996 0.09206647
0.018251015 -0.10133978 -0.055867143 0.039170444 -0.06459278 0.07186469 -0.06812814 0.0078110574
-0.01739019 0.046503566 -0.00378275 0.04798322 -0.009790606 -0.109456986 0.081531644 0.0040786457
0.013465924 -0.0105713755 -0.0020373208 -0.08117204 0.044319995 -0.0087236855 -0.114741385 0.027971888
0.0010993273 -0.120543815 0.04210188 0.018941304 -0.11618011 -0.033328563 -0.020599958 -0.0090079205
-0.037573442 0.054275215 -0.100707605 0.10814551 0.102382004 0.024051424 0.09879552 0.09285421
0.09064394 -0.025110774 0.06310073 0.027016722 -0.08700365 0.018174753 0.075730726 0.12036822
-0.022891765 0.102927014 0.032563735 -0.028353678 -0.012346177 -0.015672762 -0.009334736 0.060570624
-0.036883894 -0.08763745 -0.003623673 -0.095972046 0.07412984 0.020024596 -0.007875889 0.05577355

model.cell_list.0.conv_block_mem.out_conv.bias f4 [12]
00000000: f5a3 95bd 28b3 ad3d 3aaa 7fbb 36e3 95bd
00000010: c06f 78b8 f216 b03b 8c1e 97bc f1a7 abbc
00000020: 4825 11be 1786 8b3d 5f67 203d 7b09 b1bd
-0.07306663 0.08481437 -0.0039011375 -0.07318728 -5.9231883e-05 0.005373829 -0.018447183 -0.020954104
-0.14174378 0.06812685 0.039161082 -0.086443864

exp_avg f4 [15]
00000000: ce0c 4fb7 1546 2cb7 1f6e 6ab8 20ef 17b8
00000010: 2964 83b8 2188 0bb7 62af 9b38 bd1d 68b7
00000020: f178 b938 81f2 cd36 980f 8eb4 4576 c8b7
00000030: 6f01 22b8 1c5f 5138 a6e7 dbb7
-1.2341143e-05 -1.0268316e-05 -5.5892506e-05 -3.6223908e-05 -6.265223e-05 -8.316741e-06 7.4236435e-05 -1.3835202e-05
8.8440145e-05 6.1377073e-06 -2.6460907e-07 -2.3896931e-05 -3.8625145e-05 4.991806e-05 -2.6214704e-05

exp_avg_sq f4 [15]
00000000: 8879 7e30 824e 012f c658 8230 b45b 5f30
00000010: 2856 1931 d9cb 672f ffca 3c31 ec22 0b31
00000020: 2923 3f31 c449 3731 049d 8230 7dab 0830
00000030: 27d1 ab2f 5dc0 af30 4c8c a530
9.257737e-10 1.1760373e-10 9.483976e-10 8.1257245e-10 2.2313404e-09 2.1081749e-10 2.747299e-09 2.0247013e-09
2.7814144e-09 2.6671936e-09 9.503371e-10 4.972021e-10 3.125333e-10 1.2787599e-09 1.2045205e-09

exp_avg f4 [15]
00000000: 099b f9b6 aa9e 16b8 d2ac beb8 49b2 02b8
00000010: 2f0f bb36 d19a b236 e0be 0539 1e63 8938
00000020: e0b7 6c38 ba51 19b7 aaf1 2fb8 2574 c3b8
00000030: 395d cdb8 3436 16b7 fdfe 91b8
-7.4388267e-06 -3.5910554e-05 -9.092096e-05 -3.1160456e-05 5.574802e-06 5.3228364e-06 0.00012754975 6.551131e-05
5.643803e-05 -9.138539e-06 -4.194832e-05 -9.319958e-05 -9.792526e-05 -8.953317e-06 -6.961634e-05

exp_avg_sq f4 [15]
00000000: e933 db2f b6dc a62e 4a91 a430 7de2 942f
00000010: c70a c62f 76e9 8f2f 9ccd 2731 af7d 0b31
00000020: e35e 6e31 528e ca30 5f41 8d30 8a43 7430
00000030: c28b f730 182c 6630 2b55 3e30
3.9872752e-10 7.588012e-11 1.1973864e-09 2.7081973e-10 3.6023648e-10 2.6177432e-10 2.4418574e-09 2.0298605e-09
3.4687495e-09 1.4737884e-09 1.027768e-09 8.886266e-10 1.8011337e-09 8.3736174e-10 6.924263e-10

exp_avg f4 [15, 15, 3, 3]
00000000: 90ac 0939 4ef2 f838 fdf5 86b7 43f3 2e38
00000010: b9bd 0d39 71c3 acb7 3d53 7ab8 ed70 4d38
00000020: 872b 2eb8 a5e7 32b9 6ed2 9fb5 91d5 d9b7
00000030: 5892 3bb9 8a5c 0bb7 861d abb8 e81a 18b9
00000040: e565 1fb8 b72c 36b8 8abe 0bb9 d151 92b8
00000050: 5929 18b7 c0fc 12b9 cd5e 91b7 1b79 96b6
00000060: 833b aeb8 ac1c 4ab8 ed20 f3b7 55f5 b5b8
00000070: e1a1 84b8 7483 2db9 e464 25b9 8aaf e3b8
00000080: 66d7 51b9 f529 04b9 b030 8ab8 e556 4fb9
00000090: f9ed d636 e738 4e38 7d0e ef38 1c7c 6f37
000000a0: 1cf8 4937 0e60 4539 a951 7bb8 59a4 a1b8
000000b0: 6395 e537 c2f2 6538 ff66 6f38 ab0f 1b38
000000c0: f9d4 5c38 1cd8 e938 8c71 b5b7 1c86 e137
000000d0: 8855 8338 78e4 8cb8 863a 16b8 d167 bf38
000000e0: 9426 06b9 c865 84b8 1698 0539 bd79 ccb8
000000f0: 18f8 33b8 8c4e 0639 9075 00b9 17a0 edb7
00000100: 6811 4f38 2aa8 fcb7 bb9b 1fb8 adf9 e9b6
00000110: 8bf5 83b8 4163 b9b6 b543 84b6 d519 7637
00000120: be74 f1b7 d094 cab7 8dd6 03b9 da01 d7b7
00000130: f9d2 afb8 ef08 46b8 37e1 36b8 0956 11b9
00000140: ebe0 00b8 ee7a d7b8 df7a ea33 e7ff 2138
00000150: 6ae3 cfb8 9e2a af38 c497 b536 7d74 88b6
00000160: 1d43 2139 82e6 ce38 b153 cbb8 f388 7838
00000170: 518f 5438 078a bdb8 7527 9037 09f3 8b38
00000180: 5140 d3b8 9514 c0b6 22a7 aa38 87c4 f2b8
00000190: 6301 c538 a1b3 e2b8 4aa6 dfb8 ca1b 9e38
000001a0: 51df 88b8 6dee cdb7 25c6 f937 2035 a7b7
000001b0: 1029 e3b7 0bf0 9e38 a383 25b9 12dd 2bb8
000001c0: 6930 e6b7 f781 bfb8 6dab da38 4cea 10b9
000001d0: 938a d2b8 1f0d 4bb8 c55d 2439 5a7d 75b8
000001e0: 7aaa 3eb8 5765 3639 a568 84b8 ae27 2436
000001f0: 62c1 3a39 1e75 db35 1387 bd38 3f44 9d38
00000200: 435a ac38 d211 e438 4b91 ae38 01d7 5f38
00000210: 393c b338 74b3 df38 2b69 1b38 487f 9838
00000220: 3253 8238 9286 4038 82fd 4438 7ad4 f438
00000230: 2e5e f038 99c3 5b38 c76a a038 4fbd 9938
00000240: 7d67 4c38 7a7b ab38 3371 de38 1718 65b8
00000250: 642e b2b6 bd0e b537 0da9 01b9 4f62 27b8
00000260: 7a51 a9b8 b237 0438 ba35 6138 a828 99b7
00000270: 3af7 5db6 2980 1138 b90b 57b8 f7f9 07b8
00000280: f6a5 efb6 d1ba 39b8 923e 3438 a52e 4937
00000290: 863e 9a37 cb54 f037 7293 cab7 1ea9 dab6
000002a0: 6c93 a335 6673 c834 f4ed 83b8 4d94 bfb8
000002b0: 21dc eeb8 07ed e638 6471 88b9 add6 15b9
000002c0: 6c77 f736 e0e2 74b9 c372 7bb9 b37e e0b8
000002d0: 9b12 3837 15d5 ffb6 86f8 cab7 332c 6038
000002e0: 06d9 84b7 4ba6 0eb7 3aac dfb7 2d77 96b5
000002f0: e5ea 89b7 65b7 40b7 ce69 cc38 b255 b638
00000300: fab6 37b8 6610 c738 10d6 a138 2cdd 8fb8
00000310: 1a7d 8c38 9f90 f737 10a9 87b8 7e5c 69b8
00000320: a8d3 9bb8 949f bbb8 da48 7db8 9565 89b8
00000330: 1198 b2b8 bf0e 42b8 9e83 b1b8 0835 2637
00000340: 8dc5 d038 8b1b e638 8610 3038 567e e338
00000350: 33d3 a738 f191 ffb6 39d1 2d38 b3ce 2f38
00000360: eff9 0ab8 de25 5cb8 027b e2b7 f3b5 1cb6
00000370: dd6f 46b8 033d 86b8 758a 99b8 5100 afb8
00000380: 2358 bcb8 37d8 d5b6 75ad aeb6 591f 4438
00000390: e5ff c2b7 da3f 3ab8 697e a438 b564 d1b8
000003a0: 0c2f a1b8 96a9 5938 c4f6 5bb8 3887 9e38
000003b0: 0a47 1e37 3946 59b8 d9ff 9237 f8e8 19b7
000003c0: 3786 89b7 e4ec 6cb8 8a92 3cb8 f353 22b9
000003d0: 1b94 e1b8 39b8 98b8 2232 d7b8 2df6 bab8
000003e0: dc1a 58b9 aeec e4b8 81b8 23b8 03fe 4fb9
000003f0: 427a 8bb8 a795 c9b8 cf83 9738 b246 58b9
0.00013129623 0.00011870694 -1.6088592e-05 4.1711388e-05 0.00013517485 -2.0595007e-05 -5.9682166e-05 4.898098e-05
-4.152537e-05 -0.00017061697 -1.1907666e-06 -2.5967865e-05 -0.00017888227 -8.306592e-06 -8.1594146e-05 -0.00014505873
-3.800345e-05 -4.3433825e-05 -0.00013327054 -6.977062e-05 -9.069533e-06 -0.00014017802 -1.7329492e-05 -4.484447e-06
-8.3080515e-05 -4.8187256e-05 -2.898319e-05 -8.676449e-05 -6.324403e-05 -0.00016547536 -0.00015773211 -0.000108569
-0.00020012035 -0.00012604131 -6.5894215e-05 -0.00019773429 6.4054007e-06 4.916722e-05 0.00011399107 1.4274407e-05
1.2038301e-05 0.00018823167 -5.9919115e-05 -7.7076904e-05 2.7368491e-05 5.482394e-05 5.7077963e-05 3.696947e-05
5.2650434e-05 0.00011150559 -2.1629756e-05 2.688454e-05 6.262498e-05 -6.718276e-05 -3.581729e-05 9.126927e-05
-0.00012793607 -6.313209e-05 0.00012740525 -9.7501535e-05 -4.290798e-05 0.00012808497 -0.00012250827 -2.832715e-05
4.9368857e-05 -3.0119048e-05 -3.805359e-05 -6.973007e-06 -6.292303e-05 -5.5249843e-06 -3.9417887e-06 1.4668757e-05
-2.8783801e-05 -2.4149573e-05 -0.0001257306 -2.563086e-05 -8.383947e-05 -4.72152e-05 -4.360193e-05 -0.00013860328
-3.072705e-05 -0.00010274896 1.0918824e-07 3.862372e-05 -9.912888e-05 8.352588e-05 5.411888e-06 -4.066677e-06
0.00015379158 9.865781e-05 -9.695383e-05 5.925535e-05 5.0678213e-05 -9.037932e-05 1.7184511e-05 6.673305e-05
-0.00010073244 -5.724442e-06 8.1373626e-05 -0.00011576065 9.39395e-05 -0.00010809978 -0.000106644424 7.539203e-05
-6.526581e-05 -2.454893e-05 2.9775381e-05 -1.993269e-05 -2.707963e-05 7.5787386e-05 -0.00015784665 -4.0975465e-05
-2.744068e-05 -9.1317976e-05 0.000104269806 -0.00013820193 -0.00010039392 -4.841119e-05 0.0001567519 -5.8529295e-05
-4.54583e-05 0.00017394625 -6.313742e-05 2.4461e-06 0.00017810383 1.6350857e-06 9.037382e-05 7.499055e-05
8.218412e-05 0.000108752065 8.3240295e-05 5.336758e-05 8.5466025e-05 0.000106668944 3.7052825e-05 7.271633e-05
6.2143794e-05 4.5901696e-05 4.696614e-05 0.000116744035 0.00011461634 5.2395833e-05 7.649283e-05 7.33087e-05
4.873377e-05 8.176915e-05 0.0001060687 -5.462029e-05 -5.310214e-06 2.1583744e-05 -0.00012365375 -3.990746e-05
-8.073724e-05 3.1523123e-05 5.3694217e-05 -1.8257953e-05 -3.307547e-06 3.4690052e-05 -5.1270912e-05 -3.2419306e-05
-7.1420754e-06 -4.4281423e-05 4.2973617e-05 1.1991394e-05 1.8387345e-05 2.8649714e-05 -2.4148936e-05 -6.516594e-06
1.2187352e-06 3.7336866e-07 -6.290889e-05 -9.135213e-05 -0.000113897266 0.000110114044 -0.00026024424 -0.0001428972
7.375076e-06 -0.00023354171 -0.00023979977 -0.00010704752 1.0971587e-05 -7.624398e-06 -2.4196004e-05 5.3446925e-05
-1.5836686e-05 -8.502578e-06 -2.666387e-05 -1.1210556e-06 -1.6441054e-05 -1.1486792e-05 9.747186e-05 8.694398e-05
-4.380101e-05 9.492114e-05 7.7169505e-05 -6.859968e-05 6.699022e-05 2.9512039e-05 -6.468792e-05 -5.563767e-05
-7.4304e-05 -8.9465786e-05 -6.038775e-05 -6.55159e-05 -8.516026e-05 -4.6266938e-05 -8.464533e-05 9.906718e-06
9.9550096e-05 0.00010972385 4.197706e-05 0.000108477354 8.0025195e-05 -7.616582e-06 4.1441268e-05 4.1915755e-05
-3.3134533e-05 -5.2487354e-05 -2.699858e-05 -2.335172e-06 -4.731106e-05 -6.400982e-05 -7.321398e-05 -8.344709e-05
-8.980955e-05 -6.3730654e-06 -5.205797e-06 4.6759236e-05 -2.3245762e-05 -4.4405322e-05 7.843675e-05 -9.984655e-05
-7.6858414e-05 5.189477e-05 -5.2443487e-05 7.5592136e-05 9.434074e-06 -5.180223e-05 1.7523695e-05 -9.173753e-06
-1.6394171e-05 -5.6487406e-05 -4.4959168e-05 -0.00015480797 -0.00010756423 -7.282239e-05 -0.00010261337 -8.915025e-05
-0.00020609371 -0.00010915972 -3.903406e-05 -0.00019835685 -6.650809e-05 -9.612302e-05 7.224792e-05 -0.00020625701

exp_avg_sq f4 [15, 15, 3, 3]
00000000: 5f9f 8932 b797 9832 0c95 b72f cba5 1431
00000010: 234e bd32 f24a 3530 fdd9 ef30 591a 2c32
00000020: bf81 dc2f 6703 2632 72eb 9530 41e9 1430
00000030: 2124 6d32 c0a4 4d30 8ab3 8d31 42b6 0d32
00000040: 784d b830 ccc9 7430 6eaf 4d31 ab2e 2a31
00000050: bac8 5a2e 7a56 9e31 6f1a ac2f 65d8 b82d
00000060: 4889 0e31 1c0e 3030 27e6 5130 5bc4 e230
00000070: c7f2 1731 8d9e b731 1d72 a231 8cf4 8031
00000080: b950 0932 2574 5b31 1d5d 6531 494c 0f32
00000090: 2c0b aa32 996e 3533 f522 2433 6e1e c932
000000a0: 1115 1333 ff97 9933 4b35 8332 6cfd b832
000000b0: 4d14 da32 72c9 ce30 75bb d230 e0b8 1531
000000c0: 2d97 2031 930c 0232 ad47 052f aaaf 0231
000000d0: b70f 5531 6981 9430 3d0c 0b31 0da9 0332
000000e0: 1df1 2832 b2e4 3f31 ee97 a032 4571 9031
000000f0: ef63 a130 152e b532 efa3 de31 199b 4e31
00000100: 86f4 1f30 143d 152f c3b1 2731 dd43 5c30
00000110: 421b 1130 351b e730 1216 1c2f 314c e231
00000120: 2c60 9331 a8f5 0f2f 4b67 cd31 f9da 2e31
00000130: 09af 1731 47b2 842f 1098 9630 2040 a531
00000140: b0e3 4b31 c0b4 1f32 b48d 7e2f 80ff 8a30
00000150: 81b3 1632 8757 8231 a911 452f 5837 bf2f
00000160: 7b23 8632 5dae 0432 ea87 2832 3247 6031
00000170: b76e 4d31 de4c 0132 42b2 c030 4531 9e31
00000180: 6a4f 8e31 ec5e 1631 aa18 3332 c194 9832
00000190: 8ca5 1532 64ab 9a31 0be5 6b32 044d ef31
000001a0: cb6c 5d30 8f11 bd30 5455 9f31 9dc2 af30
000001b0: 6265 8330 b5e7 8132 f40b 9f32 f1fc bc30
000001c0: 1b97 5b31 53bc 0132 3616 2132 b2df d431
000001d0: 869c e631 f70e bd30 f734 cb32 6e3b 5130
000001e0: 09a1 7330 a3cf f332 db34 6330 aa29 b62e
000001f0: 6e42 0133 f826 3b30 3a5f c931 e360 9030
00000200: 904a 2a31 fad1 b831 15d7 c630 6a3a 6030
00000210: 4c1d 3e31 ca02 4731 6ce4 de2f c79b 2331
00000220: 3dee 3030 5ed9 bf30 384b 5530 15b1 8431
00000230: e600 e031 4ada a130 b2f2 ac30 15c4 3831
00000240: e783 ca31 d67d 0d32 a549 2b32 ea34 2830
00000250: 6586 1e2f 2de6 0a30 04c1 d031 2823 2430
00000260: 84db 8731 2ef9 6731 b589 2a32 3d53 7131
00000270: f1f3 8330 df7a b831 156b 0031 f2c2 4330
00000280: 481b 5c31 d8d5 3731 0ceb 9931 c3c7 f830
00000290: 52aa 6431 a9eb 3231 21e2 3d30 f0d5 ee30
000002a0: 380e 2730 08da 7f30 247c b630 f3a0 8731
000002b0: 3c44 d631 19c1 0f32 83f6 3433 86ee 6232
000002c0: 658f d02f b1cb 0933 cd94 1a33 8356 0632
000002d0: b599 172f 5f2b 1f2f 0fbd a22f e24b 5430
000002e0: 8247 8c2f 3d3c 0c2f e8a4 6b30 dd6a 6c2d
000002f0: 380d 222f 1e87 b430 d75d 4331 2c51 3031
00000300: feb5 6531 c1fd 2b31 8b20 3031 ec4d 9131
00000310: c92d b030 d077 2131 8a3f f830 fcc8 e830
00000320: ee23 cb30 0aa2 d430 7603 7e30 ede4 5630
00000330: 98bb dc30 dd55 4e30 4ee2 d630 688c ef30
00000340: d8dd 2531 582d 9931 7cc1 3130 cc50 0631
00000350: 5517 ab30 3ef9 8830 3074 9c30 b01a d72f
00000360: 3f9c b630 2f89 f630 644e 5a30 eec0 ae30
00000370: b1e5 8631 0685 af31 8356 e731 1642 f431
00000380: 871a f031 e705 7d30 40bb 3c31 6b81 6731
00000390: 57de 8c2f fbc5 7f30 f10a c031 1517 aa31
000003a0: 7da1 c030 038a 4c31 6b1f 9e31 f372 1531
000003b0: f0c1 b52f bb87 8331 49ea 6b2e 376d 0d2f
000003c0: 7505 2b2f 287b f830 adaf 1c30 659c 6432
000003d0: c14a 2032 b93f af31 5b65 df31 b65d e631
000003e0: 7784 0733 998e b531 f0ec 4430 87ab c532
000003f0: eb5a c930 4dbc 0f31 39a9 cf31 98a8 b632
1.6021373e-08 1.776412e-08 3.339341e-10 2.1631077e-09 2.2038028e-08 6.595392e-10 1.7451495e-09 1.0017708e-08
4.0109957e-10 9.663245e-09 1.0908094e-09 5.417356e-10 1.380343e-08 7.481269e-10 4.1240513e-09 8.248721e-09
1.340978e-09 8.9053454e-10 2.9931146e-09 2.4764784e-09 4.9745742e-11 4.6082365e-09 3.13054e-10 2.1014477e-11
2.0741755e-09 6.404848e-10 7.6360823e-10 1.6499472e-09 2.2111395e-09 5.344026e-09 4.7277937e-09 3.753092e-09
7.992804e-09 3.1934715e-09 3.3376815e-09 8.341041e-09 1.9795685e-08 4.2242934e-08 3.821602e-08 2.3413318e-08
3.4245264e-08 7.1522656e-08 1.5274642e-08 2.1535662e-08 2.5387772e-08 1.5045727e-09 1.533279e-09 2.1787443e-09
2.3368998e-09 7.569855e-09 1.2121744e-10 1.9017343e-09 3.1004512e-09 1.0805198e-09 2.0234119e-09 7.663641e-09
9.83371e-09 2.7924156e-09 1.8695541e-08 4.203829e-09 1.1742695e-09 2.1092129e-08 6.4796875e-09 3.0065108e-09
5.819135e-10 1.357317e-10 2.4402744e-09 8.0131973e-10 5.278943e-10 1.6815195e-09 1.4195958e-10 6.5861276e-09
4.2891966e-09 1.3093049e-10 5.9780283e-09 2.5444804e-09 2.2072888e-09 2.4137334e-10 1.0957155e-09 4.809422e-09
2.9669813e-09 9.296116e-09 2.3151508e-10 1.0113439e-09 8.771964e-09 3.7934487e-09 1.792332e-10 3.4782022e-10
1.5615788e-08 7.723057e-09 9.80979e-09 3.263676e-09 2.989436e-09 7.526266e-09 1.4020503e-09 4.6040065e-09
4.1417723e-09 2.188183e-09 1.0424779e-08 1.7762774e-08 8.7105825e-09 4.5014747e-09 1.3730879e-08 6.964571e-09
8.0553936e-10 1.375655e-09 4.6372097e-09 1.2788238e-09 9.560319e-10 1.5122945e-08 1.8515472e-08 1.3750691e-09
3.1954588e-09 7.551608e-09 9.376484e-09 6.1954433e-09 6.7116757e-09 1.3755813e-09 2.3656396e-08 7.611821e-10
8.863173e-10 2.8383345e-08 8.265723e-10 8.283803e-11 3.009557e-08 6.808558e-10 5.860696e-09 1.0504916e-09
2.478064e-09 5.3789764e-09 1.4467526e-09 8.1573737e-10 2.7665292e-09 2.8959897e-09 4.0543868e-10 2.380817e-09
6.4366984e-10 1.3958859e-09 7.759584e-10 3.8618375e-09 6.51936e-09 1.1776333e-09 1.2583625e-09 2.6886984e-09
5.8939693e-09 8.235892e-09 9.970255e-09 6.119324e-10 1.4417763e-10 5.0531207e-10 6.07554e-09 5.971281e-10
3.953973e-09 3.3756566e-09 9.926613e-09 3.5117431e-09 9.600837e-10 5.3690736e-09 1.868732e-09 7.121762e-10
3.202972e-09 2.675156e-09 4.479608e-09 1.8101151e-09 3.3275183e-09 2.6036366e-09 6.907915e-10 1.7377584e-09
6.077445e-10 9.30783e-10 1.3277526e-09 3.947315e-09 6.235977e-09 8.367601e-09 4.2133717e-08 1.3209165e-08
3.7936868e-10 3.2083054e-08 3.5991253e-08 7.819497e-09 1.3787978e-10 1.4476374e-10 2.9601963e-10 7.7232987e-10
2.551666e-10 1.2754327e-10 8.572685e-10 1.3438775e-11 1.473851e-10 1.3135126e-09 2.8429576e-09 2.5657512e-09
3.3427336e-09 2.5028017e-09 2.562987e-09 4.228914e-09 1.2818698e-09 2.349669e-09 1.8062434e-09 1.6937345e-09
1.4780406e-09 1.5471084e-09 9.240958e-10 7.817807e-10 1.6060424e-09 7.506438e-10 1.5634869e-09 1.7429445e-09
2.4136764e-09 4.458041e-09 6.466718e-10 1.9545494e-09 1.2448519e-09 9.966141e-10 1.1383516e-09 3.9127235e-10
1.3286651e-09 1.7937846e-09 7.941934e-10 1.2715e-09 3.926026e-09 5.1082933e-09 6.73282e-09 7.1088477e-09
6.987935e-09 9.204925e-10 2.746404e-09 3.368849e-09 2.5623834e-10 9.3049807e-10 5.5891793e-09 4.9502753e-09
1.4015736e-09 2.9764358e-09 4.601977e-09 2.1747695e-09 3.306151e-10 3.8280326e-09 5.36409e-11 1.2862676e-10
1.5554298e-10 1.8079378e-09 5.700212e-10 1.3306907e-08 9.330223e-09 5.1004148e-09 6.501677e-09 6.7045347e-09
3.1552613e-08 5.284005e-09 7.1641093e-10 2.301182e-08 1.4650515e-09 2.0916275e-09 6.0437313e-09 2.1264256e-08
