drought_impact_forecasting-scripts/18em9t4i/checkpoints/epoch=2-step=14.ckpt (torch, 90399 bytes, 61 tensors)

model.seq.0.weight f4 [11, 11, 3, 3]
0	0x3db80196	0.089846775
1	0xbd905d05	-0.07048992
2	0x3c18a0f3	0.009315717
3	0x3da4c6bc	0.08045718
4	0xbd93dcd8	-0.07219857
5	0x3dc30417	0.095222645
6	0x3a127ecc	0.0005588352
7	0x3db544dc	0.088510245
8	0x3d88e899	0.066849895
9	0x3cf5b5cc	0.029993914
10	0x3b562c5a	0.0032680244
11	0x3d158403	0.03650285
12	0x3d8f6abb	0.07002779
13	0xbc7fb317	-0.015606663
14	0x3cdf0afd	0.02722692
15	0x3bbd4df8	0.005777117
16	0x3d4b44fe	0.049626343
17	0x3d55cec5	0.052199144
18	0x3dc33f57	0.095335655
19	0xbc751e5a	-0.01496085
20	0xbcf28b8a	-0.029607553
21	0xbda2fada	-0.079580024
22	0xbce3a7f6	-0.027790051
23	0xbd049ec9	-0.03237799
24	0xbdadbbd9	-0.08483095
25	0xbb5b69f9	-0.0033479913
26	0x3dbb39e6	0.091419026
27	0x3df63d66	0.120234296
28	0xbd190cff	-0.03736591
29	0x3e041c88	0.12901509
30	0x3dbbaf72	0.09164323
31	0x3e236e7f	0.1596012
32	0x3e06e9a1	0.1317506
33	0xbcf80281	-0.030274631
34	0xbd011884	-0.03151752
35	0x3c963f65	0.018340776
36	0x3db32e83	0.08749106
37	0xbc9ddafb	-0.019269457
38	0x3d21de62	0.03951872
39	0xbd0ad199	-0.033891294
40	0x3dd31dd2	0.10308422
41	0xbd197c7f	-0.037472244
42	0x3de542c2	0.11194374
43	0x3cf06bbb	0.029348245
44	0xbcc5eead	-0.024161661
45	0x3d14a64c	0.036291406
46	0xbdb16ae7	-0.08662968
47	0x3dc59edc	0.09649441
48	0xbd768c40	-0.060192347
49	0xbd86b34e	-0.065771684
50	0xbd219969	-0.039452944
51	0x3cd4614c	0.025925301
52	0x3df68a98	0.120381534
53	0x3d1f7a2e	0.03893488
54	0x3e2519a8	0.16123068
55	0x3e113f22	0.1418424
56	0x3d6153ca	0.055011548
57	0xbbc1edfe	-0.0059182635
58	0x3dfad1d3	0.12247052
59	0x3dba1ea6	0.09087877
60	0xbbb88f96	-0.005632351
61	0x3dff7973	0.124743365
62	0x3df34064	0.11877516
63	0x3d9f4879	0.07777495
64	0xbda68da9	-0.08132488
65	0x3d478105	0.048707027
66	0xbcdd6778	-0.027026877
67	0xbd3f392f	-0.046685394
68	0xbc9fea21	-0.019520821
69	0x39502b30	0.00019852514
70	0x3df52045	0.119690455
71	0x3d213994	0.03936155
72	0x3d79d3f6	0.060993157
73	0x3d8acd7a	0.06777473
74	0x3dcec492	0.100960866
75	0x3d14768d	0.03624587
76	0x3dc7d612	0.097576275
77	0x3dec90a3	0.11551025
78	0xbccc514a	-0.024941105
79	0x3df1b658	0.118023574
80	0xbb86f0cc	-0.0041180607
81	0xbd67daab	-0.056605022
82	0x3d8af2a8	0.06784564
83	0x3d4d0fc0	0.05006385
84	0x3df1f48b	0.11814221
85	0x3b2c76f8	0.0026316028
86	0xbcc1a624	-0.023638792
87	0x3e0f69ab	0.14005153
88	0x3d544076	0.051819287
89	0x3dfc870b	0.12330445
90	0x3d20a2f5	0.039217908
91	0xbc4429b6	-0.011972835
92	0x3db53a4c	0.0884901
93	0x3d0049a5	0.031320233
94	0xbbb5a06d	-0.005542806
95	0x3c88aef6	0.01668499
96	0x3dd4e6ed	0.10395608
97	0x3daf948c	0.08573255
98	0x3cbc294e	0.022968914
99	0xbd6ae8d0	-0.057350934
100	0x3d8d0aef	0.06886851
101	0x3be69f50	0.0070380345
102	0x3cce1dab	0.025160631
103	0x3b62430f	0.0034524833
104	0xbdbb08a7	-0.0913251
105	0xbdeb2752	-0.11482109
106	0x3d115a13	0.035486292
107	0xbd05bb71	-0.03264946
108	0x3d42ef63	0.04759158
109	0x3b0e4af9	0.0021712168
110	0x3d7406bf	0.059576746
111	0x3d467135	0.048447806
112	0x3d7317f4	0.059349015
113	0xbdbc2e4d	-0.09188519
114	0xbc423163	-0.011852595
115	0x3c8c12d4	0.017098822
116	0x3d17b752	0.037040062
117	0x3d28c471	0.041202966
118	0xbdba1cc7	-0.0908752
119	0xbd34ee2b	-0.044172447
120	0xbdadec1a	-0.084922984
121	0xbc90c7a4	-0.017673321
122	0x3dacf669	0.084454365
123	0xbdae8b38	-0.085226476
124	0x3bc57c2e	0.0060267663
125	0xbd9afab1	-0.07567347
126	0xbde35a6f	-0.11101233
127	0xbd4415ab	-0.047872227
128	0x3c9d04f7	0.019167406
129	0x3d76ddd9	0.060270164
130	0xbde0b01a	-0.10971089
131	0xbcfba2cf	-0.030717282
132	0x3d4eac1e	0.050457112
133	0x3c4bd779	0.012441509
134	0x3c122843	0.008920732
135	0x3de1650f	0.110056035
136	0x3de518a0	0.111863375
137	0x3da6fde8	0.081538975
138	0xbd984849	-0.07435662
139	0xbdaacb9c	-0.08339617
140	0xbd1cddf3	-0.038297605
141	0xbcde9e11	-0.027174981
142	0xbda84e68	-0.0821808
143	0x3d323778	0.04350993
144	0x3d97b843	0.07408192
145	0x3bc183ac	0.005905589
146	0x3d3f1b41	0.04665685
147	0x3da1fabf	0.07909154
148	0x3dc26cc6	0.09493403
149	0x3d919524	0.071085244
150	0x3ce41310	0.027841121
151	0x3e307dec	0.17235535
152	0x3cee8c8b	0.02911975
153	0xbd992399	-0.07477493
154	0xbe2a4393	-0.1662734
155	0xbe0af9d6	-0.13571867
156	0xbe05414b	-0.13013189
157	0xbdea592f	-0.11442792
158	0x39e95358	0.0004450332
159	0xbdd5a263	-0.104313634
160	0xbe163f2a	-0.14672533
161	0xbd057c66	-0.03258934
162	0x3da94746	0.082655475
163	0x3df73779	0.120711274
164	0xbd142f2b	-0.036177795
165	0x3d9ca2a2	0.07648207
166	0x3d0e52cc	0.03474693
167	0xbc1c2ae8	-0.009531714
168	0xbc32552b	-0.010884563
169	0x3d1ad18e	0.037797503
170	0x3ca09af8	0.019605145
171	0x3d84638d	0.064643
172	0xbd2da78a	-0.042396106
173	0x3c9753a8	0.018472508
174	0x3e013e2a	0.1262137
175	0x3cecc3ff	0.028902052
176	0x3cade4ea	0.021227319
177	0x3d5abb86	0.053401493
178	0xbdca9933	-0.09892502
179	0x3d46b6b0	0.048514068
180	0xbc81047d	-0.01574921
181	0xbd93e8a6	-0.072221085
182	0xbe09e151	-0.13464858
183	0xbc021347	-0.007939166
184	0xbe0880c4	-0.1333037
185	0x3d12db62	0.03585375
186	0xbd55d4cc	-0.052204892
187	0xbe0005e9	-0.12502255
188	0xbd4404de	-0.047856204
189	0xbc9ea2c3	-0.01936472
190	0x3cebffb9	0.028808462
191	0xbd2322ae	-0.039827995
192	0xbbec15b0	-0.007204734
193	0xbd86df3e	-0.06585549
194	0x3d8a89ce	0.067645654
195	0xbc1a48d1	-0.009416775
196	0x3d9863d4	0.07440916
197	0x3da9b968	0.082873166
198	0x3dc02245	0.093815364
199	0xbdb5d98e	-0.08879386
200	0xbd3d4115	-0.046204645
201	0xbdc37a2c	-0.09544787
202	0x3da13253	0.07870927
203	0xbd30dd73	-0.04317994
204	0x3ce124ab	0.027483305
205	0xbbd41cd4	-0.006473163
206	0x3b518e72	0.0031975773
207	0xbc2cafb3	-0.010539937
208	0xbb0c72b9	-0.0021430685
209	0xbcc8a7af	-0.02449402
210	0xbbec4f01	-0.0072115664
211	0x3cca7923	0.024715966
212	0xbdc46222	-0.0958903
213	0x3ace669e	0.0015747135
214	0x3da19508	0.078897536
215	0x3dbf4f21	0.093412645
216	0x3d82ec17	0.06392687
217	0xbdbb128f	-0.09134399
218	0xbdd64c02	-0.10463716
219	0x3d88b754	0.06675592
220	0xbdb55bc5	-0.08855394
221	0x3da78506	0.08179669
222	0xbe181296	-0.1485084
223	0xbdaf97db	-0.08573886
224	0x3d4f66e8	0.05063525
225	0xbd8bc1da	-0.068240836
226	0x3cfdd639	0.030985938
227	0x3df8dbc6	0.121512935
228	0x3da3d6e6	0.07999973
229	0x3e1c7e2d	0.15282507
230	0x3d0e8bf9	0.034801457
231	0xbdb192fd	-0.08670614
232	0x3e1fdd54	0.15611774
233	0x3d083b30	0.03325957
234	0xbd65bce7	-0.056088354
235	0x3c1a03d9	0.009400331
236	0xbdb75424	-0.089515954
237	0x3d4c13e9	0.049823675
238	0x3d431dee	0.047635965
239	0xbdcaa59d	-0.098948695
240	0xbdc5fbfd	-0.096672036
241	0xbcbd0241	-0.023072364
242	0x3cd73a8b	0.026273033
243	0xbccad14a	-0.024758
244	0xbd57d1c4	-0.052690282
245	0xbc3281de	-0.010895221
246	0xbe081c37	-0.13292013
247	0xbe093c0b	-0.13401811
248	0xbe1017ac	-0.1407153
249	0x3df3685c	0.11885139
250	0x3e06ca3e	0.13163087
251	0x3ae3480c	0.0017340197
252	0x3d938102	0.07202341
253	0x3de914ca	0.11380918
254	0x3da5b638	0.08091396
255	0x3c8f7c4c	0.017515324

model.seq.1.weight f4 [11]
0	0x3f7e3ed3	0.9931461
1	0x3f80c90b	1.0061353
2	0x3f88c446	1.0684898
3	0x3f7df51a	0.9920212
4	0x3f8030eb	1.0014929
5	0x3f737506	0.9510044
6	0x3f879b4f	1.0594271
7	0x3f7f9b7c	0.99846625
8	0x3f744be7	0.9542832
9	0x3f7e55cd	0.9934967
10	0x3f86b84b	1.0524992

model.seq.1.bias f4 [11]
0	0x3d38d41e	0.045124166
1	0x3d92fd37	0.07177203
2	0x3da24884	0.079239875
3	0x3be94672	0.0071189934
4	0x3d86abdb	0.065757476
5	0xbd8f2a3c	-0.069904774
6	0x3d9e0691	0.07716096
7	0x3d1772a6	0.03697457
8	0xbd59566f	-0.053060945
9	0x3adc4523	0.0016805272
10	0x3d99a366	0.07501869

model.seq.1.running_mean f4 [11]
0	0x3f1a52e2	0.6028272
1	0x3e7b6b85	0.24552734
2	0x3e8724b3	0.26395187
3	0x3f028f6c	0.51000094
4	0x3ee7192e	0.45136398
5	0xbe0cc3a5	-0.13746507
6	0xbc9576ec	-0.018245183
7	0x3e906e66	0.28209227
8	0x3e173c0c	0.14769
9	0x3ecdad01	0.40171054
10	0xbe6ef829	-0.23336853

model.seq.1.running_var f4 [11]
0	0x3e5a34ae	0.21309158
1	0x3e548433	0.20753555
2	0x3e555885	0.20834549
3	0x3e58a822	0.21157888
4	0x3e56da87	0.20981799
5	0x3e582d9f	0.21111153
6	0x3e55d4b1	0.20881917
7	0x3e58e254	0.21180087
8	0x3e56cdf5	0.20977004
9	0x3e56468b	0.20925348
10	0x3e55b48c	0.20869654

model.seq.3.weight f4 [11, 11, 3, 3]
0	0x3e158659	0.14602031
1	0x3d3c235d	0.045932163
2	0x3d819182	0.063265815
3	0xbd85dc88	-0.065362036
4	0xbd998dfe	-0.07497786
5	0x3de2509b	0.110505305
6	0x3c1265c9	0.0089354
7	0xbdc35306	-0.0953732
8	0x3c1a0bbe	0.009402214
9	0xbdbaeda5	-0.09127358
10	0xbd8b777a	-0.06809898
11	0xbd0d93d1	-0.034564797
12	0xbd0409ff	-0.032236096
13	0xbe11dc60	-0.14244223
14	0xbda2ae10	-0.07943356
15	0xbdf2e051	-0.11859191
16	0x3a900548	0.0010987902
17	0xbcf4fc68	-0.029905513
18	0x3de88b10	0.11354649
19	0x3e21ec11	0.15812708
20	0x3dc2f561	0.095194586
21	0xbdb0b7cf	-0.08628809
22	0x3db57666	0.08860473
23	0xbcc1ae88	-0.023642793
24	0x3d8fbf11	0.07018865
25	0x3d8cebb9	0.06880898
26	0x3e1c2358	0.15247858
27	0xbc4620d0	-0.012092784
28	0xbe005781	-0.1253338
29	0x3d3042ef	0.043032583
30	0x3d87e62e	0.066357
31	0x3d4046b6	0.046942435
32	0x3e12802c	0.14306706
33	0x3e10cec6	0.14141378
34	0x3be0b934	0.0068580154
35	0x3d3868e0	0.04502189
36	0x3d341a28	0.043970257
37	0xbd803741	-0.06260539
38	0x3d81174b	0.06303271
39	0x3b6328a3	0.0034661673
40	0x3d32104f	0.043472584
41	0x3dc7a23b	0.0974774
42	0x3e21feb4	0.15819818
43	0xbdb51baf	-0.08843171
44	0x3dd7a0e9	0.10528738
45	0xbd0c2046	-0.034210466
46	0xbd7c93ff	-0.061664578
47	0x3cde8f2c	0.027167879
48	0xba2f7666	-0.0006693363
49	0xbdb04b5c	-0.08608124
50	0x3c3c8779	0.011506909
51	0xbdee03d7	-0.11621826
52	0x3ca21f97	0.019790454
53	0x3cdae3a8	0.026719883
54	0xbdaca3ce	-0.08429681
55	0xbd7e5719	-0.06209478
56	0xbdd18f0e	-0.10232364
57	0xbe02f7c6	-0.1278983
58	0xbdd7545a	-0.10514136
59	0xbd896b56	-0.06709926
60	0xbe19ccee	-0.1501958
61	0xbe0e77d1	-0.13912894
62	0xbd393757	-0.04521879
63	0xbd0c9a61	-0.034326915
64	0xbd0f11fc	-0.03492926
65	0x3ceaee30	0.02867803
66	0xbd4a4208	-0.04937938
67	0x3d967398	0.073462665
68	0xbd65c98b	-0.05610041
69	0xbd34b15b	-0.04411445
70	0xbd30f1a6	-0.043199204
71	0xbdd44642	-0.10364963
72	0x3d30959f	0.04311144
73	0x3d227857	0.039665546
74	0xbdaedfff	-0.085388176
75	0xbd99a385	-0.07501892
76	0x3d4ca430	0.04996127
77	0xbdc89da2	-0.09795691
78	0xbb91d826	-0.0044508157
79	0xbdfd4e6c	-0.123684734
80	0xbded59a5	-0.11589364
81	0x3db27cf2	0.08715238
82	0x3ca06449	0.01957907
83	0x3e0d3741	0.13790609
84	0x3d6b0d5c	0.057385787
85	0x3da21245	0.07913641
86	0x3d19a68a	0.03751234
87	0x3e05b881	0.13058664
88	0x3e2d9163	0.16949992
89	0x3d984f14	0.07436958
90	0xbd591d76	-0.05300661
91	0xbde63db9	-0.112422414
92	0x3df22fe8	0.11825544
93	0x3d410130	0.047120273
94	0x3caa88f7	0.020817263
95	0xbbd75f36	-0.0065726293
96	0x3d7fa2bf	0.062411066
97	0x3cbb04d9	0.02282946
98	0x3cfba4cd	0.030718232
99	0x3d72ec7c	0.05930756
100	0x3ca8b88c	0.020595811
101	0x3d261c2c	0.04055421
102	0x3df0fa7e	0.117665276
103	0x3d737568	0.05943814
104	0xbd4d0b2d	-0.050059486
105	0x3d9d7a4c	0.07689342
106	0x3e19154f	0.14949535
107	0x3d67019c	0.05639802
108	0xb99d6a66	-0.00030024647
109	0xbdabccba	-0.08388658
110	0x3d1c8f5d	0.03822266
111	0x3d9b0457	0.07569187
112	0x3d04514f	0.032304104
113	0x3d8b1458	0.0679099
114	0x3d89ff83	0.06738188
115	0xbd0e1505	-0.034688015
116	0xbd953e67	-0.07287293
117	0xbd969660	-0.073529005
118	0xbc379866	-0.011205768
119	0xbdeea9a8	-0.11653453
120	0xbd3ea912	-0.046547957
121	0x3db08dcb	0.08620795
122	0x3da4b418	0.08042163
123	0xbdb9dd44	-0.09075406
124	0xbb357006	-0.002768518
125	0x3dcb367c	0.099225014
126	0x3dd84814	0.10560623
127	0x3d1e88f9	0.038704846
128	0xbbd485e8	-0.0064856894
129	0x3dbc77e6	0.09202556
130	0xbe0990f9	-0.13434209
131	0xbd2970f7	-0.041367497
132	0xbc883768	-0.016627982
133	0xbd93df84	-0.072203666
134	0x3ce82af9	0.028340803
135	0x3d5b7a98	0.05358371
136	0xbcb8543f	-0.02250111
137	0xbd31fddc	-0.04345499
138	0x3d5b86ec	0.05359547
139	0x3cf966e1	0.030444564
140	0xbd7e19e4	-0.06203641
141	0x3e111df2	0.1417158
142	0x3e09b8fb	0.1344947
143	0x3d9d56a4	0.07682541
144	0xbb63ce8e	-0.0034760567
145	0x3d24ac72	0.04020352
146	0xbd59dc9c	-0.053188905
147	0x3ce16bef	0.027517287
148	0xbd939ca9	-0.07207615
149	0xbd6b6136	-0.057465754
150	0x3bf57666	0.007490921
151	0xbd0456e6	-0.032309435
152	0xbdec19bf	-0.11528348
153	0xbc0a22fc	-0.0084311925
154	0xbd860708	-0.0654431
155	0xbdbeb4fb	-0.09311863
156	0xbdad2532	-0.0845436
157	0x3da9995f	0.08281206
158	0x3c93b9e4	0.018032975
159	0xbdfce908	-0.12349135
160	0xbcec1859	-0.028820204
161	0x3d4b419f	0.049623128
162	0x3cf1604f	0.029464869
163	0x3dbc1a37	0.091846876
164	0xbdb3e10c	-0.08783159
165	0x3db9dd0f	0.09075367
166	0x3e057594	0.13033134
167	0x3d308464	0.043095008
168	0x3d92e0f6	0.07171814
169	0x3e152dba	0.14568225
170	0x3d349b64	0.044093505
171	0x3da3966a	0.079876736
172	0xbd529e87	-0.051420715
173	0x3d06823a	0.032839037
174	0xbc1e5c0f	-0.009665503
175	0x3d4ac34e	0.049502663
176	0x3d6f0e72	0.058363385
177	0x3e13fda3	0.14452223
178	0x3d14b4e9	0.036305342
179	0x3cffa3ee	0.031206097
180	0xbd718c86	-0.058971904
181	0xbd3eae5a	-0.046552993
182	0xbc9fda6a	-0.019513328
183	0x3d58da77	0.05294272
184	0x3d654de1	0.055982474
185	0xbd8224dc	-0.063546866
186	0xbd9710ec	-0.073762745
187	0xbd3f551e	-0.046712033
188	0xbd655b12	-0.055995055
189	0x3e03f8aa	0.12887827
190	0xbd12054f	-0.035649594
191	0xbca6b48b	-0.020349761
192	0x3d5f513a	0.054520823
193	0x3cbc910d	0.023018384
194	0xbd24f4b6	-0.040272437
195	0x3decc19c	0.115603656
196	0x3c856594	0.016283788
197	0x3d275c4f	0.040859517
198	0x3cef4a66	0.02921028
199	0xba1797e0	-0.0005782824
200	0x3d032cb4	0.032025054
201	0x3d978f19	0.074003406
202	0x3c72fefe	0.014831303
203	0x3dd5573e	0.10417031
204	0x3d133bbc	0.03594564
205	0x3d0d7a9e	0.034540765
206	0x3e154d6a	0.14580312
207	0xbcd6d929	-0.026226597
208	0xbb2820de	-0.0025654356
209	0x3d2d1bb2	0.04226274
210	0xbdd05aa7	-0.101735406
211	0xbd9bf20d	-0.07614527
212	0xbd8ad95b	-0.067797385
213	0xbc2b8729	-0.010469236
214	0xbb8c28d9	-0.0042773304
215	0xbc42d276	-0.011890998
216	0x3db91eda	0.090390876
217	0xbd5aa5ce	-0.05338078
218	0x3d286422	0.04111112
219	0xbd8abf53	-0.067747734
220	0xbbfeaabe	-0.007771819
221	0xbdc9d846	-0.09855704
222	0xbd2f5005	-0.042800922
223	0xbb15c090	-0.0022850372
224	0x3d9a5db0	0.07537401
225	0x3d1626eb	0.03665821
226	0x3b4dee22	0.0031422456
227	0x3cb05701	0.021525862
228	0x3d94ffcc	0.07275352
229	0xbcbfcbda	-0.023412634
230	0xbdc363e6	-0.095405385
231	0xbd508574	-0.05090852
232	0xbcd84bbc	-0.0264033
233	0xbcaf2055	-0.021377722
234	0x3dd9e06e	0.1063851
235	0xbc89cf61	-0.016822519
236	0x3e01460d	0.12624379
237	0xbd86b073	-0.06576624
238	0xbd9eb3a5	-0.07749108
239	0x3d8979ca	0.067126825
240	0xbcbad034	-0.022804357
241	0x3cce8660	0.02521056
242	0x3dad9675	0.08475963
243	0xbd0a28c2	-0.033730276
244	0x3e231b40	0.15928364
245	0x3c56c89e	0.013109354
246	0x3d88bbd4	0.0667645
247	0x3d855fb8	0.065123975
248	0xbbad6403	-0.0052914633
249	0xbd627497	-0.05528697
250	0x3db2714c	0.08713016
251	0xbc6a2726	-0.01429156
252	0x3d80be4f	0.062862985
253	0xbdf5dd40	-0.12005091
254	0xbd686eb2	-0.056746192
255	0xbdb7782c	-0.08958468

model.seq.4.weight f4 [11]
0	0x3f810faa	1.0082905
1	0x3f751935	0.9574159
2	0x3f875a26	1.0574386
3	0x3f832c40	1.0247879
4	0x3f886e3e	1.0658643
5	0x3f728979	0.94741017
6	0x3f80c5b9	1.006034
7	0x3f80cad9	1.0061904
8	0x3f7a46c8	0.97764254
9	0x3f85b07f	1.0444487
10	0x3f869b4a	1.051614

model.seq.4.bias f4 [11]
0	0xba1294a9	-0.000559161
1	0xbc41e45e	-0.011834232
2	0xba177fcf	-0.0005779238
3	0x3d508b3c	0.050914034
4	0x3ab8b888	0.001409308
5	0xbbc1abd1	-0.0059103747
6	0x3d949ad5	0.07256094
7	0x3ca73e15	0.020415345
8	0xbd9cebfc	-0.07662198
9	0x3d83d4d0	0.06437075
10	0x3d801757	0.06254452

model.seq.4.running_mean f4 [11]
0	0xbd2fe830	-0.04294604
1	0x3e9f80c9	0.31152943
2	0x3e50e573	0.20400028
3	0xbdd52184	-0.10406783
4	0xbdb25bf3	-0.08708944
5	0x3e78fc2b	0.24314944
6	0x3e5a039a	0.21290436
7	0x3c01d502	0.00792432
8	0x3e691ded	0.22765322
9	0xbecb8ed9	-0.39757422
10	0x3e7f6599	0.249411

model.seq.4.running_var f4 [11]
0	0x3f4adc8f	0.79242796
1	0x3ef3fcf3	0.47653922
2	0x3f11a83d	0.56897336
3	0x3f3d0379	0.73833424
4	0x3f4f9871	0.8109198
5	0x3f65635f	0.89604753
6	0x3f669ef7	0.9008631
7	0x3eb0a90e	0.34503978
8	0x3f347f73	0.7050697
9	0x3f3ccd1c	0.7375047
10	0x3f3dc24a	0.74124587

model.seq.6.weight f4 [11, 11, 3, 3]
0	0xbd10c8db	-0.0353478
1	0x3da8e8d2	0.08247532
2	0xbda49695	-0.08036534
3	0xbd597f90	-0.05310017
4	0x3ce719aa	0.02821048
5	0x3d4a94fd	0.049458493
6	0xbc41181f	-0.011785536
7	0xbdc53b9e	-0.09630512
8	0xbd8d16d4	-0.0688912
9	0x3cf0aea5	0.029380152
10	0x3cbea0c1	0.023270013
11	0x3cf220f1	0.029556723
12	0x3db3ab96	0.08772962
13	0x3d02f464	0.03197135
14	0xbca5f6b8	-0.020259246
15	0x3bc0c677	0.005883034
16	0xbd2e98ba	-0.04262612
17	0xbd6f120a	-0.058366813
18	0x3de4b7da	0.111678794
19	0x3dea2f99	0.1143486
20	0x3e07f023	0.13275199
21	0x3d90a6af	0.07063042
22	0x3c759362	0.014988752
23	0x39bea2bc	0.0003636087
24	0x3d8b127a	0.067906335
25	0xbd6d063c	-0.057867274
26	0x3db6344d	0.08896694
27	0xbc4c1f13	-0.012458581
28	0xbd5913df	-0.052997466
29	0xbd051b44	-0.032496706
30	0x3e00c48c	0.12574977
31	0x3dec2848	0.115311205
32	0x3cb61e80	0.02223134
33	0xbcec2466	-0.02882595
34	0x3d784dd3	0.060621094
35	0x3d196abf	0.037455317
36	0x3d8b18b1	0.06791819
37	0xbd86a6a5	-0.06574754
38	0x3c2f57c2	0.010702075
39	0x3db0c28c	0.08630857
40	0xbd92ace5	-0.07161883
41	0x3de4b901	0.11168099
42	0xbd962bf7	-0.073326044
43	0xbd2b4356	-0.041812263
44	0xbc25eda0	-0.010127455
45	0x3dad0382	0.08447935
46	0x3dc5ea5e	0.096638426
47	0x3ae16e6a	0.0017199044
48	0x3dc8032e	0.097662315
49	0x3dba4e33	0.090969466
50	0x3d649aa3	0.055811536
51	0xbe012e3d	-0.12615295
52	0x3dd78869	0.10524065
53	0xbcad6c11	-0.021169694
54	0x3c1a3e24	0.00941423
55	0x3e282cf8	0.16423404
56	0x3c6016ec	0.01367734
57	0x3e04761a	0.12935677
58	0x3df5bcd5	0.119989075
59	0xbbe84637	-0.0070884484
60	0xbda6cd2e	-0.08144604
61	0xbd645e78	-0.055754155
62	0x3d1240b5	0.03570624
63	0x3dce5d20	0.10076356
64	0xbbd3f0e2	-0.0064679245
65	0xbd61e038	-0.055145472
66	0xbcac063c	-0.020999067
67	0xbc83a0d9	-0.01606791
68	0x3e27e6e3	0.1639667
69	0x3b99c207	0.0046923193
70	0xbd02136f	-0.031756815
71	0xbca46360	-0.020066917
72	0x3dab6fd4	0.08370939
73	0xbbfecb17	-0.007775675
74	0x3c51da6a	0.012808422
75	0x3b70066c	0.0036624921
76	0xbd1aba5c	-0.037775382
77	0x3cd59fb0	0.026077121
78	0x3ca6ce9b	0.020362189
79	0xbda762d8	-0.0817315
80	0xbca1f2f0	-0.019769162
81	0xbd917b4c	-0.07103595
82	0xbdcd6c57	-0.1003043
83	0xbd6f66ee	-0.05844777
84	0xbddf7b18	-0.1091215
85	0xbd40ef09	-0.04710296
86	0xbcd9d948	-0.026592866
87	0x3dc1e481	0.09467412
88	0x3ce43b74	0.02786038
89	0x3d231d44	0.03982283
90	0xbcc5f605	-0.024165163
91	0x3c87cd23	0.016577309
92	0x3d1f9d66	0.038968466
93	0xbcc5e8ba	-0.024158824
94	0x3d8b79e3	0.068103574
95	0x3de86ee6	0.11349277
96	0x3d63d086	0.055618785
97	0xbd21c006	-0.03948977
98	0xbc845881	-0.016155483
99	0x3de4843f	0.111580364
100	0x3d5650ae	0.052323036
101	0xbd3a474a	-0.045478143
102	0xbaa660f0	-0.0012693685
103	0x3d941959	0.07231397
104	0xbd0868f4	-0.033303216
105	0xbb018f36	-0.0019769198
106	0xbc7ddbbb	-0.015494282
107	0x3da4e959	0.0805232
108	0xbd3b2bf1	-0.045696203
109	0x3dc761a7	0.097354226
110	0x3d7ff6cb	0.06249122
111	0xbd31ef66	-0.0434412
112	0x3cf8076e	0.03027698
113	0x3d026889	0.031837974
114	0x3c892ac4	0.016744025
115	0x3e025131	0.12726285
116	0x3d4d2652	0.050085373
117	0x3db57b85	0.0886145
118	0xba402bc7	-0.0007330742
119	0x3cea9b3e	0.028638478
120	0x3d3e1a22	0.04641164
121	0xbc10c4cc	-0.0088359825
122	0x3da1f56d	0.079081394
123	0x3b7cd81e	0.0038580964
124	0x3e24ccd5	0.16093762
125	0xbd05e255	-0.03268655
126	0x3d574b0c	0.052561805
127	0x3dda4be7	0.106590085
128	0x3d8f320a	0.06991966
129	0x3c494d30	0.012286469
130	0xbd37d0ce	-0.044876866
131	0xbd9aecb0	-0.07564676
132	0xbd85d5e0	-0.06534934
133	0x3e055b02	0.13022998
134	0xbce01a1c	-0.0273562
135	0xbcab477b	-0.020908108
136	0x3d935b27	0.0719512
137	0x3d8b9101	0.06814767
138	0xbd75929e	-0.05995428
139	0x3d3a557a	0.045491673
140	0x3ce458ad	0.027874315
141	0x3df86ad6	0.12129752
142	0x3ca45cc6	0.02006377
143	0x3dd48c34	0.10378304
144	0x3d73701b	0.059433084
145	0x3e2e836c	0.17042321
146	0x3c7b7185	0.015346889
147	0x3bdb332f	0.006689451
148	0x3db2b39f	0.08725666
149	0x3b8f0e0a	0.0043656873
150	0x3d35b64f	0.044363316
151	0x3db162ef	0.08661448
152	0xb95ddd60	-0.00021158671
153	0xbb813353	-0.003942886
154	0x3da58d9a	0.08083649
155	0x3b88c5e8	0.004173983
156	0x3d07d111	0.033158366
157	0x3e1ac37c	0.15113634
158	0x3df4997b	0.119433366
159	0xbbae3480	-0.005316317
160	0x3d9db646	0.077007815
161	0x3d565e07	0.052335765
162	0xbd0e5dff	-0.03475761
163	0xbd23c059	-0.03997836
164	0xbdf21954	-0.11821237
165	0x3da0fb5b	0.07860442
166	0x3dbd5cdc	0.09246227
167	0xbdbc5c6c	-0.091973156
168	0x3cdaf3a5	0.026727507
169	0x3e06906e	0.13141033
170	0x3c5e005a	0.0135498885
171	0xbbcd838d	-0.0062717856
172	0x3dc0b4c4	0.09409478
173	0xbd91395e	-0.0709102
174	0x3d3d5261	0.04622114
175	0x3e28b1de	0.16474101
176	0x3defdc8b	0.11711987
177	0x3cec54b0	0.028848976
178	0x3de269dc	0.11055347
179	0x3c3f8184	0.011688594
180	0xbdc33204	-0.09531024
181	0xbd8bbf14	-0.06823555
182	0xbe04313c	-0.12909406
183	0xbcdc8e04	-0.026923187
184	0xbcb8d8ab	-0.022564253
185	0xbdcee9e7	-0.10103207
186	0xbd385f84	-0.045012966
187	0xbe0b0b4f	-0.13578533
188	0xbc158dc3	-0.009128037
189	0x3d7c1d3e	0.061551325
190	0x3e2bbd52	0.16771439
191	0xbda9d6ab	-0.08292898
192	0xbd87b0f0	-0.06625545
193	0x3ccd6fae	0.025077667
194	0x3e2d408c	0.16919154
195	0x3cc269a4	0.023732014
196	0x3d397051	0.04527313
197	0x3dbca90d	0.092119314
198	0x3d86a3b8	0.065741956
199	0x3e13c6c0	0.14431286
200	0x3da7e931	0.081987746
201	0x3c9b0210	0.018921882
202	0xbd08a39f	-0.033359166
203	0xbd987f7e	-0.07446192
204	0x3d5db089	0.054123435
205	0x3d929f37	0.07159274
206	0x3db83efb	0.089963876
207	0xbd1cc98c	-0.038278148
208	0x3d2516d3	0.04030497
209	0xbde24171	-0.11047638
210	0x3d9b6378	0.075873315
211	0xbc859a5d	-0.016308958
212	0x3baf3154	0.0053464565
213	0xbc9bf3e0	-0.019037187
214	0xbda807e3	-0.08204629
215	0xbd40972f	-0.04701918
216	0x3df584ea	0.11988242
217	0xbdb9590d	-0.09050188
218	0x3c9c344e	0.01906791
219	0x3d2cde47	0.042204168
220	0xbe073560	-0.13203955
221	0xbb0d67fa	-0.0021576867
222	0x3d40affe	0.04704284
223	0x3c9e77fd	0.019344324
224	0x3d5c05fd	0.05371665
225	0x3e163eac	0.14672345
226	0x3e15cb43	0.1462832
227	0xbd4b044c	-0.049564645
228	0xbc9b62bc	-0.018967979
229	0x3dbfc5bf	0.09363889
230	0x3d32324a	0.04350499
231	0xba803ab4	-0.000978312
232	0x3e273e68	0.163324
233	0x3bb1519e	0.005411341
234	0x3c8b97f5	0.017040232
235	0x3e1240f3	0.14282589
236	0x3e246e5a	0.16057721
237	0x3dbba9ee	0.09163271
238	0x3d269942	0.0406735
239	0x3da1aea4	0.07894638
240	0x3af7f4f8	0.0018917611
241	0x3e0c2650	0.1368649
242	0x3e0bdfae	0.13659546
243	0x3d0b05dc	0.033941135
244	0xbd7e1b49	-0.06203774
245	0x3c8f554f	0.017496733
246	0xbcad31be	-0.021141883
247	0xbc377d83	-0.011199358
248	0x3b257a72	0.0025249985
249	0x3c49e9c9	0.012323805
250	0x3d76a297	0.06021365
251	0x3cd2f40a	0.025751133
252	0x3d7a0e63	0.061048876
253	0x3d19048e	0.03735786
254	0x3ddc72e1	0.10764099
255	0x3dbc3fa6	0.091918275

model.seq.7.weight f4 [11]
0	0x3f7a120b	0.9768378
1	0x3f7bb712	0.9832622
2	0x3f8a1680	1.0788116
3	0x3f891763	1.0710262
4	0x3f886c70	1.0658092
5	0x3f7bb1be	0.9831809
6	0x3f85871b	1.0431856
7	0x3f817774	1.0114579
8	0x3f8309e7	1.0237397
9	0x3f793c65	0.9735778
10	0x3f74ca8d	0.9562157

model.seq.7.bias f4 [11]
0	0xbcdd4e1a	-0.02701478
1	0x3c5b4b82	0.013384702
2	0x3d5c7c39	0.053829405
3	0x3b85fc18	0.00408889
4	0x3d6dbf27	0.058043625
5	0x3b5024f1	0.00317603
6	0x3d58dde7	0.052945998
7	0xbce5e821	-0.02806479
8	0x3d78994d	0.060693074
9	0x3dac26ab	0.08405813
10	0x3c3e525c	0.011616316

model.seq.7.running_mean f4 [11]
0	0x3ec2e170	0.3806262
1	0x3f13d7b0	0.5775099
2	0x3dff743e	0.12473343
3	0xbcd51fdb	-0.026016166
4	0x3f42da5d	0.76114446
5	0x3ed4f5f4	0.41593897
6	0xbf252a57	-0.6451773
7	0xbeb964fc	-0.36209857
8	0xbf06bd65	-0.52632743
9	0xbf3a2259	-0.7270866
10	0xbef1f68a	-0.47258407

model.seq.7.running_var f4 [11]
0	0x3f1e4b7f	0.6183395
1	0x3fb6c7c8	1.4279718
2	0x3f449a2b	0.7679774
3	0x3f1cd712	0.6126567
4	0x3f767c60	0.9628353
5	0x3f0bd858	0.5462699
6	0x3f823171	1.0171338
7	0x3edf4c66	0.43612975
8	0x3f784c90	0.96991825
9	0x3fed078c	1.8517928
10	0x3f0b1b20	0.54338264

model.seq.9.weight f4 [11, 11, 3, 3]
0	0xbcf35599	-0.029703902
1	0x3df30625	0.11866406
2	0xbdf4642c	-0.11933169
3	0xbd0dffb9	-0.034667704
4	0x3c9dcee7	0.019263698
5	0x3be9c993	0.007134625
6	0xbda44275	-0.08020488
7	0x3d1d0b5c	0.03834091
8	0x3dba615a	0.091005996
9	0x3d3f67c3	0.046729814
10	0xbdbb4fca	-0.09146078
11	0xbd2c41d1	-0.042054955
12	0x3cc58dbe	0.02411544
13	0x3cc02ee7	0.023459865
14	0x3d08f8ab	0.033440273
15	0x3dca4cf1	0.09877957
16	0xbd05de86	-0.032682918
17	0x3d6934b6	0.056935035
18	0x3e20ca4e	0.15702173
19	0x3dcd54fa	0.100259736
20	0x3d3e69f0	0.04648775
21	0x3dda87de	0.10670446
22	0x3e085a9d	0.13315816
23	0xbd73f601	-0.05956078
24	0x3d6049cd	0.054757882
25	0x3c7f995a	0.015600527
26	0x3cc182fe	0.023622032
27	0xbda9121e	-0.08255409
28	0xbda7ae5f	-0.081875555
29	0xbd729a3d	-0.059229124
30	0xbda09296	-0.07840459
31	0xbe0af061	-0.1356826
32	0xbc640241	-0.013916553
33	0xbd8c177c	-0.06840417
34	0x3bda03e5	0.0066532963
35	0xbddc4c64	-0.10756758
36	0x3d992132	0.07477035
37	0xbb9b61e1	-0.0047418927
38	0xbd764724	-0.06012644
39	0x3d78ed42	0.06077314
40	0x3d1f08b0	0.038826644
41	0x3d0fd075	0.03511091
42	0x3d768a65	0.060190577
43	0xbcebb537	-0.028772933
44	0x3d955a24	0.072925836
45	0x3d7ce434	0.06174107
46	0xbcdcf867	-0.026973916
47	0x3c015671	0.007894144
48	0x3d8dc423	0.06922176
49	0xbc185264	-0.009296987
50	0x3dc6b69f	0.09702801
51	0xbd912573	-0.07087221
52	0x3d21ba1a	0.03948412
53	0x3d8979c0	0.06712675
54	0xbda59500	-0.0808506
55	0xbde83dd2	-0.11339916
56	0xbd9575cf	-0.07297861
57	0xbd8f2e93	-0.06991305
58	0xbdc7f902	-0.09764291
59	0xbcde80ae	-0.027160969
60	0x3a8095c2	0.0009810256
61	0xbddbfc9d	-0.107415415
62	0xbb8d153d	-0.0043055103
63	0xbdcb793a	-0.099352315
64	0xbd694ad2	-0.05695612
65	0x3d8cba03	0.068714164
66	0xbc6ceb39	-0.014460378
67	0xbd7a0e40	-0.061048746
68	0xbd5c185a	-0.05373416
69	0xbe0c7d78	-0.13719738
70	0x3b0a2bd1	0.0021083246
71	0xbd5bbc65	-0.053646464
72	0xbbf5944e	-0.007494486
73	0xbdf2350d	-0.11826525
74	0xbdbe37bd	-0.09287975
75	0xba3cbd6c	-0.0007199857
76	0xbd984f0c	-0.07436952
77	0xbd88e8cc	-0.066850275
78	0xbce9acda	-0.028524805
79	0xbcb2f393	-0.02184466
80	0xbd38b3ad	-0.045093227
81	0x3cec4832	0.02884302
82	0xbb3fa560	-0.0029242858
83	0xbdcbaba6	-0.09944849
84	0xbd8b2c89	-0.06795604
85	0x3d91d9dd	0.07121632
86	0xbd4c2c76	-0.04984709
87	0xbd807b39	-0.06273503
88	0xbd60972d	-0.054831672
89	0xbe077225	-0.13227136
90	0x3e2899c9	0.16464914
91	0x3d2eb1e4	0.04265012
92	0xbbed5ce8	-0.0072437413
93	0xbb9e802e	-0.0048370576
94	0x3af96682	0.0019027742
95	0xbcfae495	-0.030626575
96	0x3e17e27c	0.1483249
97	0x3d90059f	0.07032322
98	0xbdbd0d4d	-0.092310525
99	0xbd7d282e	-0.061805896
100	0x3ddced1f	0.10787415
101	0xbc81ba29	-0.015835838
102	0x3dc1b395	0.09458081
103	0x3c1d57a6	0.009603417
104	0xbcc2c0a4	-0.023773499
105	0xbdcbf113	-0.09958091
106	0x3cd3a97f	0.025837658
107	0x3dff4f22	0.12466265
108	0xbc9ba54c	-0.018999718
109	0xbdac04e0	-0.08399367
110	0x3de374bd	0.111062504
111	0xbd5faa71	-0.054605905
112	0x3db046a3	0.08607223
113	0x3e23835a	0.15968075
114	0x3d5cb82f	0.05388659
115	0x3e124905	0.14285667
116	0xbc76836e	-0.015045984
117	0xbda2fa4e	-0.07957898
118	0xbdd580f8	-0.104249895
119	0x3d66aa31	0.05631465
120	0xbcc077a8	-0.023494557
121	0x3cce8ec4	0.02521456
122	0xbe0b3b9e	-0.13596961
123	0x3ca33269	0.019921498
124	0x3dd832af	0.10556542
125	0x3aab15ce	0.0013052763
126	0x3dddc71e	0.10828994
127	0xbd2f258b	-0.042760413
128	0x3b9bd74c	0.00475589
129	0x3d748d95	0.059705336
130	0xbc3139c9	-0.010817
131	0xbd28945c	-0.04115711
132	0x3d940846	0.072281405
133	0xbc5f4130	-0.013626382
134	0x3dba166b	0.09086307
135	0xbd9923ae	-0.074775085
136	0xbc6cb13e	-0.014446555
137	0x3c26f949	0.01019127
138	0xbdd26b80	-0.1027441
139	0xbd3741d9	-0.04474053
140	0x3d9d8f6c	0.07693371
141	0xbceb826e	-0.028748717
142	0x3d888e7b	0.06667801
143	0x3dba1966	0.090868756
144	0x3c945ac7	0.018109692
145	0x3deb83de	0.11499761
146	0x3cfa8447	0.030580653
147	0xbdd8286b	-0.10554584
148	0x3dd6b179	0.10483069
149	0x3d015507	0.03157523
150	0xbb3d1730	-0.0028852932
151	0x3dc19140	0.09451532
152	0x3db4009a	0.08789177
153	0x3cea4d96	0.028601449
154	0x3d56b347	0.052417066
155	0xbdb8f522	-0.090311304
156	0xbdb0c7e7	-0.08631878
157	0x3c646a50	0.0139413625
158	0x3d892ef4	0.06698409
159	0xbc925281	-0.017861607
160	0xbdf9052d	-0.1215919
161	0x3d01c8b8	0.03168556
162	0x3d95c88f	0.07313644
163	0x3e21ac6f	0.15788434
164	0xbacf7a4a	-0.0015829292
165	0x3dc5015e	0.096194014
166	0x3daf95fa	0.08573528
167	0x3ce09e7e	0.027419325
168	0x3df1f73a	0.11814733
169	0x3e2903fe	0.16505429
170	0x3e1b8275	0.15186484
171	0xbd87762d	-0.06614337
172	0xbd4b4915	-0.049630243
173	0xbd3de34d	-0.04635935
174	0x3dd6a6ab	0.10481008
175	0xbdb4e547	-0.08832794
176	0x3a0eb2c0	0.0005443506
177	0x3d77a396	0.060458742
178	0x3cd170b4	0.025566436
179	0xbd92828c	-0.07153806
180	0x3c53798b	0.012907396
181	0xbdb5fb2d	-0.088857986
182	0xbd0b030b	-0.03393845
183	0x3d18b1e6	0.037279032
184	0xbd80e864	-0.06294325
185	0xbcbfe74c	-0.02342572
186	0x3d567a65	0.05236282
187	0x3db10247	0.086430125
188	0x3c71ae01	0.014750958
189	0x3d97a476	0.07404415
190	0xbcadf5b7	-0.02123533
191	0xbdaa8fd7	-0.083282165
192	0x3dd75e1b	0.10515996
193	0x3d5a4cff	0.053296085
194	0x3dd6444c	0.10462245
195	0x3cd3957b	0.025828114
196	0x3df6fe8c	0.1206027
197	0xbcc74bee	-0.024328198
198	0xbd92c5b4	-0.07166615
199	0xbe268d89	-0.16264929
200	0xbdecca30	-0.11562002
201	0x3d7a4e0e	0.061109595
202	0xbdc1d431	-0.094643004
203	0xbc844334	-0.016145326
204	0xbd3cf351	-0.046130482
205	0xbda5fd26	-0.08104925
206	0x3c3b3770	0.011426792
207	0xbddd97d7	-0.10819977
208	0x3abca4f2	0.0014392419
209	0x3d316ece	0.043318562
210	0xbdb6b7fa	-0.089218095
211	0xbcb035bd	-0.02151
212	0xbcdc7bbb	-0.026914468
213	0xbd0eb3e8	-0.03483954
214	0xbdc6a0a9	-0.09698612
215	0xbd32f022	-0.04368604
216	0x3cd05e7c	0.025435679
217	0xbd2440c1	-0.040100817
218	0x3d93a5b4	0.0720934
219	0xbd988966	-0.07448082
220	0x3d4474a0	0.047962785
221	0xbc83c024	-0.01608283
222	0xbd429882	-0.047508724
223	0xbc830e08	-0.015997902
224	0x3c2f4a56	0.010698875
225	0x3da29857	0.07939213
226	0x3dc2953c	0.095011204
227	0x3d1c8403	0.038211834
228	0x3e061d5e	0.1309714
229	0x3d1f245c	0.038853034
230	0x3d8a08ee	0.067399845
231	0x3de28400	0.11060333
232	0x3e1599a1	0.14609386
233	0x3dfe66d8	0.1242196
234	0xbdd8ee53	-0.10592332
235	0xbe0e119c	-0.13873905
236	0x3c8874e3	0.016657298
237	0xbc6d50b9	-0.014484578
238	0x3c41f27a	0.011837596
239	0x3da95117	0.0826742
240	0xbdaabc49	-0.08336694
241	0x3d9b548f	0.07584488
242	0x3d9b6890	0.07588303
243	0x3ceabd26	0.028654646
244	0xbd3350aa	-0.0437781
245	0x3e045ba0	0.12925577
246	0xbdb713d5	-0.089393295
247	0x3d0e8866	0.03479805
248	0x3e2136a5	0.15743501
249	0x3c5af80a	0.013364801
250	0xb9260740	-0.00015833694
251	0x3d804ee5	0.06265048
252	0x3d82d785	0.06388763
253	0xbdcd7885	-0.10032753
254	0xbc1b1889	-0.009466299
255	0x3d8b18d3	0.06791844

model.seq.10.weight f4 [11]
0	0x3f7ec2f5	0.9951623
1	0x3f6c3068	0.9226136
2	0x3f89668c	1.073442
3	0x3f7ac141	0.9795113
4	0x3f6741bf	0.90334696
5	0x3f88fe6a	1.0702641
6	0x3f745ee3	0.95457286
7	0x3f6c5b73	0.9232704
8	0x3f89f7eb	1.0778784
9	0x3f677422	0.9041158
10	0x3f7d0220	0.9883137

model.seq.10.bias f4 [11]
0	0x3d4fa2d1	0.050692383
1	0xbda7ba5e	-0.081898436
2	0x3d806413	0.06269088
3	0xbc98d763	-0.018657392
4	0xbd8d7185	-0.06906418
5	0x3d7f3c90	0.062313616
6	0xbd5f037b	-0.05444668
7	0xbcc074e6	-0.023493242
8	0x3d9be05d	0.07611153
9	0xbd9f24c1	-0.07770682
10	0xbd7f79c6	-0.06237199

model.seq.10.running_mean f4 [11]
0	0xbe4c816c	-0.19971246
1	0x3eab3844	0.33441365
2	0x3e8a5523	0.2701808
3	0xbe89371c	-0.26799858
4	0x3eaf99c0	0.3429699
5	0xbf4de58e	-0.804284
6	0xbdf5c4b0	-0.12000406
7	0xbf30aaa4	-0.69010377
8	0xbe8bbb9b	-0.2729157
9	0xbf449770	-0.76793575
10	0xbe31a9bf	-0.17349909

model.seq.10.running_var f4 [11]
0	0x3fb2a1bc	1.3955607
1	0x3eabc7d9	0.3355091
2	0x3f3b5346	0.7317394
3	0x3f951c76	1.164931
4	0x3f30e981	0.691063
5	0x3fe12298	1.7588682
6	0x3f40517e	0.7512435
7	0x3f3d1c70	0.7387152
8	0x3fbed5f9	1.4909049
9	0x3f00b6c9	0.5027891
10	0x3fc47f20	1.5351295

model.seq.12.weight f4 [11, 11, 3, 3]
0	0xbc1ea5f8	-0.009683125
1	0x3d9b24ea	0.075754
2	0xbc9afaa6	-0.018918347
3	0x3e1ddd06	0.15416345
4	0xbc6e46d2	-0.014543252
5	0xbcb57640	-0.022151113
6	0x3d625d88	0.05526498
7	0xbd1b376c	-0.03789465
8	0x3cbecdbc	0.023291461
9	0x3ddc7f64	0.10766485
10	0xbda8170c	-0.08207521
11	0xbdd7401b	-0.10510274
12	0x3e21c9bf	0.15799616
13	0xbb64d1fc	-0.00349152
14	0x3c44cdec	0.012011986
15	0x3cc4bb2a	0.024015028
16	0x3cc1aee6	0.023642968
17	0x3d1e2832	0.038612552
18	0xbd4adea0	-0.049528718
19	0x3dac63c6	0.08417468
20	0x3d58a622	0.05289281
21	0x3c08e742	0.008355917
22	0xbdd25118	-0.10269374
23	0xbdad8bab	-0.08473905
24	0xbd31a8bc	-0.04337381
25	0xbd54bcfd	-0.051938046
26	0x3d51c99c	0.05121766
27	0xbd70f192	-0.05882413
28	0x3d0092bd	0.03138994
29	0x3d74e3b5	0.05978747
30	0xbd90bf2a	-0.07067712
31	0x3d2b4a22	0.041818745
32	0xbdb797dd	-0.089645125
33	0xbc826671	-0.015917988
34	0x3c67637d	0.014122841
35	0xbdedbcad	-0.11608253
36	0xba922eb6	-0.0011152837
37	0x3da737db	0.081649505
38	0xbda5e7cb	-0.081008516
39	0xbdbed565	-0.093180455
40	0xbe090d40	-0.1338396
41	0x3d0585db	0.032598358
42	0x3ced4ebb	0.028968206
43	0x3cc2ad80	0.023764372
44	0xbc1e4d7e	-0.00966203
45	0xbd81210f	-0.063051336
46	0x3ddbdc73	0.10735407
47	0xbccec6c6	-0.025241267
48	0x3e003445	0.12519939
49	0xbd213eb5	-0.039366443
50	0xbd8fdb8a	-0.07024296
51	0x3e124894	0.14285499
52	0x3dc49214	0.09598175
53	0xbd0dc70f	-0.034613665
54	0xbcfaade9	-0.030600505
55	0xbce701ba	-0.028199065
56	0x3e032451	0.12806822
57	0xbc3d7a40	-0.011564791
58	0x3d89db19	0.06731243
59	0x3de7c979	0.11317725
60	0x3d10accf	0.035321053
61	0xbaff13fa	-0.001946091
62	0x3b5d8102	0.0033798818
63	0x3d0d157b	0.034444313
64	0x3d843014	0.06454483
65	0x3d9f80b5	0.07788221
66	0x3d278e3b	0.040907126
67	0xbcc6bbc8	-0.024259463
68	0x3dff314b	0.12460574
69	0xba1566df	-0.0005699228
70	0xbcaebd61	-0.021330537
71	0x3d1d59f9	0.038415883
72	0xbbfeadd6	-0.0077721877
73	0x3deff6c6	0.1171699
74	0x3e2f2ff8	0.17108142
75	0x3d413973	0.04717393
76	0x3c86dc46	0.016462456
77	0x3e2599bb	0.16171925
78	0x3de995c2	0.11405517
79	0x3dc69d3d	0.096979596
80	0xbc002917	-0.007822297
81	0x3d08df41	0.033416037
82	0x3d42a520	0.047520757
83	0x3d57b514	0.052662924
84	0xbd56d84f	-0.05245238
85	0x3d00826e	0.031374387
86	0xbca466d3	-0.020068562
87	0x3e0d3e17	0.13793217
88	0x3c06bfa6	0.0082244035
89	0x3e25f0de	0.16205165
90	0xbc7c3845	-0.015394275
91	0xbcc37ff7	-0.02386473
92	0xbd5bb1a2	-0.0536362
93	0xbd5d7a53	-0.054071736
94	0xbce169ac	-0.027516209
95	0xbdf4435a	-0.11926909
96	0x3d0cdde3	0.034391295
97	0x3d6f2d39	0.058392737
98	0x3d59461d	0.05304538
99	0x3dc57814	0.09642044
100	0xbd37f2f1	-0.04490942
101	0xbdc3de9a	-0.09563942
102	0xbcb160b5	-0.021652559
103	0xbd455c20	-0.04818356
104	0x3d7e3877	0.062065568
105	0x3d652fbd	0.05595373
106	0xbda9b1a3	-0.08285835
107	0xbd81a533	-0.063303374
108	0xbdf0cf56	-0.11758296
109	0xbb9e0ddc	-0.0048234295
110	0x3cc3805c	0.023864917
111	0xbc88b361	-0.016687097
112	0xbd84fecb	-0.064939104
113	0x3db23ee3	0.08703401
114	0x3d39e931	0.045388404
115	0xbe05c97a	-0.13065138
116	0xbd86f29f	-0.06589245
117	0xbd597355	-0.053088505
118	0xbde45b9b	-0.11150285
119	0xbcf9b1ca	-0.030480284
120	0xbd7d1009	-0.06178287
121	0xbe1ff8f2	-0.15622309
122	0xbc8aa55e	-0.016924556
123	0xbe14e990	-0.14542222
124	0xbddbb472	-0.107277766
125	0xbd83c5c9	-0.06434209
126	0xbddac4d7	-0.106820755
127	0xbd697541	-0.056996588
128	0xbe02d0ca	-0.12774959
129	0x3d0cb236	0.034349643
130	0xbdfd72e0	-0.12375426
131	0xbdc9392e	-0.09825359
132	0xbd375749	-0.044760976
133	0xbd322f2b	-0.043502014
134	0xbcc3374d	-0.02383008
135	0xbd80eaf8	-0.06294817
136	0xbc76e7af	-0.015069886
137	0xbde9031c	-0.11377546
138	0xbd8b4174	-0.067995936
139	0xbcf3eda5	-0.029776404
140	0xbdfc8b31	-0.12331236
141	0xbdb908dd	-0.09034894
142	0xbbe6dc98	-0.00704534
143	0xbdf65c87	-0.12029367
144	0x3e0f3a21	0.13987018
145	0x3c9ffa1b	0.01952844
146	0x3ccf18b9	0.025280343
147	0x3e01ba4b	0.12668721
148	0x3d21f9b0	0.03954476
149	0x3db584a3	0.08863189
150	0x3df9cc60	0.121971846
151	0x3de552ff	0.11197471
152	0x3de60636	0.112316534
153	0xbda647ef	-0.08119189
154	0x3db89035	0.0901188
155	0x3d224bc2	0.03962303
156	0x3ce19e97	0.027541442
157	0xbd1954da	-0.037434436
158	0xbd594b4f	-0.053050335
159	0xbd9904c4	-0.07471612
160	0xba80b344	-0.000981905
161	0xbd827431	-0.06369818
162	0xbda606bb	-0.081067525
163	0x3e014a88	0.12626088
164	0x3c85d4ca	0.016336817
165	0xbd8fbd3f	-0.07018518
166	0xbd30ab5e	-0.04313218
167	0x3d9fa08c	0.07794294
168	0xbd5ebb18	-0.054377645
169	0x3cab19fa	0.02088641
170	0xbbefda7d	-0.007319747
171	0xbd9ae3e6	-0.075629994
172	0x3d11ede1	0.03562725
173	0x3d9fdc54	0.07805696
174	0x3d5ee850	0.05442077
175	0x3d41db3a	0.04732821
176	0x3d0a7284	0.033800617
177	0xbd0fee59	-0.035139415
178	0x3cf96766	0.030444812
179	0x3dad9904	0.08476451
180	0xbc131151	-0.0089762965
181	0x3ddec581	0.10877515
182	0xbb152c26	-0.002276191
183	0xbd9b5ff7	-0.07586663
184	0x3d3aaf6f	0.045577463
185	0x3ddc69ff	0.10762405
186	0x3dee07d1	0.116225846
187	0xbc7eb23d	-0.015545425
188	0xbd83eca5	-0.06441621
189	0x3d7ba066	0.061432265
190	0xbdb36eb3	-0.087613486
191	0x3d8452d8	0.06461114
192	0x3d6bde1d	0.05758487
193	0xbd2b4c81	-0.041821007
194	0x3d4726ce	0.04862099
195	0xbded1e55	-0.11578051
196	0x3d3f374b	0.04668359
197	0x3da0854a	0.07837923
198	0x3e0cde6c	0.13756722
199	0x3dad65ab	0.08466657
200	0x3dfedcf3	0.124444865
201	0xba39104e	-0.00070596195
202	0x3da31710	0.07963383
203	0x3dccce59	0.10000295
204	0x3d9c927d	0.07645128
205	0x3dcf81ff	0.10132217
206	0x3dd6c399	0.10486526
207	0x3decd2d0	0.11563647
208	0xbdcef379	-0.101050325
209	0x3c2715e6	0.010198092
210	0xbe0f9a2a	-0.14023653
211	0xbbc6ce33	-0.0060670613
212	0x3d44cbcb	0.048045915
213	0xbd82074f	-0.0634905
214	0xbd777b89	-0.060420547
215	0xbdaee3e0	-0.085395575
216	0x3e143533	0.14473419
217	0xbd05a3dd	-0.032626975
218	0xbdac8aa7	-0.08424883
219	0x3d346b05	0.044047374
220	0xbd0c6ab1	-0.034281436
221	0xbddb0878	-0.10694975
222	0xbd9b796e	-0.0759152
223	0xbde3bec4	-0.1112037
224	0x3d206749	0.039161
225	0x3d385bbd	0.045009363
226	0x3bd86f64	0.0066050757
227	0xbd93cc1e	-0.07216667
228	0xbdc4a4f2	-0.09601773
229	0x3d4bf196	0.04979094
230	0xbde3ede1	-0.11129356
231	0xbe0d37d8	-0.13790834
232	0x3ae333cc	0.0017334162
233	0x3c8a2bef	0.016866652
234	0x3d4a7f9f	0.049438115
235	0x3d5190b5	0.051163394
236	0xbd07e37d	-0.033175934
237	0xbd1f0f44	-0.038832918
238	0x3d2f4ece	0.042799763
239	0x3d6fbdfb	0.05853079
240	0x3c88e766	0.016711902
241	0x3ce8b9f8	0.02840899
242	0x3d48695e	0.04892861
243	0x3caa5f1e	0.020797309
244	0x3d80fc42	0.06298114
245	0xbd97ca37	-0.07411616
246	0x3cd909d9	0.026493954
247	0x3d7ec776	0.06220194
248	0x3dbb3b96	0.091422245
249	0x3d5e9a8b	0.054346602
250	0x3d95f553	0.073221825
251	0x3e0343bd	0.12818809
252	0x3dc14dad	0.094386436
253	0x3c96c8d1	0.018406304
254	0x3e2eb7ca	0.17062297
255	0x3d93485e	0.07191537

model.seq.13.weight f4 [11]
0	0x3f6f2649	0.93417794
1	0x3f6bb006	0.92065465
2	0x3f762963	0.961569
3	0x3f7005f4	0.93759084
4	0x3f6f1992	0.9339839
5	0x3f6dd1c8	0.92898226
6	0x3f6c2bea	0.9225451
7	0x3f6f71b7	0.9353289
8	0x3f6ffc4b	0.93744344
9	0x3f6db5fe	0.92855823
10	0x3f6f0b75	0.9337686

model.seq.13.bias f4 [11]
0	0xbd9dd489	-0.077065535
1	0xbdaf34c3	-0.085549854
2	0xbd0f1ab1	-0.034937564
3	0xbd959c96	-0.07305257
4	0xbd403df0	-0.04693407
5	0xbda22ef7	-0.07919114
6	0xbd9ecb74	-0.07753649
7	0xbd487be8	-0.04894629
8	0xbd98de5f	-0.07464289
9	0xbda55a91	-0.08073915
10	0xbd9e3253	-0.07724442

model.seq.13.running_mean f4 [11]
0	0x3ed68418	0.41897655
1	0xbe6afded	-0.22948427
2	0x3f0995c6	0.5374416
3	0x3e4c4a7d	0.1995029
4	0x3eecb721	0.46233466
5	0xbde8bdb1	-0.11364306
6	0xbec75716	-0.3893363
7	0x3e718e83	0.2358952
8	0x3e94950e	0.2901997
9	0xbe2f02a8	-0.17090857
10	0x3e38c6de	0.18044612

model.seq.13.running_var f4 [11]
0	0x3f0fb625	0.56137305
1	0x3f289444	0.65851235
2	0x3f9837b1	1.1891996
3	0x3fa841cb	1.3145078
4	0x3f98921d	1.191959
5	0x3f4c45d7	0.7979407
6	0x3f2b72bd	0.6697195
7	0x3f20bb05	0.6278537
8	0x3f68eb0b	0.9098365
9	0x3f7421d8	0.9536414
10	0x3f368427	0.712954

model.seq.15.weight f4 [4, 11, 3, 3]
0	0x3cf15a51	0.029462012
1	0x3d072109	0.03299049
2	0xbd49fb13	-0.04931171
3	0xbdd19101	-0.102327354
4	0x3d687d04	0.05675985
5	0xbd89c627	-0.06727248
6	0x3d5279a2	0.05138553
7	0x3d37eb5e	0.044902198
8	0xbd52156b	-0.051289957
9	0xbd13a66f	-0.036047395
10	0xbd9f7031	-0.07785071
11	0x3d4b8d80	0.04969549
12	0xbddd43f0	-0.10803974
13	0xbcb9c792	-0.02267817
14	0xbdb06f5a	-0.086149886
15	0x3d0eec14	0.03489311
16	0x3c074575	0.008256306
17	0x3d4b0310	0.049563468
18	0xbd73b705	-0.059500713
19	0xbce52eb6	-0.027976375
20	0xbdcda8dd	-0.10041974
21	0x3d3beae8	0.04587832
22	0xbdc420a4	-0.09576538
23	0x3c947d4c	0.018126152
24	0x3d13ac6c	0.036053106
25	0xbdffbbc6	-0.12486987
26	0x3d296b43	0.04136206
27	0xbd79f05e	-0.061020248
28	0xbcd5e536	-0.026110273
29	0xbd5b8fb7	-0.053603854
30	0xbc88819d	-0.016663367
31	0xbc4bd4d6	-0.012440881
32	0x3d87b973	0.066271685
33	0x3bcc8311	0.0062412103
34	0xbbc1f9d6	-0.0059196753
35	0xbd20d512	-0.0392657
36	0xbde90aaa	-0.11378987
37	0xbd6b6454	-0.057468727
38	0xbd49cf42	-0.049269922
39	0x3cb3f2ff	0.021966456
40	0xbcafd645	-0.021464476
41	0xbce8c0c8	-0.028412238
42	0xbd815a50	-0.06316054
43	0xbde25f27	-0.11053305
44	0x3cc16209	0.023606317
45	0x3d0c3e28	0.034238964
46	0x3d034f5e	0.032058112
47	0x3d6b4d5e	0.05744683
48	0xbdf42277	-0.11920636
49	0x3be871ff	0.0070936675
50	0x3c5b44ae	0.013383074
51	0xbd96aa37	-0.07356685
52	0x3d047226	0.032335423
53	0x3cdac547	0.026705397
54	0x3cde5a43	0.02714265
55	0xbdb1f98b	-0.08690175
56	0x3d476f06	0.048689865
57	0x3d99efc8	0.07516438
58	0xbc775943	-0.015096965
59	0x3cf0be5e	0.02938765
60	0x3da41da2	0.080134645
61	0xbd8d3bb0	-0.0689615
62	0xbdb9cee3	-0.09072664
63	0x3c97a40d	0.018510843
64	0xbcd93f69	-0.026519494
65	0xbd8cbef5	-0.0687236
66	0xbdef4109	-0.11682326
67	0xbdb20d73	-0.086939715
68	0x3b8d67c6	0.0043153493
69	0xbd262fc2	-0.04057289
70	0xbde475f1	-0.11155308
71	0xbd0492f7	-0.03236672
72	0xbcae94a7	-0.021311117
73	0xbde0394f	-0.10948431
74	0x3d34daeb	0.04415409
75	0x3da41fd2	0.08013882
76	0x3d5b9e31	0.05361766
77	0xbddbd7de	-0.10734533
78	0xbd9cb2a6	-0.07651262
79	0xbdbd64c6	-0.09247737
80	0x3d8e86a2	0.06959273
81	0xbd9feff8	-0.07809442
82	0x3d4c5efa	0.049895264
83	0xbd862e31	-0.06551779
84	0x3c8bf71c	0.017085604
85	0x3d485f24	0.04891886
86	0xbd8f0d4d	-0.06984959
87	0x3c0d5715	0.008626719
88	0x3ca72083	0.020401245
89	0xbb1f43af	-0.0024301817
90	0xbd7dd2f4	-0.06196876
91	0xbdd2705a	-0.102753356
92	0xbbff305e	-0.0077877482
93	0xbdeb250d	-0.11481676
94	0xbd712f9e	-0.058883302
95	0xbc3f875d	-0.011689988
96	0x3d19bcda	0.03753362
97	0x3d50a408	0.050937682
98	0xbde2b6b7	-0.11070006
99	0xbd14f792	-0.036368914
100	0x3adea30c	0.0016985848
101	0x3d673168	0.0564436
102	0xbc81c52c	-0.01584109
103	0xbd53a2b9	-0.051668856
104	0x3d0ef02d	0.03489702
105	0xbc546f8b	-0.012966047
106	0xbd49fd16	-0.049313627
107	0x3daea767	0.08528023
108	0xbcd650e6	-0.026161622
109	0xbd6b0b4e	-0.057383828
110	0x3d7610e5	0.060074706
111	0xbc876232	-0.016526315
112	0x3dd54a55	0.10414568
113	0xbcca95f7	-0.024729712
114	0xbd0d4290	-0.034487307
115	0x3de72b9c	0.11287615
116	0x3d71ee90	0.0590654
117	0x3d9fb3ff	0.077980034
118	0x3daceee1	0.08444
119	0x3dd645e7	0.104625516
120	0x3d819795	0.0632774
121	0x3d6ae45c	0.057346687
122	0xbd5a4662	-0.05328978
123	0xbd11e547	-0.035619047
124	0xbc12062a	-0.008912602
125	0x3bfe3fd4	0.0077590737
126	0x3da78ffc	0.0818176
127	0x3d13708b	0.035996
128	0xbdae2bf4	-0.08504477
129	0x3d004263	0.03131331
130	0x3c43c621	0.011949093
131	0x3d5a118b	0.053239387
132	0xbd18a474	-0.03726621
133	0x3db593f7	0.08866113
134	0xbd8451c1	-0.06460906
135	0x3db28073	0.08715906
136	0x3dc5f76e	0.09666334
137	0xbd928f7c	-0.07156274
138	0xbbf4b128	-0.0074674077
139	0x3da10aac	0.078633636
140	0xbd87f5d9	-0.066386886
141	0x3bda470c	0.0066613015
142	0xbd42b3be	-0.047534697
143	0x3d80f33e	0.06296395
144	0x3da6a819	0.08137531
145	0x3d933100	0.071870804
146	0x3da6a785	0.081374206
147	0x3d4b014f	0.049561795
148	0xbdb5bdec	-0.08874115
149	0x3cd7b7ef	0.026332824
150	0x3da9554e	0.08268224
151	0x3d40ceae	0.047072105
152	0xbd826709	-0.06367309
153	0x3bf9b61e	0.007620587
154	0xbc92306b	-0.017845353
155	0xbd07a3f0	-0.033115327
156	0xbd5daceb	-0.054119986
157	0xbcda56fa	-0.026652802
158	0xbd3891fd	-0.0450611
159	0xbb910d8a	-0.004426663
160	0x3d086024	0.03329481
161	0xbca3ecf5	-0.02001045
162	0xbd0d1f98	-0.03445396
163	0xbd259583	-0.04042579
164	0x3d2faccb	0.042889398
165	0xbdbedfea	-0.09320052
166	0x3daccbbe	0.08437298
167	0x3dbab5bc	0.09116694
168	0x3d8bcfd8	0.068267524
169	0x3d880bbe	0.06642865
170	0xbc83e7ba	-0.016101707
171	0xbd2d4493	-0.042301726
172	0x3dd14647	0.102184825
173	0xbd13008e	-0.0358892
174	0xbd21e09a	-0.039520837
175	0x3dbba26b	0.09161838
176	0x3cb91ad6	0.022595804
177	0x3d936e6d	0.071987964
178	0xbd4db389	-0.050220046
179	0xbc0df720	-0.008664876
180	0xbc987bab	-0.018613657
181	0xbb762cf8	-0.0037563425
182	0x3d43c8b5	0.04779883
183	0xbd305185	-0.043046493
184	0x3c1b4d74	0.0094789155
185	0x3d63341d	0.05546962
186	0xbd496b6d	-0.049174715
187	0x3d441973	0.047875833
188	0xbd1f1b0a	-0.038844146
189	0xbc9db00a	-0.019248981
190	0xbd86b32f	-0.06577145
191	0xbda7156f	-0.08158385
192	0x3d91c530	0.07117689
193	0xbdb72aab	-0.08943685
194	0xb9eefc38	-0.00045582815
195	0xbdf6bf96	-0.12048261
196	0x3cae8145	0.021301875
197	0x3d087d2c	0.0333225
198	0xbdb4b4d5	-0.088235535
199	0x39b7cb24	0.00035055832
200	0xbd97288e	-0.07380782
201	0x3cb6171c	0.022227816
202	0xbcd23d71	-0.025664063
203	0x3d63106e	0.05543559
204	0x3db06913	0.08613791
205	0x3c5aa52a	0.013345042
206	0x3d8101ba	0.062991574
207	0xbbbd3a0e	-0.005774743
208	0x3d86662f	0.06562459
209	0x3caea766	0.021320056
210	0x3dbc81fe	0.092044815
211	0x3e02c48f	0.12770294
212	0xbd387223	-0.045030724
213	0x3ce0b1aa	0.027428467
214	0xbccd9651	-0.02509609
215	0x3d92c421	0.07166315
216	0x3dab03c4	0.083503276
217	0x3d4285ae	0.047490768
218	0x3dd09a55	0.101856865
219	0x3d7126e9	0.058875
220	0x3d4c1e2e	0.04983347
221	0x3d897e4e	0.06713544
222	0x3d8b74a9	0.068093605
223	0x3d8f339e	0.06992267
224	0xbd941d08	-0.072321
225	0x3d31a2b6	0.043368064
226	0xbd91c7f8	-0.07118219
227	0x3cb808bd	0.022465104
228	0xbd52db00	-0.051478386
229	0x3de37ef8	0.11108202
230	0xbd291d9a	-0.041287996
231	0xbd00b4d3	-0.031422447
232	0x3dac452e	0.084116325
233	0xbd456b9a	-0.04819832
234	0x3ddfa0a3	0.10919311
235	0x3ca215d2	0.019785795
236	0x3d81178b	0.063033186
237	0xbd3ece36	-0.046583377
238	0x3a489590	0.0007651681
239	0x3d69de6e	0.05709689
240	0x3d6a448e	0.057194285
241	0xbc292dc3	-0.010325852
242	0x3dbdd97a	0.09269996
243	0x3d76ceb7	0.060255732
244	0xbc75308d	-0.014965189
245	0xbd0d1aa0	-0.03444922
246	0x3dca25da	0.09870501
247	0x3db461c2	0.08807708
248	0x3c0a1e70	0.008430108
249	0x3cb16925	0.021656582
250	0x3d686da6	0.056745194
251	0x3dbfbca4	0.09362152
252	0xbd369f6f	-0.04458564
253	0x3d13da3c	0.036096796
254	0xbd6a1a08	-0.05715373
255	0xbabb335e	-0.0014282276

model.seq.15.bias f4 [4]
0	0xbd32ab2e	-0.04362028
1	0x3bba166a	0.0056789415
2	0x3d104427	0.035221245
3	0x3ae3c5aa	0.0017377634
