NDVI-prediction/l0ty8o9a/checkpoints/epoch=5-step=11.ckpt (torch, 17739 bytes, 30 tensors)

model.Cell.conv_cc.weight f4 [4, 9, 3, 3]
00000000: 8280 6a3d 4be0 48bd 0075 b0bc 729d 553d
00000010: ad3a d6bd 1178 883d 7841 bbbc f688 673d
00000020: 9812 7d3c 20e7 5ebc c475 fc3c 909c b33b
00000030: 2a38 263d 765b 31bd f0b9 04bc c8e3 23bc
00000040: 64ee 833c 00b7 e8b9 e7eb c63d 46a0 0d3d
00000050: 787c 29bd 4c6f 89bd 4891 98bc d64e 44bd
00000060: f6d6 11bd e054 ae3b f5a6 873d 9e5e 773d
00000070: 7772 debd fd10 8d3d 8448 fe3c 5dd9 d73d
00000080: 4533 963d 9e55 cfbd 9b5c d8bd c483 5bbd
00000090: b7d1 c73d 649d 97bc e2c4 423d ce7e 53bd
000000a0: 1748 df3d 8a8e 40bd 49a6 aa3d 0075 ac3a
000000b0: aec2 6fbd 12ef 693d 0795 71bd aed9 053d
000000c0: a86a 03bd 5895 47bc ebc4 dabd 19fd 58bd
000000d0: 72f5 763d 1c41 ddbc 17a8 e23d e967 b63d
000000e0: c07a aabb b6e3 97bd 9f92 8a3d 3a3f 0d3d
000000f0: ae18 93bd b7ce 933d 3f26 8a3d 61d1 c93d
00000100: ee1d 7fbd f8d3 95bc c00f 0dbb dcf1 843c
00000110: 32b2 acbd 807a a1bd 2295 773d 9470 d5bc
00000120: 464f 5e3d 2091 cf3b f26e 153d c425 c83c
00000130: 667a 253d 7e9a 613d f0bd d2bd b214 653d
00000140: e6ff 9fbd 56b1 abbd 206b dd3b c01b 9bbc
00000150: 1ba6 853d 19c9 83bd f44a cabd 9b9b a53d
00000160: 2cf8 86bc 02fb 7f3d aa4f 123d 67a3 aabd
00000170: b4dc b63c dca1 da3c 9e5c 98bd 07f0 57bd
00000180: 8a2e 1b3d 940a a33c 8097 41bd f6c4 09bd
00000190: 096a d03d 1469 a8bc 3f4b 803d 8610 453d
000001a0: f217 93bd 1c85 c1bd 916d da3d 901d be3b
000001b0: d3fa 9b3d 6ca0 bc3c c25f 123d 7ff9 a93d
000001c0: 81c5 d73d 6600 97bd b89b 633c a3d0 a93d
000001d0: 67d9 a43d c35d 8d3d aeaf a4bd 1cdd a3bd
000001e0: 809e 89bd 08b3 643c f1cb e23d c6bd 8fbd
000001f0: 2285 723d 0be6 7bbd 89f3 d5bd 5475 c1bc
00000200: 631c 833d c141 d33d 2252 8dbd 4487 c53c
00000210: 4159 c43d 5fca 963d 61d1 8d3d 59b5 a13d
00000220: c1ee 8f3d 6c1b eb3c 699b 9bbd 7b17 bfbd
00000230: 928a 50bd b8fb 53bc 0e7b 8bbd 0a81 263d
00000240: f2d9 0c3d 401b cebc f2ea 2e3d c215 133d
00000250: 79ee 8a3d f13e 993d e81f 1abd df53 de3d
00000260: 2075 52bc 402c 7abb 00c9 d6bd 5c75 92bd
00000270: 52f0 84bd 56a9 42bd fbc8 a13d c0b8 14bd
00000280: 490c aabd 9e1a 2f3d 76b6 113d b762 933d
00000290: e081 6bbd 8c59 c53c f8ae 25bd 0081 ccbc
000002a0: dc57 b5bd 006c 4fbd 9c61 0bbd 229f 423d
000002b0: bc49 a63c 04d7 e03c d71f e33d 2bc8 dd3d
000002c0: 2134 9b3d a0e0 673b c66b 9dbd 3dd6 b13d
000002d0: 009d e3bc a82c 13bc f409 c4bd 80cb b3bc
000002e0: 44c5 92bd 271a d13d 00ba c4bd 2960 b1bd
000002f0: 2043 77bb eb15 76bd 16d8 223d 162f 2fbd
00000300: 92c2 55bd 2036 ce3b 1dba a43d 6711 a0bd
00000310: 1ab9 553d ed30 923d 1f98 de3d ee45 9fbd
00000320: 5472 dc3c bc42 a8bd 8f46 c23d 5c8a 30bd
00000330: 9711 893d 00ca 583b f0c7 0dbc 8058 68bb
00000340: 94bb 9a3c a289 563d 3cfb 913c 7ad5 0a3d
00000350: 1cb1 ccbd 61c8 a53d c165 c63d 4719 bc3d
00000360: d736 a83d 1436 a4bd aeb5 28bd 39a4 c83d
00000370: d451 adbd 7771 ce3d b7f8 b2bd c64a a0bd
00000380: 6a7e 5e3d 067f a3bd 5488 d0bc 798b a53d
00000390: 853e b43d 4336 d73d 30b3 b8bc b9de b0bd
000003a0: bf0d e03d b0e6 c1bc aa3f 3bbd 6ce3 dd3c
000003b0: 9a22 9fbd 5991 953d d39d 8e3d a28f b4bd
000003c0: 69e8 babd e076 1fbc 8228 3f3d 60e5 52bb
000003d0: d2c6 66bd a07a 263b 05e3 d5bd d0d3 a0bd
000003e0: 377b 97bd 1f66 bb3d 7197 c83d 0a96 1abd
000003f0: 904b a33b 32f8 4a3d f01e 5a3c e7e5 63bd
0.05725146 -0.049042027 -0.021540165 0.052152105 -0.1046041 0.06663526 -0.022858366 0.0565271
0.015446328 -0.013604909 0.030817874 0.00548131 0.040580906 -0.043300115 -0.008100972 -0.010003038
0.016104884 -0.00044386834 0.097129636 0.034576677 -0.04137847 -0.06710681 -0.018623963 -0.047926746
-0.035605393 0.0053201765 0.066236414 0.06039297 -0.10861676 0.06888006 0.031040438 0.10539506
0.07333998 -0.10123752 -0.10564538 -0.05359246 0.09756797 -0.018507667 0.047551043 -0.051634602
0.10902422 -0.047010936 0.083324976 0.0013157427 -0.05853527 0.05711276 -0.058980014 0.0326783
-0.032084137 -0.012181602 -0.1068209 -0.052975748 0.06029267 -0.027008586 0.11067217 0.08906538
-0.005202621 -0.07416479 0.06766247 0.034484126 -0.07182442 0.07217162 0.06745576 0.09854389
-0.062284403 -0.018289551 -0.002152428 0.016228609 -0.084324256 -0.07884693 0.06044496 -0.026054658
0.05427482 0.006334439 0.03648276 0.02443207 0.04039993 0.055078976 -0.10290134 0.05592794
-0.07812481 -0.083834335 0.006757155 -0.01893413 0.06525823 -0.06434841 -0.098775774 0.0808632
-0.01647576 0.06249524 0.035720505 -0.08331948 0.022322036 0.026688509 -0.0743954 -0.052719142
0.03788618 0.019902505 -0.047263622 -0.033635102 0.101764746 -0.020557918 0.06264352 0.04811146
-0.071823016 -0.09449217 0.106654294 0.005801864 0.076162 0.023025714 0.035735853 0.08299541
0.10535718 -0.07373123 0.013892107 0.082917474 0.08049279 0.06902649 -0.08041321 -0.08001158
-0.067196846 0.0139587 0.11074055 -0.07018618 0.059208997 -0.061498683 -0.10446841 -0.023615517
0.06401899 0.10315276 -0.06900431 0.024112351 0.09587336 0.07362818 0.069247015 0.078959174
0.070279606 0.0286996 -0.075980015 -0.093306504 -0.0509134 -0.012938432 -0.0681058 0.040650405
0.034387536 -0.025159478 0.04270453 0.03590942 0.06783766 0.07482708 -0.037628084 0.10855841
-0.012845308 -0.0038173348 -0.104875565 -0.07151291 -0.0649115 -0.047524773 0.07899662 -0.036309004
-0.083031245 0.042749994 0.0355744 0.07196563 -0.057496905 0.02409055 -0.040450066 -0.024963856
-0.088546485 -0.050640106 -0.034028634 0.047515042 0.020298831 0.027446277 0.11090057 0.10829195
0.07578302 0.003538169 -0.07686572 0.08683441 -0.027784824 -0.008982815 -0.09572211 -0.021947622
-0.07166532 0.10210066 -0.09605789 -0.08660919 -0.0037729219 -0.060079496 0.039756857 -0.042769514
-0.05218751 0.0062930733 0.08043311 -0.07815819 0.05217848 0.07138238 0.108688585 -0.0777701
0.026909985 -0.082158536 0.09486114 -0.0431007 0.06692808 0.0033079386 -0.008653626 -0.003545314
0.018888272 0.05237735 0.017819993 0.033894993 -0.099947184 0.0809486 0.09687377 0.09184509
0.08213585 -0.08018127 -0.04118889 0.09796948 -0.08462873 0.100802355 -0.08738845 -0.07826762
0.054319777 -0.07983212 -0.025455631 0.08083243 0.08800987 0.105083965 -0.02254638 -0.08636231
0.10940122 -0.02366957 -0.04571501 0.027085982 -0.077702716 0.073031135 0.06963696 -0.08816458
-0.0912636 -0.009732932 0.04666949 -0.0032180175 -0.056341954 0.002540268 -0.10443691 -0.078529
-0.07396548 0.091503374 0.0979451 -0.037740745 0.004983373 0.049553104 0.01331304 -0.055639174

model.Cell.conv_cc.bias f4 [4]
00000000: d6ed 3d3d 1c03 1bbd 2eac 7fbd 4c7e ce3c
0.046369396 -0.037844762 -0.062420063 0.025206707

model.Cell.conv_ll.weight f4 [3, 1, 3, 3]
00000000: c0b7 76be f0b0 91bd 0e6d 2e3e f421 ff3d
00000010: 894b 913e 2ece 68be 80ef 3d3b e697 c9bd
00000020: d8e9 3ebe ae04 40be 04fd ab3d f8d8 0e3d
00000030: ab3b 2ebe 9097 70be f366 8dbe ad43 a73e
00000040: 00b7 68bd 4cdb 9dbd 6007 fbbd 28b9 2abe
00000050: a613 9cbe 0062 48be f6a1 503e c09f 953d
00000060: 0cd1 f0bd 7efe 00be 6a0c 5a3e
-0.24093533 -0.07113826 0.17033789 0.12457648 0.2837794 -0.22734901 0.0028981864 -0.098434255
-0.18643892 -0.18751785 0.08397868 0.034874886 -0.17014949 -0.23495317 -0.27617607 0.3266882
-0.056815147 -0.07707843 -0.12257266 -0.16672194 -0.3048374 -0.19568634 0.20374283 0.073058605
-0.117586225 -0.12597081 0.21293798

model.cell_list.0.conv_cc.weight f4 [4, 9, 3, 3]
00000000: 31ec db3e 74bb e93e 2687 c33e f662 ce3e
00000010: b456 ae3e aca8 913e bc55 763e bd8d d53e
00000020: 7ca5 aa3e 8e3a 9abe a5ce aebe 24b5 e6be
00000030: c683 cdbe d89a a1be 7c20 bdbe 9789 e8be
00000040: 19a8 9dbe 216d afbe 7422 babe 27df 90be
00000050: cdd7 9bbe 6cd1 bcbe 9777 69be f54c 8bbe
00000060: 8dad a0be e9bf b2be 5703 d8be 9452 e13e
00000070: 78b8 a63e 2aa3 903e eddf d93e ca9a c93e
00000080: a17a c33e e41e aa3e c3a5 a33e 180e bf3e
00000090: fba7 73be 6fb4 9dbe 5cc0 c0be 73ad 5abe
000000a0: 88a2 a4be 89c2 71be 94fc 97be c3b7 65be
000000b0: 3d07 85be d501 c7be b20a 82be 43a3 a9be
000000c0: 58ab d7be abec b5be 2f5a ddbe 567a c7be
000000d0: 474e d2be 2c18 83be 1862 b5be bd42 b3be
000000e0: 702b 8ebe 8647 92be f8f9 cebe 5a77 94be
000000f0: 8b43 91be 1caa d6be d9f0 6fbe f256 ccbe
00000100: 65f8 bfbe 1c95 d8be 1775 6bbe 28e4 9ebe
00000110: 9ba4 73be 4e02 a6be 65cd 8abe 44e3 bbbe
00000120: d13e dfbe 65ba a8be 82ee b6be d29b b7be
00000130: 80cd cdbe fbae b0be 4087 a1be e457 9dbe
00000140: c5b0 dfbe 9693 cd3e 4bf1 b73e 7554 d93e
00000150: ce4b da3e 924a 853e 4db9 e83e 0e4a 743e
00000160: a9cb d23e af18 b63e 5fcb 96be a87a d0be
00000170: 0184 8fbe 8bdd cdbe e3ff e3be 4ea8 9ebe
00000180: e493 92be 96a6 72be eda9 b7be 9817 e93e
00000190: f1e9 d63e c226 963e 3a7c 863e ea45 d23e
000001a0: b932 933e f475 cc3e f4a4 813e dade db3e
000001b0: f438 c33e bba1 ab3e 4243 cc3e 87ab 893e
000001c0: 4fbc a53e c7ba b23e ca4c 913e b0a2 a33e
000001d0: 66a3 993e f990 e83e a3ad e23e 296a e33e
000001e0: b4d8 e03e 86bb 773e ec60 c53e 5751 c73e
000001f0: 529f 883e 9568 c93e e782 933e 2e6d bb3e
00000200: 3539 c53e 2678 e33e 1289 943e 169f 853e
00000210: 6204 e73e a342 ca3e e807 ce3e 38d9 c63e
00000220: ed3b 9e3e 8a97 d43e 5fb4 803e 9549 ba3e
00000230: 2916 cc3e 523d d93e 3df6 953e 7feb 8b3e
00000240: ddb3 c73e 2a33 853e c819 833e 7d6f 7e3e
00000250: a4ca 963e 2885 a73e 94b0 903e 2a53 9a3e
00000260: 2e01 803e 5f0b 8fbe ce08 bfbe 92e7 d5be
00000270: 1733 a3be 128c dcbe 6d30 8abe 864c 91be
00000280: 91ea e9be 63aa debe c186 d7be 95cf d0be
00000290: 70e9 aabe 2c45 eabe d530 dcbe ed08 98be
000002a0: a5a5 c4be 11a7 c8be 0c14 e1be 4314 c93e
000002b0: e709 b63e 3a08 9c3e ff2e 8f3e bf1e be3e
000002c0: 1b80 c13e ad45 cb3e 7ced c23e e257 a93e
000002d0: cf0e 863e de4f d63e bc9b b13e da49 8c3e
000002e0: 1228 e33e 7cd0 d13e b762 853e 59af 953e
000002f0: 9abc 9e3e b9d6 d2be 6d6e 97be fa94 dabe
00000300: 0341 7abe 0b83 c9be e96a 90be 760f b0be
00000310: 5704 cbbe 2102 8cbe 73b4 863e 9e03 943e
00000320: 85ee b83e d53d df3e 19bd 993e bd78 8f3e
00000330: 52cb 8d3e 3108 993e 2b76 9e3e 0cd4 a43e
00000340: 36b7 913e fadb c33e 7c8a b23e d8e8 8c3e
00000350: 7b97 913e 1320 be3e 2a44 b13e 8857 da3e
00000360: a575 a93e 75ff 833e 0702 883e a762 a13e
00000370: ec7b a53e 7393 b83e 3e53 a53e 0613 c73e
00000380: d029 9f3e 9bd5 db3e b025 bf3e 4497 a03e
00000390: acc7 e43e 9d9a c03e 606b 8b3e 5f6b 923e
000003a0: 30c0 d53e 1b10 cc3e eb70 de3e 12a7 ad3e
000003b0: d4cf d93e 774e ce3e aa9d c33e 1bdb a43e
000003c0: e1dc e83e ea88 bd3e 2e58 a33e 39c4 b2be
000003d0: f010 74be 8ebf 8bbe 602c b6be f55e 74be
000003e0: c2f9 98be 053f d0be efba e5be b6e5 90be
000003f0: 2555 79be ee29 d3be 4ca7 9abe c898 afbe
0.42953637 0.45650828 0.38189048 0.40309876 0.34050524 0.28449 0.24056143 0.417097
0.3332938 -0.301228 -0.34142032 -0.45060074 -0.40139598 -0.3156345 -0.36938846 -0.45417473
-0.3079231 -0.34262946 -0.3635441 -0.28295252 -0.3043808 -0.36878526 -0.22799526 -0.2720715
-0.3138241 -0.3491204 -0.42190048 0.44008315 0.32562613 0.28249484 0.42553654 0.39375907
0.38179496 0.33226693 0.31962404 0.3731544 -0.23794548 -0.30801722 -0.3764676 -0.21355228
-0.32155252 -0.23609366 -0.2968489 -0.22433381 -0.25982085 -0.38868585 -0.25398785 -0.3313237
-0.42122912 -0.35532126 -0.43232867 -0.38960522 -0.41075346 -0.2560438 -0.35426402 -0.35011855
-0.27767515 -0.28570193 -0.40425086 -0.28997308 -0.28371844 -0.41926658 -0.2343172 -0.39910084
-0.37494197 -0.4230126 -0.22993885 -0.31033444 -0.23793261 -0.32423633 -0.2710983 -0.36696827
-0.43602613 -0.32954708 -0.35728842 -0.3586107 -0.40195847 -0.345085 -0.315485 -0.30731118
-0.43689552 0.40151662 0.3592628 0.42447248 0.4263596 0.26033455 0.45453873 0.23856375
0.41171005 0.35565707 -0.29452035 -0.4071858 -0.28030398 -0.40208086 -0.44531164 -0.3098778
-0.28628457 -0.2369636 -0.3587183 0.45525813 0.41975358 0.29326445 0.26266652 0.41068965
0.28749636 0.3993374 0.25321162 0.4294346 0.3812939 0.33521828 0.39895064 0.26888677
0.3237023 0.34908125 0.28378898 0.31960058 0.30007476 0.45423105 0.442731 0.4441693
0.4391533 0.24192628 0.38550508 0.38929245 0.26684052 0.39337602 0.28810808 0.36606735
0.38520208 0.44427603 0.29010826 0.26097935 0.4512053 0.39503965 0.40240407 0.388376
0.30905095 0.41521865 0.25137612 0.36384264 0.39860657 0.42429596 0.29289427 0.27328107
0.39004412 0.26015598 0.25605607 0.24847217 0.29451478 0.32718778 0.28259718 0.30141574
0.250009 -0.27938363 -0.37311405 -0.41778237 -0.31874916 -0.43075615 -0.2699007 -0.28378695
-0.45686772 -0.4348937 -0.42094997 -0.40783373 -0.33381224 -0.457559 -0.43006006 -0.2969431
-0.38407627 -0.39189962 -0.43960607 0.3927327 0.3555443 0.30475026 0.27965543 0.37132832
0.3779305 0.39701596 0.3807181 0.33074862 0.26183173 0.4185781 0.34689128 0.27400094
0.4436651 0.40979373 0.26051876 0.29235342 0.31003267 -0.41179445 -0.29576436 -0.42691785
-0.24438863 -0.3935779 -0.28206566 -0.34386796 -0.3965175 -0.27345374 0.26309547 0.2890901
0.36119476 0.43601862 0.30027083 0.28021803 0.27694184 0.29889062 0.3094953 0.3219303
0.2846009 0.38253766 0.3487128 0.27521396 0.28435883 0.37133846 0.34622318 0.42644906
0.33097568 0.25780836 0.26564047 0.31520578 0.32321107 0.36049995 0.3229007 0.388817
0.31086588 0.42936406 0.3733344 0.31365407 0.44683588 0.3761796 0.27230358 0.28597543
0.4174819 0.39856037 0.43445525 0.33916527 0.42541373 0.4029424 0.38206226 0.32198414
0.45481017 0.3701852 0.31903213 -0.3491533 -0.23834586 -0.27294582 -0.3558073 -0.23864348
-0.2987805 -0.4067308 -0.44869182 -0.28300256 -0.24348886 -0.41242927 -0.30205762 -0.3429625

model.cell_list.0.conv_cc.bias f4 [4]
00000000: 1b10 c3be 8860 da3e 2c39 e03e 91a6 d9be
-0.38098225 0.42651772 0.4379362 -0.42509893

model.cell_list.0.conv_ll.weight f4 [3, 1, 3, 3]
00000000: e014 00bf d9ee 9cbe 0a32 29bf e723 7abe
00000010: 8c97 f8be cb25 fdbe f5b5 1abf c149 43be
00000020: 6d1e 0fbf 3232 1dbf efdb debe 837e 08bf
00000030: 31f3 2bbf d464 5abe 29e9 f2be 85ba e9bd
00000040: 455f e7bd 8369 0fbf 431f 1d3e 8ef3 6a3e
00000050: 0d03 0b3f 292e ac3e ba2b 6a3e d0e3 0d3f
00000060: 00f4 293f 451d 183f 7f2e be3d
-0.5003185 -0.30650976 -0.6609198 -0.24427758 -0.4855312 -0.49442896 -0.60433894 -0.19071104
-0.559058 -0.61404717 -0.4352717 -0.5331804 -0.67167956 -0.21327525 -0.47443512 -0.11412529
-0.11297468 -0.56020373 0.15343957 0.22944471 0.5430153 0.33628967 0.22868243 0.5542574
0.6638794 0.5941966 0.09286212

model.cell_list.1.conv_cc.weight f4 [4, 2, 3, 3]
00000000: 90fd 983e 5fe8 9a3e 9885 0c3f 3c47 673e
00000010: eac7 593e 90f1 b33e 9c05 963e 24bc df3e
00000020: 71b9 c03e 99d0 543e 0f1b 053f 6c94 fd3e
00000030: 11e3 cc3e 9175 0a3e 4d2b eb3e d652 013f
00000040: ab0e d43e d7cf 833e b726 ba3e 88b2 833e
00000050: fed5 113f 3c4b 133f 8cfe a33e b8ba 413e
00000060: 3b0c f93e 80a6 ef3e ec06 f23e c690 2f3e
00000070: 5682 db3e 2e2d 7e3e cd08 113e 48a4 3c3e
00000080: cabe e53e e0c4 df3e 6658 113e fa05 f73e
00000090: ce89 2bbe 2341 2dbe d831 5cbe dd2e c5be
000000a0: 42c0 42be 8c85 27be 68a9 66be d584 04bf
000000b0: 565b dcbe bbba 1bbe 1def 22be dfef 40be
000000c0: e9e7 dfbe 2b5e c5be 38b0 03bf 7c3d f2be
000000d0: 60a7 21be 4a42 08bf a33c 943e 21ad cb3e
000000e0: 114d 533e bc30 ce3e f9a8 9e3e 8752 e23e
000000f0: a0e7 2a3e d3b6 c23e 0611 083e b62e fd3e
00000100: e5c4 133f 8f3d 873e ab28 c43e ea46 683e
00000110: d23b 4a3e fe63 6a3e 3da5 713e b938 c93e
0.29880953 0.3025541 0.5489135 0.22585768 0.21267667 0.35145235 0.29301155 0.43698227
0.3764148 0.20782699 0.51994413 0.495273 0.40016988 0.1352141 0.45931473 0.5051702
0.4141744 0.25744507 0.36357662 0.25722146 0.5696715 0.57536674 0.3203014 0.18918884
0.48642144 0.46806717 0.47270906 0.1714507 0.42872876 0.24821922 0.14163513 0.18422043
0.44872123 0.4370489 0.14193878 0.48246747 -0.16751787 -0.16919379 -0.21503389 -0.38512316
-0.19018653 -0.16359538 -0.22525561 -0.51765186 -0.43038434 -0.15207951 -0.15911527 -0.18841504
-0.4373162 -0.38548407 -0.51440763 -0.47312534 -0.15786505 -0.5322615 0.28952512 0.39780524
0.20634867 0.40271556 0.3098829 0.44203588 0.1668992 0.3803011 0.13287744 0.494497
0.5772231 0.26414153 0.38312277 0.22683302 0.19749382 0.22889706 0.2359819 0.39301088

model.cell_list.1.conv_cc.bias f4 [4]
00000000: 26d2 bbbe 31c5 a4be a0c1 5b3e 3f7b fabe
-0.36683768 -0.32181695 0.21460581 -0.48922154

model.cell_list.1.conv_ll.weight f4 [3, 1, 3, 3]
00000000: 5e25 763d 9a68 df3d ecb7 203f d0ec f13e
00000010: a90d fc3c 6808 963e 2937 c03e abd8 063f
00000020: e766 283f e8df db3e 6f71 153f 25dd 6b3e
00000030: 3816 ad3e 3f46 173e b4fa d93e 6719 283f
00000040: 57eb 0e3f c43e 2e3f abe7 4a3e a9ff 9c3e
00000050: 8f8e d53e 3fc8 1d3f f3c0 2b3d c412 3d3e
00000060: 431c cb3e 296a 1f3e 851b f23e
0.06009423 0.10908623 0.6278064 0.47250986 0.030768232 0.29303288 0.37542084 0.5267436
0.65782017 0.42944264 0.5837621 0.23033579 0.33806014 0.1477289 0.42574084 0.6566376
0.5582785 0.6806452 0.19814937 0.30663803 0.41710326 0.61633676 0.041932058 0.1846419
0.3967 0.1556784 0.4728662

model.cell_list.2.conv_cc.weight f4 [4, 2, 3, 3]
00000000: ede7 a93e 9bdc 923e cada f23e 9730 043f
00000010: 28c2 133f 28c8 e83e 46d5 ae3e a066 0a3f
00000020: 6f16 093f 0d97 eebe 2e47 76be a6f7 a3be
00000030: 3c43 e6be 01d9 cebe cb9a cebe 4247 03bf
00000040: 33ef d6be af7f 89be f358 053f ce44 bb3e
00000050: 49f1 f43d f203 f23e 1096 8d3e feef 0e3f
00000060: 9df7 f53d f6dd 953e 8bd8 073f e4bd 7bbe
00000070: f548 eebe 8049 0dbf 865f b3be 0775 83be
00000080: e321 0bbf f187 0bbf 9d98 b3be add3 cabe
00000090: 61d8 013f 9762 023e 83ed a23e d937 313e
000000a0: 898c a43e 71ee 703e 0a1c dc3e 2c59 223e
000000b0: f662 2e3e acd8 fabe 4f07 10bf 205c 54be
000000c0: 1aa2 c7be 0269 f9be 9998 43be 1abe d1be
000000d0: c4e5 6fbe 95c5 dbbe e575 1a3e 80b3 cc3e
000000e0: bd57 fd3e 241f f23d 52c2 be3e da3f ca3e
000000f0: 4a0c c03e eb35 af3e 24af 8c3e 8aed 07bf
00000100: 027c 9ebe ea9b 01bf 87f0 0abf 96e9 d8be
00000110: d263 02bf fb2d 8dbe 576a 38be 42c2 28be
0.33184758 0.28683934 0.47432548 0.5163664 0.57718134 0.45465207 0.3414709 0.54062843
0.53549856 -0.46599618 -0.2405059 -0.32024878 -0.4497317 -0.40399936 -0.40352473 -0.51280606
-0.4197937 -0.26855227 0.5208885 0.3657593 0.11960084 0.47268635 0.2765355 0.5583495
0.12010119 0.29270905 0.53064793 -0.24584156 -0.46540037 -0.5519028 -0.35033816 -0.25675222
-0.5434858 -0.54504305 -0.35077372 -0.3961462 0.50720793 0.12732922 0.31821832 0.1730646
0.3213847 0.23528458 0.42990142 0.15854329 0.17029938 -0.48993433 -0.5626115 -0.20738268
-0.3899086 -0.48712927 -0.1910118 -0.40965348 -0.23427492 -0.4292418 0.15084036 0.39980698
0.49481001 0.11822346 0.3725763 0.3950184 0.37509376 0.34220824 0.27477372 -0.5309683
-0.30953985 -0.5062853 -0.54273266 -0.42365712 -0.50933564 -0.27574143 -0.18009315 -0.16480353

model.cell_list.2.conv_cc.bias f4 [4]
00000000: dad6 00bf c34b 6abe e5fd 2ebe 6720 b6be
-0.5032784 -0.22880463 -0.1708904 -0.35571596

model.cell_list.2.conv_ll.weight f4 [3, 1, 3, 3]
00000000: a83d 54be dc1a 23be 6726 bebd 729b 2dbe
00000010: 8f8c 52be 2ce6 f2be 52a3 08bf 7386 01bf
00000020: dfcd 96bd 736c dbbe 9efb abbe c89f 28bf
00000030: 07ab b9be 6e3b e2be 981a 10bf f5a5 b7bd
00000040: 6221 1ebf dc7b cabe b44a bebe 1959 26bf
00000050: c601 16be b97e e8be e309 4bbe 94e0 25be
00000060: c897 5dbd 06fa 87be f742 c8bd
-0.20726645 -0.15928215 -0.092846684 -0.16953829 -0.20561431 -0.47441232 -0.5337421 -0.5059578
-0.073634855 -0.42856178 -0.33590406 -0.65868807 -0.36263296 -0.44185966 -0.5629058 -0.08967201
-0.6176969 -0.39547622 -0.3716637 -0.649797 -0.14649114 -0.45409182 -0.1982799 -0.16198951
-0.054099828 -0.2655794 -0.097783975

exp_avg f4 [4, 9, 3, 3]
00000000: 84e1 88b9 9f20 88b9 e893 86b9 22c3 8ab9
00000010: b9ec 89b9 9756 88b9 3d1b 8bb9 2e09 8bb9
00000020: 472f 89b9 46eb c637 030f c837 9bcd c937
00000030: 9edc c737 b988 c837 8b02 ca37 19ba c737
00000040: 6e7a c837 b0f6 c937 9593 ee37 c29e ee37
00000050: 63a1 ee37 3337 ee37 7547 ee37 514f ee37
00000060: 49d0 ed37 4de4 ed37 7ef1 ed37 2974 40b5
00000070: 106f 40b5 d569 40b5 c96f 40b5 a06a 40b5
00000080: 5765 40b5 d16b 40b5 9966 40b5 3d61 40b5
00000090: d86b d137 076c d137 426c d137 036c d137
000000a0: 3a6c d137 716c d137 426c d137 746c d137
000000b0: a56c d137 5a68 4b38 9f68 4b38 f668 4b38
000000c0: 4c68 4b38 8b68 4b38 e168 4b38 3768 4b38
000000d0: 8068 4b38 c768 4b38 5a57 2438 d157 2438
000000e0: 5258 2438 6457 2438 e357 2438 6358 2438
000000f0: 7957 2438 ee57 2438 7358 2438 37e4 6238
00000100: a7e4 6238 2ae5 6238 91e4 6238 fee4 6238
00000110: 74e5 6238 dce4 6238 4be5 6238 c9e5 6238
00000120: 167e 3638 1be9 3538 51b9 3338 3ff8 3a38
00000130: fef5 3938 1eff 3638 a370 3c38 995f 3c38
00000140: fbd1 3838 f744 cdba e1d3 ccba 6afd cbba
00000150: d836 ceba 91ac cdba ddcc ccba 695b ceba
00000160: cc52 ceba e763 cdba 5db4 2938 ea53 2a38
00000170: f4a8 2a38 bf26 2a38 ddc0 2a38 b00b 2b38
00000180: 8d93 2a38 0321 2b38 c466 2b38 cfd8 dfb9
00000190: dddb dfb9 39e0 dfb9 e7e5 dfb9 59e8 dfb9
000001a0: fdeb dfb9 4cf4 dfb9 53f6 dfb9 4af9 dfb9
000001b0: 5e62 1ab7 4260 1ab7 1d5e 1ab7 c561 1ab7
000001c0: a65f 1ab7 7f5d 1ab7 3261 1ab7 125f 1ab7
000001d0: e55c 1ab7 a24f fbb9 9b4f fbb9 964f fbb9
000001e0: 9b4f fbb9 904f fbb9 874f fbb9 894f fbb9
000001f0: 854f fbb9 804f fbb9 edef 0dba ffef 0dba
00000200: 10f0 0dba 01f0 0dba 13f0 0dba 22f0 0dba
00000210: 13f0 0dba 25f0 0dba 35f0 0dba 9d5e fdb9
00000220: 585e fdb9 195e fdb9 c45e fdb9 875e fdb9
00000230: 415e fdb9 ec5e fdb9 a95e fdb9 655e fdb9
00000240: 90dd 24ba a7dd 24ba bedd 24ba 90dd 24ba
00000250: a7dd 24ba bedd 24ba 8edd 24ba a7dd 24ba
00000260: b9dd 24ba 9529 bf39 7b0d bf39 50a2 be39
00000270: d342 c039 ddda bf39 a22b bf39 b4b9 c039
00000280: 127d c039 0b76 bf39 4d3e fb3a a887 fa3a
00000290: 9934 f83a 6597 fd3a eb9e fc3a fa42 fa3a
000002a0: 5b95 fd3a ad97 fd3a 8fe7 fa3a 45ba 6bb9
000002b0: 3197 6cb9 5f7a 6cb9 cc58 6cb9 8c77 6db9
000002c0: 376e 6db9 8f4b 6db9 3f5b 6eb9 9940 6eb9
000002d0: 37ce 42b9 cfd8 42b9 66dd 42b9 b381 42b9
000002e0: e18f 42b9 7598 42b9 bf2d 42b9 8e3e 42b9
000002f0: d64a 42b9 2230 3d37 df2c 3d37 8929 3d37
00000300: 342e 3d37 f52a 3d37 9327 3d37 702c 3d37
00000310: 2429 3d37 c125 3d37 3668 29b9 5468 29b9
00000320: 7e68 29b9 6b68 29b9 8b68 29b9 a568 29b9
00000330: 9268 29b9 b268 29b9 d468 29b9 f7ea a6b9
00000340: 3ceb a6b9 88eb a6b9 e5ea a6b9 30eb a6b9
00000350: 85eb a6b9 e5ea a6b9 20eb a6b9 75eb a6b9
00000360: 1537 86b9 8837 86b9 eb37 86b9 2837 86b9
00000370: 9337 86b9 fd37 86b9 2b37 86b9 9b37 86b9
00000380: 0638 86b9 c652 bbb9 4b53 bbb9 d253 bbb9
00000390: 1453 bbb9 9653 bbb9 1954 bbb9 5653 bbb9
000003a0: df53 bbb9 6254 bbb9 170f 90b9 aff6 8fb9
000003b0: f30d 8eb9 2f76 93b9 0b1f 93b9 1fd2 90b9
000003c0: 5162 94b9 cf99 94b9 03e6 91b9 0232 bc3b
000003d0: f630 bc3b 4d47 bc3b dfba bb3b 4fbc bb3b
000003e0: 43f4 bb3b e79b bb3b c89a bb3b 4cf7 bb3b
000003f0: aec7 a737 1e44 a837 f4d7 a937 99df a637
-0.00026107964 -0.00025964246 -0.0002566867 -0.00026466796 -0.00026307048 -0.00026004456 -0.0002653244 -0.00026518985
-0.000261659 2.3712997e-05 2.3848848e-05 2.405681e-05 2.3825382e-05 2.3905524e-05 2.408146e-05 2.3809307e-05
2.3898869e-05 2.407594e-05 2.8440534e-05 2.8445738e-05 2.8446962e-05 2.8397515e-05 2.8405086e-05 2.8408745e-05
2.8349592e-05 2.8358912e-05 2.8365055e-05 -7.169461e-07 -7.168719e-07 -7.167958e-07 -7.168824e-07 -7.1680734e-07
-7.167304e-07 -7.168247e-07 -7.1674873e-07 -7.1667074e-07 2.496496e-05 2.4965046e-05 2.4965153e-05 2.4965038e-05
2.4965138e-05 2.4965238e-05 2.4965153e-05 2.4965244e-05 2.4965333e-05 4.8496157e-05 4.8496408e-05 4.8496724e-05
4.8496106e-05 4.8496335e-05 4.8496648e-05 4.849603e-05 4.8496295e-05 4.8496553e-05 3.9182e-05 3.9182432e-05
3.91829e-05 3.9182036e-05 3.9182498e-05 3.9182964e-05 3.9182112e-05 3.9182538e-05 3.918302e-05 5.409514e-05
5.4095548e-05 5.4096025e-05 5.4095468e-05 5.4095864e-05 5.4096294e-05 5.409574e-05 5.4096145e-05 5.4096603e-05
4.3509608e-05 4.337086e-05 4.2849515e-05 4.4577053e-05 4.4336535e-05 4.3629778e-05 4.4927594e-05 4.4911725e-05
4.4064578e-05 -0.0015660812 -0.001562711 -0.0015563194 -0.0015732897 -0.0015691688 -0.0015625019 -0.0015743795
-0.0015741228 -0.0015670032 4.0460716e-05 4.060931e-05 4.068851e-05 4.0567244e-05 4.0710776e-05 4.0780462e-05
4.0668576e-05 4.080032e-05 4.0865285e-05 -0.0004269541 -0.00042697685 -0.00042700933 -0.00042705165 -0.00042706987
-0.000427097 -0.0004271589 -0.000427174 -0.0004271961 -9.202018e-06 -9.201527e-06 -9.201028e-06 -9.201879e-06
-9.201385e-06 -9.200884e-06 -9.201745e-06 -9.201251e-06 -9.200744e-06 -0.00047933782 -0.0004793376 -0.00047933747
-0.0004793376 -0.0004793373 -0.00047933703 -0.0004793371 -0.00047933697 -0.00047933683 -0.0005414475 -0.00054144853
-0.0005414495 -0.00054144865 -0.0005414497 -0.0005414506 -0.0005414497 -0.00054145075 -0.0005414517 -0.00048326413
-0.00048326212 -0.0004832603 -0.00048326526 -0.0004832635 -0.00048326145 -0.00048326643 -0.00048326448 -0.0004832625
-0.0006289119 -0.0006289132 -0.00062891457 -0.0006289119 -0.0006289132 -0.00062891457 -0.0006289118 -0.0006289132
-0.0006289143 0.0003646134 0.00036440403 0.00036360556 0.00036670882 0.00036593425 0.00036462868 0.00036759453
0.00036714278 0.00036518308 0.0019168347 0.0019113915 0.0018936574 0.0019347487 0.0019273435 0.0019093447
0.001934688 0.0019347571 0.0019142496 -0.00022480737 -0.00022563037 -0.000225523 -0.00022539793 -0.00022646616
-0.0002264314 -0.00022630229 -0.0002273144 -0.00022721513 -0.00018578103 -0.00018582049 -0.00018583759 -0.00018549598
-0.00018554881 -0.00018558076 -0.00018518323 -0.00018524585 -0.0001852916 1.1276485e-05 1.1275725e-05 1.12749485e-05
1.1276035e-05 1.127528e-05 1.1274492e-05 1.1275624e-05 1.1274857e-05 1.1274068e-05 -0.00016155918 -0.00016155961
-0.00016156022 -0.00016155995 -0.00016156041 -0.00016156079 -0.00016156051 -0.00016156098 -0.00016156147 -0.0003183705
-0.0003183725 -0.00031837472 -0.00031836997 -0.00031837216 -0.00031837463 -0.00031836997 -0.0003183717 -0.00031837416
-0.0002559951 -0.00025599846 -0.00025600134 -0.00025599566 -0.00025599878 -0.00025600186 -0.00025599575 -0.000255999
-0.00025600212 -0.0003572909 -0.00035729478 -0.0003572987 -0.00035729317 -0.00035729696 -0.00035730077 -0.0003572951
-0.00035729908 -0.0003573029 -0.00027477063 -0.0002745888 -0.00027094744 -0.00028126079 -0.00028061154 -0.00027622373
-0.0002830201 -0.00028343356 -0.00027827927 0.005743266 0.0057431413 0.0057458044 0.005729064 0.0057292352
0.0057359054 0.005725372 0.0057252385 0.005736267 2.0000934e-05 2.005888e-05 2.0246931e-05 1.9892863e-05

exp_avg_sq f4 [4, 9, 3, 3]
00000000: 9802 9133 7565 8f33 3a21 8c33 bc0c 9533
00000010: 293d 9333 46da 8f33 22cc 9533 5fa3 9533
00000020: 41a7 9133 103d 1c30 f904 1e30 8ac6 2030
00000030: bcb6 1d30 4bc4 1e30 bd1a 2130 5982 1d30
00000040: 55b0 1e30 ae0a 2130 0a14 8330 711f 8330
00000050: 3b22 8330 86b6 8230 08c7 8230 1dcf 8230
00000060: 8a4e 8230 d562 8230 4270 8230 7fea 092b
00000070: 10e3 092b 6edb 092b 0de4 092b 8adc 092b
00000080: ced4 092b 30de 092b 96d6 092b c6ce 092b
00000090: ced1 5030 24d2 5030 8dd2 5030 1ad2 5030
000000a0: 7ed2 5030 e4d2 5030 8dd2 5030 e4d2 5030
000000b0: 3ed3 5030 2901 3831 aa01 3831 3e02 3831
000000c0: 1a01 3831 8501 3831 1f02 3831 f700 3831
000000d0: 7601 3831 f301 3831 9874 f230 d975 f230
000000e0: 3a77 f230 ae74 f230 1076 f230 6b77 f230
000000f0: ec74 f230 2a76 f230 9177 f230 9efc 6531
00000100: 7dfd 6531 7efe 6531 4afd 6531 26fe 6531
00000110: 10ff 6531 defd 6531 b9fe 6531 b4ff 6531
00000120: 49fc 0231 0027 0231 9317 fe30 b37b 0931
00000130: 6201 0831 8bb5 0331 bca6 0b31 7e8d 0b31
00000140: 0e58 0631 b71f 2536 dd69 2436 2f12 2336
00000150: 05a6 2636 b4c6 2536 be5e 2436 18e1 2636
00000160: 26d3 2636 7e51 2536 f80f e330 f4ba e430
00000170: 369e e530 4b42 e430 d1df e530 25a8 e630
00000180: 4065 e530 b6e1 e630 0b9d e730 5785 4334
00000190: b18a 4334 4d92 4334 479c 4334 91a0 4334
000001a0: efa6 4334 86b5 4334 11b9 4334 42be 4334
000001b0: ba8b ba2e a686 ba2e 7281 ba2e 478a ba2e
000001c0: 2785 ba2e eb7f ba2e e788 ba2e c283 ba2e
000001d0: 7e7e ba2e 1982 7634 0882 7634 f881 7634
000001e0: 0482 7634 f081 7634 df81 7634 e881 7634
000001f0: db81 7634 cf81 7634 1630 9d34 3f30 9d34
00000200: 6330 9d34 4430 9d34 6e30 9d34 8e30 9d34
00000210: 6e30 9d34 9730 9d34 b530 9d34 947a 7a34
00000220: 147a 7a34 9579 7a34 e57a 7a34 6b7a 7a34
00000230: e379 7a34 387b 7a34 b27a 7a34 2d7a 7a34
00000240: d113 d434 0814 d434 4514 d434 d113 d434
00000250: 0b14 d434 4514 d434 c613 d434 0814 d434
00000260: 3b14 d434 3664 0f34 0f3a 0f34 9199 0e34
00000270: 4b0b 1134 9c6e 1034 4767 0f34 dcbe 1134
00000280: 3963 1134 fed6 0f34 4eac 7736 c444 7636
00000290: 51b8 7136 eb52 7c36 6b65 7a36 c9bd 7536
000002a0: d74e 7c36 7853 7c36 6501 7736 1e01 5a33
000002b0: 849a 5b33 0665 5b33 c426 5b33 cc3b 5d33
000002c0: 652a 5d33 d7e9 5c33 d7e4 5e33 05b3 5e33
000002d0: 58b5 1433 85c5 1433 8fcc 1433 9340 1433
000002e0: 2c56 1433 4863 1433 9dc0 1333 37da 1333
000002f0: e6ec 1333 b174 0c2f e06f 0c2f eb6a 0c2f
00000300: d871 0c2f 006d 0c2f 0268 0c2f 366f 0c2f
00000310: 546a 0c2f 4a65 0c2f c3db e032 15dc e032
00000320: 83dc e032 55dc e032 a8dc e032 eadc e032
00000330: bbdc e032 0ddd e032 66dd e032 cf6a da33
00000340: 7c6b da33 456c da33 a16a da33 606b da33
00000350: 406c da33 9c6a da33 326b da33 166c da33
00000360: 9934 8d33 8d35 8d33 5e36 8d33 c434 8d33
00000370: a735 8d33 8536 8d33 cb34 8d33 b635 8d33
00000380: 9636 8d33 d789 0934 9e8a 0934 648b 0934
00000390: 4e8a 0934 0b8b 0934 cf8b 0934 af8a 0934
000003a0: 798b 0934 398c 0934 c0d5 a233 989e a233
000003b0: c655 9e33 429e aa33 ded4 a933 d18f a433
000003c0: 6fc2 ac33 b843 ad33 2305 a733 3517 0b38
000003d0: b515 0b38 aa36 0b38 6767 0a38 a469 0a38
000003e0: 18bc 0a38 be39 0a38 2e38 0a38 7fc0 0a38
000003f0: cedf dc2f 9c27 de2f da56 e22f 557e da2f
6.7525605e-08 6.677411e-08 6.525302e-08 6.9406696e-08 6.856346e-08 6.69866e-08 6.975485e-08 6.96807e-08
6.782512e-08 5.6839244e-10 5.748713e-10 5.84898e-10 5.737595e-10 5.7759014e-10 5.8609456e-10 5.73015e-10
5.773065e-10 5.8586636e-10 9.5372e-10 9.540441e-10 9.541233e-10 9.510621e-10 9.515313e-10 9.51761e-10
9.481067e-10 9.486835e-10 9.49065e-10 4.8997606e-13 4.898729e-13 4.8976697e-13 4.898866e-13 4.8978237e-13
4.8967503e-13 4.8980524e-13 4.8969975e-13 4.8959133e-13 7.596811e-10 7.5968587e-10 7.596917e-10 7.596853e-10
7.5969087e-10 7.5969653e-10 7.596917e-10 7.5969653e-10 7.597015e-10 2.6776183e-09 2.677647e-09 2.6776799e-09
2.677615e-09 2.6776388e-09 2.677673e-09 2.6776072e-09 2.6776354e-09 2.6776632e-09 1.7640955e-09 1.7641312e-09
1.7641704e-09 1.764098e-09 1.7641373e-09 1.7641758e-09 1.7641049e-09 1.7641402e-09 1.76418e-09 3.3467482e-09
3.3467977e-09 3.3468548e-09 3.3467864e-09 3.3468353e-09 3.3468872e-09 3.3468193e-09 3.346868e-09 3.3469236e-09
1.9060897e-09 1.8939659e-09 1.8487633e-09 2.0006439e-09 1.979139e-09 1.9166204e-09 2.032194e-09 2.0307591e-09
1.954962e-09 2.4605376e-06 2.4499525e-06 2.4299477e-06 2.4832564e-06 2.4702576e-06 2.4493052e-06 2.486695e-06
2.4858832e-06 2.463435e-06 1.6520962e-09 1.6642319e-09 1.6706909e-09 1.6608025e-09 1.6725555e-09 1.6782492e-09
1.669072e-09 1.6798853e-09 1.6852096e-09 1.8209299e-07 1.8211246e-07 1.8214014e-07 1.8217644e-07 1.8219204e-07
1.822152e-07 1.8226828e-07 1.8228117e-07 1.8230006e-07 8.483121e-11 8.482219e-11 8.481295e-11 8.482864e-11
8.481953e-11 8.4810235e-11 8.4826195e-11 8.4817056e-11 8.48077e-11 2.2957865e-07 2.295784e-07 2.2957818e-07
2.2957835e-07 2.2957806e-07 2.2957782e-07 2.2957795e-07 2.2957776e-07 2.295776e-07 2.9278516e-07 2.9278632e-07
2.9278735e-07 2.9278647e-07 2.9278766e-07 2.9278857e-07 2.9278766e-07 2.9278883e-07 2.9278968e-07 2.3327658e-07
2.3327476e-07 2.3327296e-07 2.3327773e-07 2.33276e-07 2.3327406e-07 2.3327891e-07 2.33277e-07 2.3327512e-07
3.9502495e-07 3.9502652e-07 3.9502825e-07 3.9502495e-07 3.950266e-07 3.9502825e-07 3.9502464e-07 3.9502652e-07
3.9502797e-07 1.335437e-07 1.3339034e-07 1.3280648e-07 1.3508286e-07 1.3451285e-07 1.3355485e-07 1.3573612e-07
1.3540274e-07 1.3396127e-07 3.6906163e-06 3.6696883e-06 3.6019085e-06 3.759919e-06 3.7311936e-06 3.6618314e-06
3.7596817e-06 3.7599511e-06 3.680668e-06 5.0758096e-08 5.1130442e-08 5.108179e-08 5.1025168e-08 5.1509957e-08
5.149413e-08 5.1435418e-08 5.189653e-08 5.185122e-08 3.4623866e-08 3.463858e-08 3.464498e-08 3.4517665e-08
3.4537308e-08 3.454923e-08 3.4401285e-08 3.442457e-08 3.4441562e-08 1.2774383e-10 1.2772672e-10 1.2770911e-10
1.2773371e-10 1.277165e-10 1.2769877e-10 1.2772436e-10 1.2770701e-10 1.2768911e-10 2.6176968e-08 2.6177114e-08
2.617731e-08 2.6177227e-08 2.6177375e-08 2.6177492e-08 2.6177409e-08 2.6177554e-08 2.6177712e-08 1.01708444e-07
1.01709674e-07 1.017111e-07 1.0170812e-07 1.01709475e-07 1.01711066e-07 1.0170808e-07 1.0170915e-07 1.0171077e-07
6.5753916e-08 6.575565e-08 6.5757135e-08 6.575422e-08 6.5755835e-08 6.575741e-08 6.575427e-08 6.575594e-08
6.575753e-08 1.2809265e-07 1.2809548e-07 1.2809829e-07 1.2809434e-07 1.2809703e-07 1.2809981e-07 1.2809572e-07
1.2809859e-07 1.2810132e-07 7.582594e-08 7.572561e-08 7.3730504e-08 7.945029e-08 7.908396e-08 7.663005e-08
8.0447414e-08 8.068258e-08 7.777478e-08 3.3161796e-05 3.31604e-05 3.3191092e-05 3.2998065e-05 3.300015e-05
3.307694e-05 3.295554e-05 3.2954085e-05 3.308104e-05 4.017679e-10 4.040971e-10 4.1170872e-10 3.9743733e-10

exp_avg f4 [4]
00000000: c86b 5638 14ac 50ba 667e afb9 09a6 9f3b
5.1121955e-05 -0.0007960212 -0.00033472775 0.004872088

exp_avg_sq f4 [4]
00000000: d856 5431 cded 2935 ee5d f133 2477 c837
3.0899425e-09 6.330345e-07 1.1239523e-07 2.3897337e-05

exp_avg f4 [3, 1, 3, 3]
00000000: 0557 b939 08fd b839 b8ff b739 b3e3 ba39
00000010: 236d ba39 b915 b939 4374 bb39 128b bb39
00000020: 9516 ba39 c367 1c3b 5e45 1c3b 320d 1c3b
00000030: ce0d 1d3b 41c4 1c3b 9c59 1c3b 918b 1d3b
00000040: af68 1d3b 45d8 1c3b bc28 28bc 673c 28bc
00000050: f759 28bc fdae 27bc 43cb 27bc ce03 28bc
00000060: 0759 27bc 8b66 27bc 37b2 27bc
0.00035350784 0.00035283738 0.00035095005 0.00035646334 0.00035557998 0.00035302134 0.0003575404 0.00035771035
0.0003549351 0.0023865558 0.0023845057 0.0023811576 0.0023964527 0.0023920687 0.0023857122 0.0024039487
0.0024018695 0.0023932618 -0.010263618 -0.010268307 -0.010275356 -0.010234592 -0.010241332 -0.010254813
-0.010214097 -0.010217319 -0.010235361

exp_avg_sq f4 [3, 1, 3, 3]
00000000: 6bec 0734 1469 0734 c4f8 0534 4d32 0a34
00000010: 0784 0934 528d 0734 7207 0b34 2d29 0b34
00000020: dc04 0934 fc13 c036 8cbf bf36 d635 bf36
00000030: 85ac c136 58f7 c036 3cf1 bf36 0fe3 c236
00000040: d18c c236 9828 c136 45c3 dd38 2cf7 dd38
00000050: 3b45 de38 8182 dc38 e5cc dc38 db61 dd38
00000060: 9da0 db38 15c4 db38 f98a dc38
1.2658863e-07 1.2611082e-07 1.247709e-07 1.2870551e-07 1.280715e-07 1.2624267e-07 1.2948092e-07 1.2960363e-07
1.2760887e-07 5.7243724e-06 5.7145426e-06 5.698511e-06 5.771932e-06 5.7508405e-06 5.720327e-06 5.8080836e-06
5.7980437e-06 5.756574e-06 0.00010574473 0.000105841405 0.0001059868 0.00010514726 0.00010528582 0.00010556328
0.0001047265 0.00010479257 0.00010516303

exp_avg f4 [4, 2, 3, 3]
00000000: 3744 2ebb b278 2ebb 5da5 2ebb f504 2ebb
00000010: d829 2ebb 4868 2ebb d8e9 2dbb 78e7 2dbb
00000020: cb1a 2ebb c32a c0ba 0636 c0ba b13b c0ba
00000030: 150f c0ba 6520 c0ba dd2f c0ba 91ef bfba
00000040: 5cf9 bfba d211 c0ba e8e1 08bb b809 09bb
00000050: b229 09bb 50ae 08bb afcb 08bb fbfb 08bb
00000060: 3199 08bb 9896 08bb 77bf 08bb 5624 9dba
00000070: 902b 9dba cd2e 9dba 9d0e 9dba c31b 9dba
00000080: 6d26 9dba e5f4 9cba cbfc 9cba b60f 9dba
00000090: a8c4 3c3c a1e9 3c3c f423 3d3c 9c9c 3c3c
000000a0: c0aa 3c3c e2e6 3c3c cb9f 3c3c 2f8e 3c3c
000000b0: beb8 3c3c 02da 063b 6cee 063b e009 073b
000000c0: 1ca1 063b 0cb3 063b 48da 063b 0a79 063b
000000d0: 3076 063b 6aa1 063b aa44 36bb c277 36bb
000000e0: 549d 36bb 3703 36bb c827 36bb e85f 36bb
000000f0: 6ae5 35bb 87e4 35bb 0f12 36bb bc68 c2ba
00000100: e772 c2ba ff76 c2ba 104c c2ba 225d c2ba
00000110: f66a c2ba db2b c2ba f335 c2ba c64c c2ba
-0.0026590952 -0.0026622233 -0.0026648857 -0.0026553248 -0.0026575234 -0.002661245 -0.0026537087 -0.0026535671
-0.0026566263 -0.0014661181 -0.0014664538 -0.0014666227 -0.0014652932 -0.0014658092 -0.0014662702 -0.001464354
-0.0014646458 -0.0014653748 -0.0020886604 -0.0020910334 -0.0020929393 -0.0020855851 -0.0020873358 -0.0020902145
-0.0020843262 -0.0020841714 -0.0020866075 -0.0011988978 -0.0011991132 -0.0011992097 -0.0011982505 -0.0011986423
-0.0011989601 -0.001197484 -0.0011977194 -0.0011982832 0.011521496 0.011530311 0.011544216 0.011511948
0.011515319 0.011529656 0.011512707 0.011508509 0.011518655 0.002057672 0.0020588888 0.0020605251
0.0020542806 0.0020553498 0.0020576883 0.0020518922 0.0020517223 0.0020542988 -0.0027811923 -0.0027842377
-0.002786477 -0.0027772912 -0.0027794708 -0.002782816 -0.002775515 -0.002775462 -0.002778176 -0.0014832239
-0.0014835269 -0.0014836489 -0.0014823694 -0.0014828781 -0.0014832902 -0.0014814095 -0.0014817104 -0.0014823906

exp_avg_sq f4 [4, 2, 3, 3]
00000000: 3229 ee36 c8b8 ee36 1933 ef36 657c ed36
00000010: 25e1 ed36 e38b ee36 5e32 ed36 ea2b ed36
00000020: 09b8 ed36 2c05 ed35 df23 ed35 5833 ed35
00000030: b6b9 ec35 ede8 ec35 1313 ed35 d863 ec35
00000040: 887e ec35 30c1 ec35 42ef 9236 ce44 9336
00000050: 9689 9336 8780 9236 90bf 9236 4627 9336
00000060: 4353 9236 b24d 9236 55a5 9236 ecb6 9335
00000070: 77c6 9335 70cd 9335 2a88 9335 76a4 9335
00000080: 6abb 9335 da50 9335 d661 9335 858a 9335
00000090: 3a53 0b39 ee89 0b39 4fe0 0b39 ff17 0b39
000000a0: ed2c 0b39 e285 0b39 b21c 0b39 b202 0b39
000000b0: 9641 0b39 ccf1 0f38 1001 1038 9615 1038
000000c0: 42c7 0f38 afd4 0f38 05f2 0f38 53a9 0f38
000000d0: 33a7 0f38 7fc7 0f38 2142 0237 3b8b 0237
000000e0: 0bc1 0237 9ee4 0137 db18 0237 1c69 0237
000000f0: 19ba 0137 d7b8 0137 d6f9 0137 dd20 0236
00000100: 652f 0236 4235 0236 e8f7 0136 4910 0236
00000110: 0d24 0236 f0c9 0136 57d8 0136 ecf8 0136
7.0977485e-06 7.114464e-06 7.1287036e-06 7.077632e-06 7.0893607e-06 7.1092377e-06 7.069014e-06 7.0682627e-06
7.084575e-06 1.7659381e-06 1.7668316e-06 1.7672819e-06 1.7637419e-06 1.765116e-06 1.7663427e-06 1.7612429e-06
1.7620196e-06 1.7639595e-06 4.3789923e-06 4.3889513e-06 4.3969585e-06 4.3661016e-06 4.37344e-06 4.3855134e-06
4.360832e-06 4.360184e-06 4.3703863e-06 1.1005591e-06 1.1010114e-06 1.1012144e-06 1.0991982e-06 1.1000218e-06
1.1006898e-06 1.0975884e-06 1.0980827e-06 1.0992668e-06 0.00013287077 0.00013307456 0.00013339634 0.00013265012
0.00013272809 0.00013305948 0.00013266763 0.00013257077 0.00013280506 3.4319048e-05 3.4333265e-05 3.435238e-05
3.427943e-05 3.4291934e-05 3.4319255e-05 3.4251552e-05 3.4249573e-05 3.4279652e-05 7.764001e-06 7.781021e-06
7.79355e-06 7.742228e-06 7.754391e-06 7.7730765e-06 7.732328e-06 7.732036e-06 7.747169e-06 1.9390638e-06
1.9399097e-06 1.940251e-06 1.9366798e-06 1.9380989e-06 1.9392494e-06 1.934004e-06 1.9348424e-06 1.936739e-06

exp_avg f4 [4]
00000000: 2747 963b c16f 293b 2368 0ebe 4a1a c83b
0.0045861187 0.0025853964 -0.13906913 0.0061066495

exp_avg_sq f4 [4]
00000000: 294f 9338 c8c7 3838 62c8 d53a 1938 a038
7.024251e-05 4.405508e-05 0.0016310329 7.6398435e-05

exp_avg f4 [3, 1, 3, 3]
00000000: 1bf2 3dbb fcfb 3dbb fdff 3dbb 0bd9 3dbb
00000010: 68e9 3dbb 1bf7 3dbb bfba 3dbb 00c4 3dbb
00000020: c0da 3dbb 4ecb 1bbb 88d1 1bbb 7dd3 1bbb
00000030: 92b7 1bbb 13c4 1bbb 6fcd 1bbb b99e 1bbb
00000040: 3fa6 1bbb e9b7 1bbb 7b86 3fbb 608f 3fbb
00000050: f291 3fbb 706c 3fbb b17c 3fbb f288 3fbb
00000060: 944d 3fbb 2d57 3fbb 816c 3fbb
-0.0028983417 -0.0028989306 -0.0028991692 -0.002896848 -0.0028978232 -0.0028986398 -0.002895042 -0.0028955936
-0.0028969496 -0.0023772302 -0.0023776013 -0.002377718 -0.002376054 -0.0023767992 -0.002377357 -0.002374573
-0.0023750213 -0.0023760742 -0.0029224444 -0.0029229745 -0.0029231277 -0.002920892 -0.002921861 -0.0029225913
-0.0029190527 -0.0029196248 -0.002920896

exp_avg_sq f4 [3, 1, 3, 3]
00000000: fe60 e336 647b e336 1286 e336 121e e336
00000010: c149 e336 556e e336 38cd e236 e7e5 e236
00000020: 9a22 e336 60c5 8d36 80d2 8d36 9ed6 8d36
00000030: c19b 8d36 20b6 8d36 dac9 8d36 6a67 8d36
00000040: 4277 8d36 7c9c 8d36 7a79 f936 6692 f936
00000050: 8f99 f936 a630 f936 1e5e f936 6a80 f936
00000060: 5eda f836 37f5 f836 d330 f936
6.7764186e-06 6.7794917e-06 6.780735e-06 6.768628e-06 6.7737133e-06 6.7779715e-06 6.7592155e-06 6.762089e-06
6.7691553e-06 4.225105e-06 4.226633e-06 4.227112e-06 4.2202596e-06 4.2233296e-06 4.225626e-06 4.2141664e-06
4.216011e-06 4.2203446e-06 7.43492e-06 7.4378213e-06 7.438655e-06 7.4264417e-06 7.431735e-06 7.4357276e-06
7.4163972e-06 7.4195227e-06 7.426462e-06

exp_avg f4 [4, 2, 3, 3]
00000000: eef8 89bb f807 8abb a00c 8abb f6e4 89bb
00000010: a0f2 89bb df05 8abb 6ed1 89bb 00d4 89bb
00000020: e0e6 89bb cad0 4d3b 94d5 4d3b fed9 4d3b
00000030: 1fc6 4d3b 7dcb 4d3b 6ed2 4d3b 06be 4d3b
00000040: 7fc0 4d3b a9c8 4d3b 5f9c 6bbb 00b6 6bbb
00000050: 60be 6bbb 087b 6bbb 8f91 6bbb 7bb2 6bbb
00000060: 8d5b 6bbb e15e 6bbb 5b7e 6bbb e00d 303b
00000070: ee11 303b bc15 303b 0905 303b 8009 303b
00000080: 620f 303b 74fe 2f3b 7500 303b 4907 303b
00000090: 4616 12bd 1e22 12bd f726 12bd 1205 12bd
000000a0: 9e0e 12bd d41e 12bd d5f6 11bd 81f6 11bd
000000b0: 3305 12bd a93d c53c 6e41 c53c a245 c53c
000000c0: 1835 c53c fa38 c53c fe3e c53c 862f c53c
000000d0: ea30 c53c 8a37 c53c 7326 5ebb c840 5ebb
000000e0: 9847 5ebb 9008 5ebb 6b22 5ebb 1a43 5ebb
000000f0: 02ea 5dbb 8cf1 5dbb 2e12 5ebb 89e5 253b
00000100: c9e9 253b 0eed 253b 4fdd 253b 20e2 253b
00000110: a9e7 253b 84d6 253b fad8 253b 83df 253b
-0.004210583 -0.0042123757 -0.004212931 -0.0042082025 -0.0042098314 -0.0042121257 -0.004205874 -0.0042061806
-0.0042084306 0.0031404966 0.003140782 0.003141045 0.0031398607 0.0031401806 0.0031405943 0.003139378
0.0031395254 0.003140012 -0.0035951359 -0.0035966635 -0.0035971627 -0.0035931487 -0.0035944914 -0.0035964537
-0.0035912723 -0.0035914707 -0.0035933468 0.002686374 0.0026866156 0.0026868423 0.002685847 0.0026861131
0.0026864638 0.0026854547 0.002685574 0.002685981 -0.035665773 -0.035677068 -0.03568169 -0.035649367
-0.03565847 -0.03567393 -0.035635788 -0.035635475 -0.03564949 0.024077253 0.02407905 0.024081055
0.024073169 0.02407502 0.024077889 0.024070513 0.024071176 0.024074335 -0.003389743 -0.0033913124
-0.0033917185 -0.0033879615 -0.0033895026 -0.0033914507 -0.0033861403 -0.0033865897 -0.0033885348 0.0025313816
0.0025316349 0.0025318298 0.0025308912 0.0025311783 0.0025315082 0.0025304863 0.002530633 0.0025310225

exp_avg_sq f4 [4, 2, 3, 3]
00000000: 9acf 9c37 01f1 9c37 56fb 9c37 53a3 9c37
00000010: a6c1 9c37 5cec 9c37 0c78 9c37 b87d 9c37
00000020: 95a7 9c37 0e7b 2a37 e482 2a37 1a8a 2a37
00000030: 9c69 2a37 6472 2a37 c07d 2a37 5f5c 2a37
00000040: 6b60 2a37 c36d 2a37 deb0 6537 88e1 6537
00000050: 6df1 6537 9671 6537 529c 6537 d4da 6537
00000060: d635 6537 263c 6537 de77 6537 6922 fa36
00000070: c02d fa36 6b38 fa36 a209 fa36 2316 fa36
00000080: 9e26 fa36 30f7 f936 cbfc f936 ee0f fa36
00000090: f761 543a 338d 543a ee9e 543a 3723 543a
000000a0: ff45 543a 2a81 543a 3eef 533a 09ee 533a
000000b0: a423 543a 55dc e739 87e6 e739 d8f1 e739
000000c0: 40c5 e739 bbcf e739 f2df e739 37b6 e739
000000d0: f6b9 e739 d9cb e739 0482 4b37 16b1 4b37
000000e0: 3fbd 4b37 9f4c 4b37 d07a 4b37 35b5 4b37
000000f0: 0516 4b37 7b23 4b37 c55d 4b37 248d dd36
00000100: 5e98 dd36 fea0 dd36 7a77 dd36 2c84 dd36
00000110: c592 dd36 9265 dd36 096c dd36 4b7d dd36
1.8693321e-05 1.8708875e-05 1.8713687e-05 1.8672703e-05 1.8686824e-05 1.8706713e-05 1.865255e-05 1.8655192e-05
1.8674686e-05 1.01614405e-05 1.0163265e-05 1.0164944e-05 1.0157379e-05 1.0159423e-05 1.0162068e-05 1.0154296e-05
1.0155239e-05 1.01583455e-05 1.3690644e-05 1.3701974e-05 1.3705675e-05 1.367591e-05 1.368586e-05 1.3700414e-05
1.3661998e-05 1.3663468e-05 1.3677372e-05 7.4545865e-06 7.4559066e-06 7.4571485e-06 7.451702e-06 7.4531577e-06
7.4550762e-06 7.4495547e-06 7.4502072e-06 7.452435e-06 0.0008101756 0.00081081985 0.00081108406 0.00080924056
0.00080975884 0.0008106405 0.0008084661 0.0008084481 0.0008092469 0.00044223914 0.0004423151 0.0004423994
0.00044206716 0.00044214525 0.00044226606 0.00044195514 0.00044198305 0.00044211632 1.21300145e-05 1.2140974e-05
1.2143805e-05 1.2117583e-05 1.2128337e-05 1.2141933e-05 1.210487e-05 1.2108004e-05 1.2121575e-05 6.602744e-06
6.604051e-06 6.605055e-06 6.600222e-06 6.6017e-06 6.6033995e-06 6.5981376e-06 6.59889e-06 6.6008993e-06

exp_avg f4 [4]
00000000: e044 ff3c 6b70 dc3c 7cdc cbbb c907 cf3c
0.031160772 0.026909074 -0.006221352 0.025272267

exp_avg_sq f4 [4]
00000000: 7f2e 403a e804 0d3a 9bf1 083d 2b8f f839
0.0007331147 0.0005379454 0.033433538 0.00047408915

exp_avg f4 [3, 1, 3, 3]
00000000: b444 c13b 9b48 c13b fc4b c13b 553b c13b
00000010: 5340 c13b f445 c13b 4033 c13b 3536 c13b
00000020: b13d c13b eb4a a53b 384e a53b 2751 a53b
00000030: 1f43 a53b 4a47 a53b 134c a53b 8a3c a53b
00000040: ed3e a53b 3d45 a53b 7fc0 9b3b f1c3 9b3b
00000050: 60c6 9b3b 5ab9 9b3b cfbd 9b3b 35c2 9b3b
00000060: afb2 9b3b 77b5 9b3b 6fbb 9b3b
0.0058980826 0.005898548 0.0058989506 0.0058969655 0.0058975606 0.0058982316 0.005896002 0.0058963546
0.0058972468 0.0050443313 0.005044725 0.0050450745 0.005043402 0.0050438987 0.005044469 0.005042617
0.0050429017 0.0050436542 0.004753172 0.0047535826 0.0047538728 0.0047523202 0.0047528516 0.004753376
0.0047515254 0.004751857 0.0047525684

exp_avg_sq f4 [3, 1, 3, 3]
00000000: 5ad7 1638 5bdd 1638 8be2 1638 edc8 1638
00000010: 9fd0 1638 47d9 1638 82bc 1638 0fc1 1638
00000020: 93cc 1638 1b52 dd37 d05a dd37 8c62 dd37
00000030: 8f3d dd37 8e48 dd37 2a55 dd37 362c dd37
00000040: 8432 dd37 2543 dd37 00f4 c337 89fc c337
00000050: 9602 c437 49e2 c337 55ed c337 3ff8 c337
00000060: c0d1 c337 a6d8 c337 74e7 c337
3.596335e-05 3.596894e-05 3.597377e-05 3.5949914e-05 3.595708e-05 3.5965142e-05 3.593835e-05 3.5942587e-05
3.595331e-05 2.6383486e-05 2.638754e-05 2.6391142e-05 2.6373918e-05 2.6379039e-05 2.638491e-05 2.636584e-05
2.6368776e-05 2.637652e-05 2.3359433e-05 2.3363407e-05 2.3366225e-05 2.3351184e-05 2.3356328e-05 2.336141e-05
2.3343484e-05 2.3346696e-05 2.335359e-05
