NDVI-prediction/za8ibrgk/checkpoints/epoch=0-step=1.ckpt (torch, 17611 bytes, 30 tensors)

model.Cell.conv_cc.weight f4 [4, 9, 3, 3]
00000000: 8280 6a3d 4be0 48bd 0075 b0bc 729d 553d
00000010: ad3a d6bd 1178 883d 7841 bbbc f688 673d
00000020: 9812 7d3c 20e7 5ebc c475 fc3c 909c b33b
00000030: 2a38 263d 765b 31bd f0b9 04bc c8e3 23bc
00000040: 64ee 833c 00b7 e8b9 e7eb c63d 46a0 0d3d
00000050: 787c 29bd 4c6f 89bd 4891 98bc d64e 44bd
00000060: f6d6 11bd e054 ae3b f5a6 873d 9e5e 773d
00000070: 7772 debd fd10 8d3d 8448 fe3c 5dd9 d73d
00000080: 4533 963d 9e55 cfbd 9b5c d8bd c483 5bbd
00000090: b7d1 c73d 649d 97bc e2c4 423d ce7e 53bd
000000a0: 1748 df3d 8a8e 40bd 49a6 aa3d 0075 ac3a
000000b0: aec2 6fbd 12ef 693d 0795 71bd aed9 053d
000000c0: a86a 03bd 5895 47bc ebc4 dabd 19fd 58bd
000000d0: 72f5 763d 1c41 ddbc 17a8 e23d e967 b63d
000000e0: c07a aabb b6e3 97bd 9f92 8a3d 3a3f 0d3d
000000f0: ae18 93bd b7ce 933d 3f26 8a3d 61d1 c93d
00000100: ee1d 7fbd f8d3 95bc c00f 0dbb dcf1 843c
00000110: 32b2 acbd 807a a1bd 2295 773d 9470 d5bc
00000120: 464f 5e3d 2091 cf3b f26e 153d c425 c83c
00000130: 667a 253d 7e9a 613d f0bd d2bd b214 653d
00000140: e6ff 9fbd 56b1 abbd 206b dd3b c01b 9bbc
00000150: 1ba6 853d 19c9 83bd f44a cabd 9b9b a53d
00000160: 2cf8 86bc 02fb 7f3d aa4f 123d 67a3 aabd
00000170: b4dc b63c dca1 da3c 9e5c 98bd 07f0 57bd
00000180: 8a2e 1b3d 940a a33c 8097 41bd f6c4 09bd
00000190: 096a d03d 1469 a8bc 3f4b 803d 8610 453d
000001a0: f217 93bd 1c85 c1bd 916d da3d 901d be3b
000001b0: d3fa 9b3d 6ca0 bc3c c25f 123d 7ff9 a93d
000001c0: 81c5 d73d 6600 97bd b89b 633c a3d0 a93d
000001d0: 67d9 a43d c35d 8d3d aeaf a4bd 1cdd a3bd
000001e0: 809e 89bd 08b3 643c f1cb e23d c6bd 8fbd
000001f0: 2285 723d 0be6 7bbd 89f3 d5bd 5475 c1bc
00000200: 631c 833d c141 d33d 2252 8dbd 4487 c53c
00000210: 4159 c43d 5fca 963d 61d1 8d3d 59b5 a13d
00000220: c1ee 8f3d 6c1b eb3c 699b 9bbd 7b17 bfbd
00000230: 928a 50bd b8fb 53bc 0e7b 8bbd 0a81 263d
00000240: f2d9 0c3d 401b cebc f2ea 2e3d c215 133d
00000250: 79ee 8a3d f13e 993d e81f 1abd df53 de3d
00000260: 2075 52bc 402c 7abb 00c9 d6bd 5c75 92bd
00000270: 52f0 84bd 56a9 42bd fbc8 a13d c0b8 14bd
00000280: 490c aabd 9e1a 2f3d 76b6 113d b762 933d
00000290: e081 6bbd 8c59 c53c f8ae 25bd 0081 ccbc
000002a0: dc57 b5bd 006c 4fbd 9c61 0bbd 229f 423d
000002b0: bc49 a63c 04d7 e03c d71f e33d 2bc8 dd3d
000002c0: 2134 9b3d a0e0 673b c66b 9dbd 3dd6 b13d
000002d0: 009d e3bc a82c 13bc f409 c4bd 80cb b3bc
000002e0: 44c5 92bd 271a d13d 00ba c4bd 2960 b1bd
000002f0: 2043 77bb eb15 76bd 16d8 223d 162f 2fbd
00000300: 92c2 55bd 2036 ce3b 1dba a43d 6711 a0bd
00000310: 1ab9 553d ed30 923d 1f98 de3d ee45 9fbd
00000320: 5472 dc3c bc42 a8bd 8f46 c23d 5c8a 30bd
00000330: 9711 893d 00ca 583b f0c7 0dbc 8058 68bb
00000340: 94bb 9a3c a289 563d 3cfb 913c 7ad5 0a3d
00000350: 1cb1 ccbd 61c8 a53d c165 c63d 4719 bc3d
00000360: d736 a83d 1436 a4bd aeb5 28bd 39a4 c83d
00000370: d451 adbd 7771 ce3d b7f8 b2bd c64a a0bd
00000380: 6a7e 5e3d 067f a3bd 5488 d0bc 798b a53d
00000390: 853e b43d 4336 d73d 30b3 b8bc b9de b0bd
000003a0: bf0d e03d b0e6 c1bc aa3f 3bbd 6ce3 dd3c
000003b0: 9a22 9fbd 5991 953d d39d 8e3d a28f b4bd
000003c0: 69e8 babd e076 1fbc 8228 3f3d 60e5 52bb
000003d0: d2c6 66bd a07a 263b 05e3 d5bd d0d3 a0bd
000003e0: 377b 97bd 1f66 bb3d 7197 c83d 0a96 1abd
000003f0: 904b a33b 32f8 4a3d f01e 5a3c e7e5 63bd
0.05725146 -0.049042027 -0.021540165 0.052152105 -0.1046041 0.06663526 -0.022858366 0.0565271
0.015446328 -0.013604909 0.030817874 0.00548131 0.040580906 -0.043300115 -0.008100972 -0.010003038
0.016104884 -0.00044386834 0.097129636 0.034576677 -0.04137847 -0.06710681 -0.018623963 -0.047926746
-0.035605393 0.0053201765 0.066236414 0.06039297 -0.10861676 0.06888006 0.031040438 0.10539506
0.07333998 -0.10123752 -0.10564538 -0.05359246 0.09756797 -0.018507667 0.047551043 -0.051634602
0.10902422 -0.047010936 0.083324976 0.0013157427 -0.05853527 0.05711276 -0.058980014 0.0326783
-0.032084137 -0.012181602 -0.1068209 -0.052975748 0.06029267 -0.027008586 0.11067217 0.08906538
-0.005202621 -0.07416479 0.06766247 0.034484126 -0.07182442 0.07217162 0.06745576 0.09854389
-0.062284403 -0.018289551 -0.002152428 0.016228609 -0.084324256 -0.07884693 0.06044496 -0.026054658
0.05427482 0.006334439 0.03648276 0.02443207 0.04039993 0.055078976 -0.10290134 0.05592794
-0.07812481 -0.083834335 0.006757155 -0.01893413 0.06525823 -0.06434841 -0.098775774 0.0808632
-0.01647576 0.06249524 0.035720505 -0.08331948 0.022322036 0.026688509 -0.0743954 -0.052719142
0.03788618 0.019902505 -0.047263622 -0.033635102 0.101764746 -0.020557918 0.06264352 0.04811146
-0.071823016 -0.09449217 0.106654294 0.005801864 0.076162 0.023025714 0.035735853 0.08299541
0.10535718 -0.07373123 0.013892107 0.082917474 0.08049279 0.06902649 -0.08041321 -0.08001158
-0.067196846 0.0139587 0.11074055 -0.07018618 0.059208997 -0.061498683 -0.10446841 -0.023615517
0.06401899 0.10315276 -0.06900431 0.024112351 0.09587336 0.07362818 0.069247015 0.078959174
0.070279606 0.0286996 -0.075980015 -0.093306504 -0.0509134 -0.012938432 -0.0681058 0.040650405
0.034387536 -0.025159478 0.04270453 0.03590942 0.06783766 0.07482708 -0.037628084 0.10855841
-0.012845308 -0.0038173348 -0.104875565 -0.07151291 -0.0649115 -0.047524773 0.07899662 -0.036309004
-0.083031245 0.042749994 0.0355744 0.07196563 -0.057496905 0.02409055 -0.040450066 -0.024963856
-0.088546485 -0.050640106 -0.034028634 0.047515042 0.020298831 0.027446277 0.11090057 0.10829195
0.07578302 0.003538169 -0.07686572 0.08683441 -0.027784824 -0.008982815 -0.09572211 -0.021947622
-0.07166532 0.10210066 -0.09605789 -0.08660919 -0.0037729219 -0.060079496 0.039756857 -0.042769514
-0.05218751 0.0062930733 0.08043311 -0.07815819 0.05217848 0.07138238 0.108688585 -0.0777701
0.026909985 -0.082158536 0.09486114 -0.0431007 0.06692808 0.0033079386 -0.008653626 -0.003545314
0.018888272 0.05237735 0.017819993 0.033894993 -0.099947184 0.0809486 0.09687377 0.09184509
0.08213585 -0.08018127 -0.04118889 0.09796948 -0.08462873 0.100802355 -0.08738845 -0.07826762
0.054319777 -0.07983212 -0.025455631 0.08083243 0.08800987 0.105083965 -0.02254638 -0.08636231
0.10940122 -0.02366957 -0.04571501 0.027085982 -0.077702716 0.073031135 0.06963696 -0.08816458
-0.0912636 -0.009732932 0.04666949 -0.0032180175 -0.056341954 0.002540268 -0.10443691 -0.078529
-0.07396548 0.091503374 0.0979451 -0.037740745 0.004983373 0.049553104 0.01331304 -0.055639174

model.Cell.conv_cc.bias f4 [4]
00000000: d6ed 3d3d 1c03 1bbd 2eac 7fbd 4c7e ce3c
0.046369396 -0.037844762 -0.062420063 0.025206707

model.Cell.conv_ll.weight f4 [3, 1, 3, 3]
00000000: c0b7 76be f0b0 91bd 0e6d 2e3e f421 ff3d
00000010: 894b 913e 2ece 68be 80ef 3d3b e697 c9bd
00000020: d8e9 3ebe ae04 40be 04fd ab3d f8d8 0e3d
00000030: ab3b 2ebe 9097 70be f366 8dbe ad43 a73e
00000040: 00b7 68bd 4cdb 9dbd 6007 fbbd 28b9 2abe
00000050: a613 9cbe 0062 48be f6a1 503e c09f 953d
00000060: 0cd1 f0bd 7efe 00be 6a0c 5a3e
-0.24093533 -0.07113826 0.17033789 0.12457648 0.2837794 -0.22734901 0.0028981864 -0.098434255
-0.18643892 -0.18751785 0.08397868 0.034874886 -0.17014949 -0.23495317 -0.27617607 0.3266882
-0.056815147 -0.07707843 -0.12257266 -0.16672194 -0.3048374 -0.19568634 0.20374283 0.073058605
-0.117586225 -0.12597081 0.21293798

model.cell_list.0.conv_cc.weight f4 [4, 9, 3, 3]
00000000: c485 7d3e 5d90 8c3e 98b4 4c3e 9777 623e
00000010: 565c 223e 46fa d13d 2222 703d 29cd 703e
00000020: 33f8 1a3e 9b0f f8bd c62d 25be 887c 8abe
00000030: cd98 62be 6ec5 0abe 94cf 41be d652 8cbe
00000040: 85e1 02be 866a 26be f3c7 49be 8681 eebd
00000050: 0132 0dbe 242b 4fbe 15fc 7bbd f541 d8bd
00000060: 58e9 16be f50c 3bbe 92c9 82be d163 823e
00000070: 5293 0f3e 42d1 c63d 34e2 753e da57 553e
00000080: 6a17 493e 0360 163e ac6d 093e 3d3e 403e
00000090: 8c11 98bd a4c9 13be 78e1 59be f138 4cbd
000000a0: d4a5 21be 9246 94bd ec59 08be 0662 78bd
000000b0: 68de c4bd fa72 60be 6409 adbd d2b5 25be
000000c0: 02e3 80be a848 3ebe d691 86be 0164 61be
000000d0: e20b 77be 513f b1bd 1305 3ebe 52c6 39be
000000e0: 5c2f dfbd e09f efbd c934 71be fe5e f8bd
000000f0: ed8f ebbd 884a 80be 5063 86bd c083 6bbe
00000100: a5c6 52be 0700 82be b52b 79bd 269e 10be
00000110: dcf4 8cbd 72da 1ebe 3be1 d0bd 579c 4abe
00000120: 0ed9 82be 70a9 18be 6212 35be af6a 36be
00000130: 60ce 62be 4892 28be 1441 0abe 5ee2 01be
00000140: a14a 83be 4405 623e 9ec0 363e e486 793e
00000150: d975 7b3e 9ee6 a23d 5b28 8c3e 00a1 6c3d
00000160: 8275 6c3e 750f 333e 1003 eabd ce5f 68be
00000170: e1e3 ccbd ce25 63be 1ab5 87be 83ba 04be
00000180: e923 d9bd 1242 68bd 5dbd 36be 9153 8c3e
00000190: d44b 743e f28a e53d dbe0 a63d cd03 6b3e
000001a0: d6ba d93d e863 5f3e d483 933d b635 7e3e
000001b0: 0732 4d3e 9403 1e3e a046 5f3e 572e b43d
000001c0: ba38 123e aa35 2c3e 63b3 d23d 7e05 0e3e
000001d0: d00d f43d 24d0 8b3e ceec 853e 54a9 863e
000001e0: df17 843e 6ee7 783d 2e40 513e 0421 553e
000001f0: f479 af3d 804f 593e 1cf1 da3d 1b4d 3d3e
00000200: 28e5 503e 86b1 863e ca09 df3d db61 a33d
00000210: c13d 8a3e 08f8 5a3e 9082 623e cc28 543e
00000220: 36ee 023e 71a5 6f3e 32be 8f3d 8609 3b3e
00000230: ada2 5e3e 00f1 783e acc5 e43d b59a bc3d
00000240: f1da 553e 12b3 a13d 8d4d 993d 65c5 893d
00000250: fe10 e83d 867d 153e baa8 cf3d 1433 f63d
00000260: 22eb 8c3d 8a26 cabd 200e 45be accb 72be
00000270: ae62 0dbe 520a 80be bdba b6bd 102b d3bd
00000280: cf68 8dbe a328 82be 6808 76be 169a 68be
00000290: cccd 1cbe 9dc2 8dbe 8d5c 7fbe 8319 eebd
000002a0: 2c46 50be 0449 58be 7e91 84be 1421 593e
000002b0: 5e0c 333e 0812 fe3d 1bad ca3d 0e36 433e
000002c0: c5f8 493e ea83 5d3e 86d3 4c3e 52a8 193e
000002d0: 99f4 a53d 6a7c 733e 2a14 2a3e b4e0 be3d
000002e0: 6596 863e 9d7d 6a3e 0b44 a33d 9976 e43d
000002f0: cc55 043e 96ae 6cbe 01bc ebbd 192b 7cbe
00000300: 4d84 82bd 3a07 5abe efad cfbd 1220 27be
00000310: d309 5dbe cc0a bebd 777e a83d 23bb dd3d
00000320: 61b3 383e 00a9 823e 10a1 f43d 9b8f cb3d
00000330: f9d9 c43d 70cd f13d acc2 033e 2a8b 103e
00000340: fba2 d43d 069b 4e3e 0bf8 2b3e 8569 c13d
00000350: 0f24 d43d 3723 433e 666b 293e 2292 7b3e
00000360: 96cc 193e 71c0 9d3d bcca ad3d 9ba6 093e
00000370: 26d9 113e 3408 383e cb87 113e 5a07 553e
00000380: ef34 053e ad8d 7e3e d82d 453e 0011 083e
00000390: e838 883e b117 483e 6f72 bb3d 6a72 d73d
000003a0: d862 723e ad02 5f3e fbec 813e 4446 223e
000003b0: c897 7a3e 0e95 633e 7333 4e3e 56ae 103e
000003c0: f158 8c3e f409 423e 7ca8 0d3e c198 2cbe
000003d0: 1e85 6cbd cf1e bdbd 1e69 33be 92bd 6dbd
000003e0: c407 f2bd 628e 67be 2543 89be 7cb7 d1bd
000003f0: 469d 80bd 3a4d 6dbe cd8f f8bd 062b 26be
0.24758059 0.2745389 0.19990766 0.22115932 0.15855536 0.10252814 0.0586263 0.23515762
0.15133743 -0.121123515 -0.16130742 -0.27048135 -0.22128601 -0.13551876 -0.18926841 -0.2740695
-0.12781341 -0.16251573 -0.19705181 -0.116457984 -0.13788606 -0.202313 -0.0615197 -0.10559455
-0.14737451 -0.18266661 -0.2554441 0.2546678 0.14021042 0.097078815 0.24012071 0.20834294
0.19637838 0.14685063 0.13420743 0.18773742 -0.07425222 -0.14432389 -0.21277416 -0.04985899
-0.15785915 -0.07240023 -0.13315552 -0.060640357 -0.09612733 -0.2191886 -0.08449057 -0.1618264
-0.25173193 -0.18582404 -0.2628314 -0.22010805 -0.24125627 -0.08654655 -0.18556623 -0.1814206
-0.10897705 -0.117004156 -0.23555292 -0.12127493 -0.11502061 -0.25056863 -0.06561911 -0.22999477
-0.2058359 -0.25390646 -0.060832698 -0.14122829 -0.06882641 -0.15513018 -0.10199209 -0.19786201
-0.25556225 -0.14908385 -0.17682794 -0.17814134 -0.22149038 -0.16462052 -0.13501388 -0.12684008
-0.25642875 0.22072321 0.17846915 0.24367863 0.24556674 0.07954143 0.2737454 0.05777073
0.230917 0.17486365 -0.114263654 -0.22692797 -0.10004402 -0.2218239 -0.26505357 -0.12961774
-0.106025524 -0.056703635 -0.17845674 0.27407506 0.23857051 0.11208142 0.081483565 0.22950669
0.10631339 0.21815455 0.072028786 0.24825177 0.20038615 0.15431052 0.21804285 0.08797901
0.14279452 0.16817346 0.102881216 0.13869283 0.11916697 0.27307236 0.2615723 0.26301062
0.25799462 0.060767584 0.20434639 0.20813376 0.085681826 0.21221733 0.10690519 0.18486445
0.20399916 0.26307315 0.10890539 0.07977649 0.2700024 0.21383679 0.22120118 0.20718688
0.12786183 0.23402955 0.07018699 0.18265352 0.21741743 0.24310684 0.111705154 0.092091955
0.20884301 0.07895483 0.07485495 0.06727103 0.11331366 0.14598665 0.10139604 0.12021461
0.068807855 -0.09870632 -0.1924367 -0.23710507 -0.13807175 -0.25007874 -0.08922336 -0.10310948
-0.27619025 -0.25421628 -0.24026644 -0.22715029 -0.1531288 -0.2768754 -0.24937649 -0.1162596
-0.20339268 -0.21121603 -0.25892252 0.21204025 0.17485186 0.12405783 0.098962985 0.19063589
0.19723804 0.21632352 0.20002565 0.15005615 0.08103294 0.23777929 0.16609254 0.093202025
0.26286617 0.2289948 0.079719625 0.11155433 0.12923354 -0.23113474 -0.11510468 -0.24625815
-0.063728906 -0.21291819 -0.10140597 -0.16320828 -0.21585779 -0.09279403 0.08227246 0.10826709
0.18037178 0.25519562 0.11944783 0.099395 0.096118875 0.11806762 0.1286723 0.14115587
0.103826486 0.20176324 0.1679384 0.094439544 0.1035844 0.19056402 0.16544876 0.24567464
0.1501945 0.07702721 0.08485934 0.13442461 0.14242992 0.17971879 0.14211957 0.20803586
0.13008474 0.24858733 0.19255769 0.13287735 0.26605916 0.19540288 0.09152686 0.105198696
0.23670518 0.21778364 0.25376114 0.15847117 0.24471962 0.22224829 0.20136814 0.14129004
0.27411607 0.1894911 0.13833803 -0.16855146 -0.057744138 -0.09234392 -0.17520568 -0.058042116
-0.118178874 -0.22612908 -0.2680904 -0.10240075 -0.062799975 -0.23173991 -0.12136803 -0.1622735

model.cell_list.0.conv_cc.bias f4 [4]
00000000: efdf 5bbe 8e3b 7b3e 3fa7 833e c47e 7abe
-0.21472143 0.24534437 0.25713536 -0.2446242

model.cell_list.0.conv_ll.weight f4 [3, 1, 3, 3]
00000000: 220b a4be d2a0 01be 2c46 f6be 28ca 83bd
00000010: 6c78 9cbe 6207 a1be 304c d9be 88a3 30bc
00000020: de1d c2be cae8 ddbe 5660 82be 6e81 b4be
00000030: bf6a fbbe 5cb6 05bd 906d 96be 1d34 883d
00000040: 598f 8a3d 6457 c2be 90a5 dfbc 6a7e 473d
00000050: 227c b93e 5048 1f3e de5e 443d a43d bf3e
00000060: 015e f73e 88b0 d33e 82f9 b3bd
-0.32039744 -0.12659004 -0.48100412 -0.064350426 -0.30560625 -0.31450945 -0.4244094 -0.010781176
-0.37913412 -0.43341666 -0.25464123 -0.35254997 -0.49104878 -0.032644615 -0.29380465 0.06650565
0.06765623 -0.379573 -0.027300626 0.048704542 0.36227518 0.15554929 0.047942035 0.37351716
0.48313907 0.4134562 -0.08787824

model.cell_list.1.conv_cc.weight f4 [4, 2, 3, 3]
00000000: e6cd f13d 2a79 f93d 1e81 bc3e 26cc 383d
00000010: f0ce 023d face 2e3e 09ee e53d 0b32 833e
00000020: b55e 483e 38df d63c ce3b ad3e 209a a03e
00000030: 4ad1 5f3e b8fc 3dbd f730 8e3e 2cab a53e
00000040: 6428 6e3e b855 9b3d 7938 3b3e 41a0 9c3d
00000050: 8621 c73e fd0b ca3e 22e8 0e3e 705c 0a3c
00000060: bd81 9c3e 021c 933e 707c 953e 986a 2abc
00000070: 4acd 7c3e a9eb 873d 52bb 24bd a030 1b3b
00000080: 15a3 883e f4a8 823e 8c7d 23bd 2bea 993e
00000090: 68e6 5c3c f06f 413c 4467 0bbd 6c05 51be
000000a0: 3880 16bc 9894 8e3c 7444 35bd 825d acbe
000000b0: 6c5e 7fbe c829 a43c 1015 553c 5876 85bc
000000c0: 96c8 87be 497d 5abe 7740 afbe 9f1e 9abe
000000d0: 4064 693c 4165 b8be ffc6 de3d 8144 5e3e
000000e0: 98ba d13c ac4b 633e 2c3c 043e a7c7 853e
000000f0: e0e2 62bc da57 4c3e 0c13 44bd 1759 a03e
00000100: 2fb4 ca3e d99f a93d fea5 4e3e 7c6e 3a3d
00000110: b084 843c 1ce2 423d 40e7 5f3d 1bc6 583e
0.1180685 0.12181313 0.3681726 0.045116566 0.031935632 0.17071143 0.11227042 0.25624117
0.19567378 0.026229486 0.3383469 0.31367588 0.21857181 -0.04638359 0.27771732 0.32357156
0.23257595 0.07584709 0.18283261 0.076477535 0.38892764 0.3946227 0.13955739 0.00844489
0.30567732 0.28732306 0.291965 -0.0104013905 0.24687687 0.066367455 -0.040217705 0.0023680106
0.26686922 0.25519526 -0.039914653 0.30061468 0.0134826675 0.011806473 -0.03403403 -0.20412225
-0.009185843 0.01740484 -0.044254735 -0.3366509 -0.24938363 0.020039454 0.01300551 -0.016291782
-0.26520222 -0.21336855 -0.3422887 -0.30101487 0.014245093 -0.3601475 0.10877799 0.2170582
0.02560167 0.22196835 0.12913579 0.26128885 -0.0138480365 0.19955388 -0.047869727 0.3131797
0.39590594 0.08282442 0.20180508 0.045515522 0.016176552 0.047578916 0.054663897 0.21169321

model.cell_list.1.conv_cc.bias f4 [4]
00000000: 9d54 46be c6b8 19be c883 81bc 6422 a1be
-0.19368215 -0.15011892 -0.015809909 -0.3147155

model.cell_list.1.conv_ll.weight f4 [3, 1, 3, 3]
00000000: 6f17 f9bd 63c1 94bd 5a65 e43e 34e2 943e
00000010: 6793 1abe 91f7 e33d f058 463e aba6 b03e
00000020: 32c3 f33e b05f 7d3e d6b2 cd3e 5cf4 453d
00000030: 1ccc 1f3e d867 0cbd 4b95 793e 8602 f33e
00000040: 6ca6 c03e 604d ff3e 182d 893c 543d 003e
00000050: 245b 713e 70af de3e d4d1 0ebe 2030 543b
00000060: 4276 5c3e 78c0 d2bc 743a 953e
-0.12162673 -0.07263448 0.44608575 0.2907883 -0.15095292 0.11131204 0.19369864 0.34502158
0.4760986 0.24743533 0.40175503 0.048328742 0.15605205 -0.03427872 0.24373357 0.47462863
0.3762697 0.4986372 0.016745135 0.12523395 0.23569924 0.43493223 -0.1394723 0.0032377318
0.21529487 -0.025726542 0.2914616

model.cell_list.2.conv_cc.weight f4 [4, 2, 3, 3]
00000000: 25c3 1a3e 0e59 d93d 7254 963e d3da ab3e
00000010: fafd ca3e d141 8c3e da9d 243e e846 b83e
00000020: 85a6 b53e 2c17 92be b41d 75bd 8aef 0ebe
00000030: 5bc3 89be 41b2 64be d435 64be a20e aabe
00000040: a6de 74be 35ff b3bd c232 ae3e 528b 3d3e
00000050: 8e16 7abd ce84 953e ab5b c43d d760 c13e
00000060: e209 78bd 4c7b e53d f031 b33e 0599 85bd
00000070: 42d0 91be 511a bebe aacd 2dbe 53f1 9bbd
00000080: 18cb b9be 3297 babe d83f 2ebe f8b5 5cbe
00000090: 8ea7 a33e 74bc 76bd 9ec9 053e e0b9 6dbc
000000a0: 2e06 093e 1472 433d ba23 783e bcd9 edbc
000000b0: 2c84 8dbc d792 9abe dec8 bfbe 8486 9ebc
000000c0: 2cb8 4ebe 1423 99be e040 43bb f0ef 62be
000000d0: 3266 3dbd 3eff 76be d469 f5bc e643 603e
000000e0: 30c6 a03e 2227 80bd 8061 443e 985c 5b3e
000000f0: 68f5 463e ac48 253e 4c76 c03d e350 b3be
00000100: a6e3 03be a5ad a6be dd56 b9be cabe 78be
00000110: 733d a8be 2d8f c2bd 8008 2a3a e490 823c
0.15113504 0.10612689 0.29361302 0.33565387 0.39646894 0.27393964 0.1607584 0.35991597
0.35478607 -0.28533304 -0.05984278 -0.13958564 -0.26906857 -0.22333623 -0.22286159 -0.3321429
-0.23913059 -0.08788911 0.340231 0.18510178 -0.061056666 0.29202884 0.09587797 0.37769195
-0.0605563 0.11205158 0.34999037 -0.06523327 -0.284792 -0.37129453 -0.16972986 -0.07614388
-0.3628776 -0.36443478 -0.17016542 -0.2155379 0.31963772 -0.060238317 0.13065192 -0.014509648
0.13381264 0.047716215 0.24232379 -0.029034488 -0.017274939 -0.30190155 -0.37457937 -0.019351251
-0.20187443 -0.29909575 -0.0029793307 -0.22161841 -0.04624004 -0.24120805 -0.02995769 0.21900901
0.31401205 -0.06257464 0.19177818 0.2142204 0.19429553 0.16141003 0.09397563 -0.3502265
-0.1287981 -0.32554355 -0.36199084 -0.2429153 -0.32859382 -0.09499965 0.0006486252 0.01593823

model.cell_list.2.conv_cc.bias f4 [4]
00000000: 8400 a1be b216 23bd d048 e4bb 90f6 29be
-0.31445706 -0.039816566 -0.0069666877 -0.16597962

model.cell_list.2.conv_ll.weight f4 [3, 1, 3, 3]
00000000: c4ef d9bc 9026 af3c f6d8 b33d d843 363c
00000010: 0067 ccbc 5666 96be cac6 b4be 0b8d a6be
00000020: 7d31 db3d 94e9 7dbe ea07 1fbe e4c7 f4be
00000030: bc66 3abe c5c3 85be 85bd c3be ae38 ba3d
00000040: 1acb dfbe 6608 5cbe 277e 43be 9226 f0be
00000050: f455 0c3d 18f3 8bbe f494 8fbc 7cb5 993c
00000060: 54b1 013e 93b9 adbd 92eb a93d
-0.026603587 0.021380693 0.087816164 0.011124574 -0.024951458 -0.2937495 -0.35307914 -0.32529482
0.107027985 -0.24796134 -0.15530363 -0.47808754 -0.18203253 -0.26125923 -0.3823053 0.09092842
-0.43709642 -0.21487579 -0.19091092 -0.46904427 0.03426166 -0.27333903 -0.017527081 0.018763296
0.12665302 -0.08482661 0.082968846

exp_avg f4 [4, 9, 3, 3]
00000000: 9c57 44ba 0b42 43ba 4e09 41ba 140a 47ba
00000010: 95d5 45ba 4c8f 43ba 5a89 47ba ae6e 47ba
00000020: 3ec7 44ba 4497 8e38 9d68 8f38 c4a8 9038
00000030: 8744 8f38 14c0 8f38 e4ce 9038 ba2b 8f38
00000040: c3b5 8f38 4fc6 9038 82ae a938 7cb6 a938
00000050: 59b8 a938 4c6c a938 e877 a938 877d a938
00000060: 8822 a938 da30 a938 463a a938 365f 0ab6
00000070: 8c5b 0ab6 c957 0ab6 135c 0ab6 5f58 0ab6
00000080: 8f54 0ab6 3b59 0ab6 7b55 0ab6 a151 0ab6
00000090: c7b4 9438 e9b4 9438 13b5 9438 e4b4 9438
000000a0: 0db5 9438 35b5 9438 13b5 9438 36b5 9438
000000b0: 5ab5 9438 c2ee 1039 f6ee 1039 34ef 1039
000000c0: baee 1039 e6ee 1039 25ef 1039 abee 1039
000000d0: dfee 1039 12ef 1039 4e15 ea38 f615 ea38
000000e0: b016 ea38 5915 ea38 1316 ea38 c916 ea38
000000f0: 7a15 ea38 2016 ea38 de16 ea38 4ca1 2139
00000100: 9da1 2139 fba1 2139 8ca1 2139 dba1 2139
00000110: 31a2 2139 c3a1 2139 12a2 2139 6ea2 2139
00000120: 84d8 0239 b36d 0239 55dc 0039 4e0e 0639
00000130: 2355 0539 0835 0339 2d1c 0739 f50f 0739
00000140: c483 0439 482d 93bb 32dc 92bb 6f42 92bb
00000150: b5da 93bb 9077 93bb 2ad7 92bb eff4 93bb
00000160: c0ee 93bb 7643 93bb 4859 f338 0f3e f438
00000170: 05b8 f438 4dfd f338 4bda f438 9845 f538
00000180: 5399 f438 2b64 f538 33c8 f538 c27f a0ba
00000190: f481 a0ba 1385 a0ba 2589 a0ba e78a a0ba
000001a0: 848d a0ba 7a93 a0ba ed94 a0ba 0d97 a0ba
000001b0: e562 ddb7 e05f ddb7 cb5c ddb7 0962 ddb7
000001c0: ff5e ddb7 e55b ddb7 3861 ddb7 2a5e ddb7
000001d0: 0b5b ddb7 db30 b4ba d530 b4ba d030 b4ba
000001e0: d430 b4ba cd30 b4ba c630 b4ba c930 b4ba
000001f0: c530 b4ba c030 b4ba 048a cbba 1e8a cbba
00000200: 358a cbba 218a cbba 3c8a cbba 508a cbba
00000210: 3c8a cbba 568a cbba 6a8a cbba bdaa b5ba
00000220: 8daa b5ba 5faa b5ba daaa b5ba adaa b5ba
00000230: 7caa b5ba f6aa b5ba c8aa b5ba 96aa b5ba
00000240: 206b ecba 3f6b ecba 616b ecba 206b ecba
00000250: 3f6b ecba 616b ecba 1b6b ecba 3f6b ecba
00000260: 5c6b ecba ea0f 893a c3fb 883a edae 883a
00000270: 8fd9 893a 058f 893a 6211 893a cb2e 8a3a
00000280: 5303 8a3a bd46 893a c923 b43b d6a0 b33b
00000290: 2cf6 b13b c6d2 b53b 9d20 b53b 976f b33b
000002a0: 4fd1 b53b f8d2 b53b 97e5 b33b dc03 29ba
000002b0: 42a2 29ba 998d 29ba 8975 29ba 2043 2aba
000002c0: 6e3c 2aba 9623 2aba 62e6 2aba 48d3 2aba
000002d0: 95ac 0bba 2db4 0bba 79b7 0bba ba75 0bba
000002e0: e37f 0bba 0b86 0bba 8839 0bba 9545 0bba
000002f0: 624e 0bba 81a5 0738 2da3 0738 c9a0 0738
00000300: 21a4 0738 cba1 0738 619f 0738 dca2 0738
00000310: 80a0 0738 119e 0738 61ed f2b9 8eed f2b9
00000320: c7ed f2b9 b0ed f2b9 dded f2b9 01ee f2b9
00000330: e6ed f2b9 13ee f2b9 42ee f2b9 995b 6fba
00000340: fb5b 6fba 675c 6fba 805b 6fba ea5b 6fba
00000350: 655c 6fba 7e5b 6fba d15b 6fba 4d5c 6fba
00000360: 6d76 40ba 1477 40ba a177 40ba 8a76 40ba
00000370: 2577 40ba bc77 40ba 8f76 40ba 3077 40ba
00000380: c877 40ba 3b4f 86ba 9b4f 86ba fb4f 86ba
00000390: 744f 86ba d04f 86ba 2f50 86ba a34f 86ba
000003a0: 0550 86ba 6350 86ba 1d94 4eba 1d71 4eba
000003b0: 47b4 4bba 3d75 53ba 4cf8 52ba c9ab 4fba
000003c0: dec7 54ba 6e17 55ba 6837 51ba 06ef 863c
000003d0: 4cee 863c 50fe 863c 9b99 863c ad9a 863c
000003e0: c9c2 863c 6083 863c 9b82 863c edc4 863c
000003f0: 2498 7038 954a 7138 b48d 7338 554b 6f38
-0.00074898615 -0.0007448501 -0.0007363752 -0.00075927493 -0.000754678 -0.00074600126 -0.00076117145 -0.000760774
-0.0007506496 6.799263e-05 6.838257e-05 6.89789e-05 6.8315356e-05 6.854549e-05 6.9049915e-05 6.826916e-05
6.852627e-05 6.903393e-05 8.0910526e-05 8.092538e-05 8.0928854e-05 8.07872e-05 8.080882e-05 8.081929e-05
8.06498e-05 8.067647e-05 8.069402e-05 -2.0619023e-06 -2.061689e-06 -2.06147e-06 -2.0617197e-06 -2.0615041e-06
-2.0612822e-06 -2.0615541e-06 -2.0613359e-06 -2.0611117e-06 7.090862e-05 7.090887e-05 7.090918e-05 7.0908834e-05
7.090913e-05 7.0909424e-05 7.090918e-05 7.090943e-05 7.090969e-05 0.00013821854 0.0001382193 0.0001382202
0.00013821843 0.00013821907 0.00013821998 0.00013821821 0.00013821897 0.00013821971 0.00011161958 0.0001116208
0.000111622154 0.00011161966 0.00011162101 0.000111622336 0.0001116199 0.000111621106 0.00011162249 0.00015414244
0.00015414362 0.00015414499 0.00015414337 0.00015414452 0.00015414578 0.00015414417 0.00015414532 0.00015414666
0.00012478424 0.00012438632 0.00012289111 0.00012784565 0.00012715584 0.00012512889 0.000128851 0.00012880548
0.00012637587 -0.004491482 -0.0044818157 -0.004463486 -0.004512156 -0.004500337 -0.004481216 -0.0045152823
-0.004514545 -0.004494126 0.00011603773 0.00011646386 0.00011669103 0.00011634324 0.00011675487 0.00011695473
0.000116633855 0.00011701168 0.000117198004 -0.0012245106 -0.001224576 -0.001224669 -0.0012247904 -0.0012248427
-0.0012249206 -0.0012250983 -0.0012251415 -0.0012252048 -2.6391304e-05 -2.6389898e-05 -2.6388463e-05 -2.6390904e-05
-2.6389489e-05 -2.6388045e-05 -2.6390524e-05 -2.6389102e-05 -2.6387648e-05 -0.001374747 -0.0013747463 -0.0013747457
-0.0013747462 -0.0013747454 -0.0013747446 -0.0013747449 -0.0013747445 -0.0013747439 -0.0015528803 -0.0015528833
-0.001552886 -0.0015528837 -0.0015528868 -0.0015528891 -0.0015528868 -0.0015528898 -0.0015528922 -0.0013860088
-0.0013860032 -0.0013859979 -0.0013860122 -0.001386007 -0.0013860012 -0.0013860154 -0.0013860101 -0.0013860043
-0.0018037297 -0.0018037333 -0.0018037373 -0.0018037297 -0.0018037333 -0.0018037373 -0.0018037291 -0.0018037333
-0.0018037367 0.0010457013 0.0010451007 0.0010428109 0.0010517108 0.0010494894 0.0010457451 0.001054251
0.0010529555 0.0010473352 0.00549743 0.0054818196 0.0054309573 0.005548808 0.0055275694 0.005475949
0.005548633 0.005548831 0.0054900157 -0.00064474135 -0.00064710167 -0.0006467938 -0.00064643525 -0.0006494988
-0.000649399 -0.0006490288 -0.0006519315 -0.0006516469 -0.0005328146 -0.00053292775 -0.0005329769 -0.0005319972
-0.0005321486 -0.0005322403 -0.0005311002 -0.0005312798 -0.0005314109 3.2340646e-05 3.2338477e-05 3.233625e-05
3.2339365e-05 3.233719e-05 3.233494e-05 3.2338183e-05 3.2335985e-05 3.233372e-05 -0.00046334698 -0.0004633483
-0.00046334995 -0.00046334928 -0.0004633506 -0.00046335164 -0.00046335085 -0.00046335216 -0.00046335353 -0.00091307756
-0.00091308326 -0.00091308955 -0.0009130761 -0.0009130823 -0.00091308943 -0.000913076 -0.0009130808 -0.00091308804
-0.00073418656 -0.0007341963 -0.0007342045 -0.00073418824 -0.00073419727 -0.00073420606 -0.00073418854 -0.0007341979
-0.00073420675 -0.0010247001 -0.0010247113 -0.0010247225 -0.0010247068 -0.0010247175 -0.0010247285 -0.0010247122
-0.0010247236 -0.0010247346 -0.0007880347 -0.00078751316 -0.0007770699 -0.0008066481 -0.00080478634 -0.00079220213
-0.0008116941 -0.00081287965 -0.00079809735 0.016471397 0.01647105 0.016478688 0.016430667 0.016431177
0.016450303 0.016420066 0.0164197 0.016451323 5.736215e-05 5.7528337e-05 5.8067686e-05 5.70522e-05

exp_avg_sq f4 [4, 9, 3, 3]
00000000: dd77 9233 94d6 9033 ef89 8d33 678c 9633
00000010: 2bb8 9433 914c 9133 bb4d 9733 8d24 9733
00000020: 2f1e 9333 3ccf 1d30 bb9b 1f30 6564 2230
00000030: b54c 1f30 f95c 2030 71b9 2230 cb17 1f30
00000040: d048 2030 37a9 2230 0665 8430 8a70 8430
00000050: 5b73 8430 9006 8430 3e17 8430 671f 8430
00000060: 899d 8330 09b2 8330 98bf 8330 724d 0b2b
00000070: f045 0b2b 3b3e 0b2b ef46 0b2b 583f 0b2b
00000080: 8837 0b2b 0341 0b2b 5539 0b2b 7131 0b2b
00000090: 62ea 5230 baea 5230 24eb 5230 afea 5230
000000a0: 15eb 5230 7beb 5230 24eb 5230 7beb 5230
000000b0: d7eb 5230 70da 3931 f1da 3931 87db 3931
000000c0: 60da 3931 ccda 3931 67db 3931 3dda 3931
000000d0: bdda 3931 3bdb 3931 23e4 f430 66e5 f430
000000e0: cfe6 f430 39e4 f430 9de5 f430 00e7 f430
000000f0: 77e4 f430 b8e5 f430 26e7 f430 204c 6831
00000100: 034d 6831 054e 6831 cf4c 6831 ad4d 6831
00000110: 984e 6831 644d 6831 414e 6831 3d4f 6831
00000120: 744d 0431 0776 0331 d152 0031 97dd 0a31
00000130: 7b5f 0931 9408 0531 360e 0d31 b7f4 0c31
00000140: dfb1 0731 c2c8 2636 1411 2636 f2b5 2436
00000150: fc52 2836 6e71 2736 d905 2636 a58e 2836
00000160: 9580 2836 09fb 2636 7158 e530 ba07 e730
00000170: 45ed e730 da8d e630 892f e830 e1f9 e830
00000180: beb3 e730 0634 e930 3df1 e930 a17c 4534
00000190: 0a82 4534 b989 4534 cc93 4534 2198 4534
000001a0: 909e 4534 4dad 4534 e1b0 4534 1fb6 4534
000001b0: eb6b bc2e c966 bc2e 8861 bc2e 746a bc2e
000001c0: 4765 bc2e fe5f bc2e 1169 bc2e de63 bc2e
000001d0: 8c5e bc2e a2fc 7834 90fc 7834 80fc 7834
000001e0: 8cfc 7834 78fc 7834 67fc 7834 70fc 7834
000001f0: 63fc 7834 57fc 7834 b5c4 9e34 dec4 9e34
00000200: 02c5 9e34 e3c4 9e34 0dc5 9e34 2dc5 9e34
00000210: 0dc5 9e34 36c5 9e34 55c5 9e34 57ff 7c34
00000220: d4fe 7c34 54fe 7c34 a9ff 7c34 2cff 7c34
00000230: a2fe 7c34 fcff 7c34 76ff 7c34 edfe 7c34
00000240: b735 d634 ee35 d634 2c36 d634 b735 d634
00000250: f135 d634 2c36 d634 ac35 d634 ee35 d634
00000260: 2236 d634 51d5 1034 bdaa 1034 a208 1034
00000270: a780 1234 64e2 1134 69d8 1034 0636 1334
00000280: 78d9 1234 3f49 1134 d829 7a36 b0be 7836
00000290: 8726 7436 6ddc 7e36 f8e9 7c36 5936 7836
000002a0: 4fd8 7e36 fbdc 7e36 367d 7936 4932 5c33
000002b0: cbcf 5d33 c599 5d33 e35a 5d33 4675 5f33
000002c0: b363 5f33 7f22 5f33 9822 6133 46f0 6033
000002d0: 2334 1633 7944 1633 954b 1633 30be 1533
000002e0: 01d4 1533 3fe1 1533 f23c 1533 cd56 1533
000002f0: ac69 1533 3cde 0d2f 60d9 0d2f 5fd4 0d2f
00000300: 5ddb 0d2f 78d6 0d2f 6dd1 0d2f b5d8 0d2f
00000310: c6d3 0d2f afce 0d2f 921e e332 e61e e332
00000320: 551f e332 261f e332 7a1f e332 bd1f e332
00000330: 8d1f e332 e01f e332 3920 e332 099d dc33
00000340: b99d dc33 839e dc33 db9c dc33 9c9d dc33
00000350: 7e9e dc33 d69c dc33 6e9d dc33 549e dc33
00000360: 13a0 8e33 0aa1 8e33 dca1 8e33 3ea0 8e33
00000370: 24a1 8e33 04a2 8e33 46a0 8e33 33a1 8e33
00000380: 15a2 8e33 e2eb 0a34 a9ec 0a34 71ed 0a34
00000390: 59ec 0a34 17ed 0a34 dded 0a34 baec 0a34
000003a0: 86ed 0a34 48ee 0a34 e778 a433 3141 a433
000003b0: 58ed 9f33 7355 ac33 088a ab33 6a37 a633
000003c0: 227f ae33 b801 af33 14b3 a833 3e7d 0c38
000003d0: b97b 0c38 049d 0c38 abcb 0b38 eecd 0b38
000003e0: 3521 0c38 8d9d 0b38 f89b 0b38 a825 0c38
000003f0: 5d18 df2f 7663 e02f 789d e42f c2b0 dc2f
6.820458e-08 6.744554e-08 6.590914e-08 7.010458e-08 6.925287e-08 6.766016e-08 7.0456245e-08 7.038134e-08
6.850711e-08 5.7410765e-10 5.806517e-10 5.9077926e-10 5.795287e-10 5.8339783e-10 5.9198785e-10 5.7877675e-10
5.8311134e-10 5.9175725e-10 9.632977e-10 9.63625e-10 9.63705e-10 9.606129e-10 9.61087e-10 9.613189e-10
9.576279e-10 9.582105e-10 9.585959e-10 4.9490197e-13 4.947978e-13 4.946908e-13 4.948116e-13 4.9470627e-13
4.9459785e-13 4.947294e-13 4.9462284e-13 4.9451334e-13 7.6730633e-10 7.673112e-10 7.673171e-10 7.673106e-10
7.6731627e-10 7.6732193e-10 7.673171e-10 7.6732193e-10 7.6732704e-10 2.704521e-09 2.7045497e-09 2.704583e-09
2.7045175e-09 2.7045415e-09 2.704576e-09 2.7045097e-09 2.7045381e-09 2.7045661e-09 1.7818177e-09 1.7818536e-09
1.7818936e-09 1.7818201e-09 1.7818597e-09 1.7818991e-09 1.781827e-09 1.7818627e-09 1.7819033e-09 3.3803715e-09
3.380422e-09 3.3804792e-09 3.3804104e-09 3.3804597e-09 3.3805119e-09 3.3804435e-09 3.3804926e-09 3.3805485e-09
1.9252555e-09 1.91301e-09 1.8673527e-09 2.0207602e-09 1.9990398e-09 1.9358923e-09 2.0526278e-09 2.0511786e-09
1.9746194e-09 2.4852784e-06 2.4745868e-06 2.454381e-06 2.5082254e-06 2.4950964e-06 2.4739331e-06 2.511698e-06
2.5108795e-06 2.488205e-06 1.668708e-09 1.6809658e-09 1.6874898e-09 1.6775019e-09 1.6893732e-09 1.6951242e-09
1.6858548e-09 1.6967767e-09 1.7021545e-09 1.8392394e-07 1.8394363e-07 1.8397158e-07 1.8400823e-07 1.8402399e-07
1.840474e-07 1.8410101e-07 1.8411403e-07 1.841331e-07 8.56842e-11 8.5675085e-11 8.566575e-11 8.56816e-11
8.567241e-11 8.566302e-11 8.567914e-11 8.56699e-11 8.566045e-11 2.3188707e-07 2.3188682e-07 2.3188659e-07
2.3188676e-07 2.3188647e-07 2.3188623e-07 2.3188636e-07 2.3188618e-07 2.31886e-07 2.9572917e-07 2.9573033e-07
2.9573135e-07 2.9573047e-07 2.9573167e-07 2.9573258e-07 2.9573167e-07 2.9573283e-07 2.957337e-07 2.3562221e-07
2.3562035e-07 2.3561853e-07 2.3562338e-07 2.356216e-07 2.3561964e-07 2.3562455e-07 2.3562265e-07 2.356207e-07
3.989969e-07 3.9899845e-07 3.990002e-07 3.989969e-07 3.9899854e-07 3.990002e-07 3.9899658e-07 3.9899845e-07
3.9899993e-07 1.3488649e-07 1.347316e-07 1.3414186e-07 1.3644113e-07 1.3586538e-07 1.3489775e-07 1.3710095e-07
1.3676424e-07 1.3530824e-07 3.727726e-06 3.7065874e-06 3.638126e-06 3.7977254e-06 3.7687114e-06 3.6986514e-06
3.7974858e-06 3.7977577e-06 3.7176774e-06 5.1268476e-08 5.164456e-08 5.1595425e-08 5.1538233e-08 5.2027893e-08
5.201191e-08 5.1952608e-08 5.2418358e-08 5.237259e-08 3.4972015e-08 3.4986872e-08 3.4993338e-08 3.486474e-08
3.4884582e-08 3.4896626e-08 3.4747195e-08 3.477071e-08 3.4787874e-08 1.2902829e-10 1.2901102e-10 1.2899325e-10
1.2901809e-10 1.290007e-10 1.2898278e-10 1.2900865e-10 1.2899112e-10 1.2897304e-10 2.644018e-08 2.6440329e-08
2.6440526e-08 2.6440443e-08 2.6440592e-08 2.6440711e-08 2.6440626e-08 2.6440773e-08 2.6440931e-08 1.0273113e-07
1.0273238e-07 1.02733814e-07 1.027308e-07 1.0273217e-07 1.0273378e-07 1.02730766e-07 1.02731846e-07 1.0273348e-07
6.6415076e-08 6.641683e-08 6.641832e-08 6.641538e-08 6.6417016e-08 6.641861e-08 6.641544e-08 6.641712e-08
6.641873e-08 1.2938065e-07 1.2938348e-07 1.2938632e-07 1.2938234e-07 1.2938504e-07 1.2938786e-07 1.2938372e-07
1.2938662e-07 1.2938938e-07 7.658837e-08 7.6487034e-08 7.447187e-08 8.024917e-08 7.987916e-08 7.740057e-08
8.125632e-08 8.149385e-08 7.855684e-08 3.3495242e-05 3.3493827e-05 3.3524833e-05 3.3329863e-05 3.333197e-05
3.3409528e-05 3.3286913e-05 3.328544e-05 3.341367e-05 4.0580775e-10 4.0816034e-10 4.1584847e-10 4.014336e-10

exp_avg f4 [4]
00000000: 397d 1839 619e 15bb d0a7 7bba 39ea 643c
0.00014542499 -0.0022829997 -0.0009599896 0.013971859

exp_avg_sq f4 [4]
00000000: b978 5631 37a3 2b35 3bcb f333 297b ca37
3.1209721e-09 6.3939973e-07 1.1352537e-07 2.4137627e-05

exp_avg f4 [3, 1, 3, 3]
00000000: dae1 843a 61a1 843a c1eb 833a 49fe 853a
00000010: 52a9 853a 1ab3 843a e465 863a 4a76 863a
00000020: 396b 853a 7548 e03b 2417 e03b 96c6 df3b
00000030: 9036 e13b 18cd e03b 2b34 e03b e6ea e13b
00000040: e0b8 e13b cae9 e03b 7523 f1bc a83f f1bc
00000050: 0c6a f1bc e074 f0bc 6a9d f0bc 7dee f0bc
00000060: 9ef9 efbc fd0c f0bc 7b79 f0bc
0.001013811 0.0010118895 0.0010064767 0.0010222878 0.0010197556 0.0010124177 0.0010253754 0.0010258642
0.001017905 0.006844575 0.006838696 0.006829093 0.0068729594 0.0068603866 0.0068421564 0.006894457
0.006888494 0.0068638073 -0.029435853 -0.029449299 -0.029469512 -0.029352605 -0.029371936 -0.029410595
-0.029293831 -0.029303068 -0.029354801

exp_avg_sq f4 [3, 1, 3, 3]
00000000: 4b4a 0934 a4c5 0834 9f51 0734 0996 0b34
00000010: 01e6 0a34 3fea 0834 536d 0c34 638f 0c34
00000020: 9365 0a34 6902 c236 21ad c136 0822 c136
00000030: 0e9f c336 0ee8 c236 50df c136 b8d8 c436
00000040: 9b81 c436 cd19 c336 1cfe df38 8832 e038
00000050: 6181 e038 1fba de38 4205 df38 b79b df38
00000060: f5d5 dd38 c9f9 dd38 acc2 de38
1.2786147e-07 1.2737888e-07 1.2602548e-07 1.2999966e-07 1.2935926e-07 1.2751205e-07 1.3078288e-07 1.309068e-07
1.2889204e-07 5.781931e-06 5.772003e-06 5.75581e-06 5.8299693e-06 5.8086653e-06 5.777845e-06 5.8664846e-06
5.8563433e-06 5.8144565e-06 0.000106808 0.000106905645 0.00010705251 0.00010620453 0.00010634448 0.00010662473
0.00010577954 0.00010584627 0.000106220454

exp_avg f4 [4, 2, 3, 3]
00000000: 47e5 f9bb 8930 fabb 9470 fabb 938a f9bb
00000010: 77bf f9bb 0019 fabb af63 f9bb 4860 f9bb
00000020: e3a9 f9bb de02 79bb 0313 79bb 241b 79bb
00000030: 2ddb 78bb 03f4 78bb 2e0a 79bb fbad 78bb
00000040: 07bc 78bb 1bdf 78bb 9749 c4bb ae82 c4bb
00000050: 88b0 c4bb 9aff c3bb ba29 c4bb f86e c4bb
00000060: 53e1 c3bb 97dd c3bb 3318 c4bb ff8b 44bb
00000070: 5a96 44bb 009b 44bb d76c 44bb b37f 44bb
00000080: ff8e 44bb f747 44bb 4a53 44bb 696e 44bb
00000090: 9b59 073d 1c74 073d ee9d 073d e13c 073d
000000a0: 0247 073d 1f72 073d 283f 073d 8532 073d
000000b0: 0a51 073d 1a05 883c 6d0c 883c 4316 883c
000000c0: b5f0 873c 24f7 873c 3605 883c 57e2 873c
000000d0: 53e1 873c d3f0 873c 5caf 02bc ffd3 02bc
000000e0: f0ee 02bc 6f80 02bc a69a 02bc e5c2 02bc
000000f0: 126b 02bc 6f6a 02bc 158b 02bc c577 82bb
00000100: 107f 82bb 0082 82bb 3763 82bb 746f 82bb
00000110: 5f79 82bb 204c 82bb 5d53 82bb b963 82bb
-0.007626209 -0.0076351804 -0.007642815 -0.0076153963 -0.0076217013 -0.0076323748 -0.00761076 -0.0076103546
-0.007619129 -0.0037996094 -0.0038005717 -0.0038010562 -0.0037972436 -0.003798724 -0.0038000452 -0.0037945497
-0.003795387 -0.0037974778 -0.005990218 -0.0059970235 -0.0060024895 -0.005981398 -0.0059864195 -0.005994674
-0.0059777885 -0.0059773433 -0.00598433 -0.002999067 -0.0029996843 -0.0029999614 -0.00299721 -0.0029983341
-0.002999246 -0.002995012 -0.002995687 -0.0029973036 0.03304444 0.033069715 0.033109598 0.033017043
0.033026703 0.03306782 0.033019215 0.033007164 0.03303627 0.016603995 0.016607488 0.016612178
0.01659427 0.016597338 0.016604047 0.01658742 0.016586935 0.016594326 -0.007976379 -0.007985114
-0.007991537 -0.007965191 -0.007971441 -0.007981037 -0.007960098 -0.007959946 -0.00796773 -0.003981563
-0.003982432 -0.0039827824 -0.0039791125 -0.0039805714 -0.0039817537 -0.00397636 -0.003977223 -0.003979173

exp_avg_sq f4 [4, 2, 3, 3]
00000000: 408e f036 461f f136 d39a f136 b4df ef36
00000010: 7845 f036 eef1 f036 ef94 ef36 6b8e ef36
00000020: f31b f036 5756 ef35 5875 ef35 f984 ef35
00000030: 1d0a ef35 cd39 ef35 6064 ef35 61b3 ee35
00000040: 57ce ee35 aa11 ef35 7b69 9436 e4bf 9436
00000050: 5d05 9536 a5f9 9336 4e39 9436 0fa2 9436
00000060: eccb 9336 4bc6 9336 d01e 9436 2b1f 9535
00000070: de2e 9535 eb35 9535 f1ef 9435 850c 9535
00000080: b523 9535 14b8 9435 3bc9 9435 51f2 9435
00000090: ddb9 0c39 1ef1 0c39 5d48 0d39 0a7e 0c39
000000a0: 2d93 0c39 08ed 0c39 c882 0c39 8568 0c39
000000b0: 0ca8 0c39 03fa 0f38 6e09 1038 281e 1038
000000c0: 0bcf 0f38 99dc 0f38 3cfa 0f38 ceb0 0f38
000000d0: aaae 0f38 49cf 0f38 6d91 0337 44db 0337
000000e0: 9e11 0437 fa32 0337 bd67 0337 cdb8 0337
000000f0: 0708 0337 c206 0337 6948 0337 006c 0336
00000100: ae7a 0336 9980 0336 a142 0336 415b 0336
00000110: 386f 0336 3314 0336 bf22 0336 a843 0336
7.1691175e-06 7.1860004e-06 7.2003836e-06 7.1487975e-06 7.1606446e-06 7.1807217e-06 7.140093e-06 7.1393347e-06
7.155811e-06 1.7832016e-06 1.7841039e-06 1.7845588e-06 1.7809831e-06 1.782371e-06 1.7836101e-06 1.7784588e-06
1.7792435e-06 1.7812029e-06 4.4230233e-06 4.4330827e-06 4.4411704e-06 4.410004e-06 4.417415e-06 4.42961e-06
4.404681e-06 4.4040257e-06 4.4143308e-06 1.1110436e-06 1.1115005e-06 1.1117057e-06 1.1096691e-06 1.1105009e-06
1.1111757e-06 1.1080433e-06 1.1085425e-06 1.1097383e-06 0.0001342068 0.00013441264 0.00013473765 0.00013398394
0.00013406268 0.00013439741 0.0001340016 0.00013390377 0.00013414043 3.43267e-05 3.4341057e-05 3.436036e-05
3.428668e-05 3.4299304e-05 3.4326906e-05 3.425852e-05 3.4256525e-05 3.4286906e-05 7.842068e-06 7.85926e-06
7.871915e-06 7.820077e-06 7.832362e-06 7.851236e-06 7.8100775e-06 7.809782e-06 7.825068e-06 1.9583385e-06
1.959193e-06 1.9595375e-06 1.9559304e-06 1.9573638e-06 1.958526e-06 1.9532279e-06 1.9540746e-06 1.9559902e-06

exp_avg f4 [4]
00000000: 9203 c33c 2719 9a3c 820a d2bd 778d cb3c
0.023805413 0.018810822 -0.102559105 0.02484773

exp_avg_sq f4 [4]
00000000: d914 9438 6007 3938 e0b7 b53a 447c a138
7.061073e-05 4.4114306e-05 0.0013864003 7.7002245e-05

exp_avg f4 [3, 1, 3, 3]
00000000: 42da f3bb 6de8 f3bb 2aee f3bb 51b6 f3bb
00000010: c7cd f3bb 6ce1 f3bb de8a f3bb 2398 f3bb
00000020: c1b8 f3bb 6283 c0bb 508c c0bb 1c8f c0bb
00000030: 1367 c0bb 0379 c0bb 6e86 c0bb 7443 c0bb
00000040: 3c4e c0bb 9167 c0bb 3d6e ffbb 027b ffbb
00000050: ae7e ffbb e748 ffbb 3660 ffbb ca71 ffbb
00000060: a61c ffbb 6c2a ffbb ff48 ffbb
-0.00744179 -0.007443479 -0.007444163 -0.0074375053 -0.007440302 -0.007442644 -0.0074323257 -0.0074339076
-0.007437796 -0.005875037 -0.0058761016 -0.005876435 -0.0058716624 -0.0058738007 -0.0058754003 -0.005867416
-0.0058687013 -0.005871721 -0.007795124 -0.007796646 -0.007797084 -0.007790673 -0.0077934517 -0.007795547
-0.0077853976 -0.0077870395 -0.0077906842

exp_avg_sq f4 [3, 1, 3, 3]
00000000: ba96 e536 64b1 e536 2fbc e536 2353 e536
00000010: 427f e536 36a4 e536 7901 e536 661a e536
00000020: b757 e536 551b 8f36 9828 8f36 c02c 8f36
00000030: 4cf1 8e36 ee0b 8f36 db1f 8f36 6ebc 8e36
00000040: 6ecc 8e36 08f2 8e36 c4f2 fb36 f00b fc36
00000050: 2d13 fc36 36a9 fb36 21d7 fb36 c5f9 fb36
00000060: 1052 fb36 2f6d fb36 63a9 fb36
6.8422787e-06 6.845383e-06 6.8466393e-06 6.83441e-06 6.8395466e-06 6.8438485e-06 6.8249033e-06 6.827805e-06
6.834943e-06 4.264914e-06 4.266458e-06 4.2669417e-06 4.2600204e-06 4.263121e-06 4.2654406e-06 4.253866e-06
4.2557285e-06 4.260106e-06 7.5086446e-06 7.511575e-06 7.5124176e-06 7.5000817e-06 7.505427e-06 7.50946e-06
7.4899363e-06 7.4930936e-06 7.500102e-06

exp_avg f4 [4, 2, 3, 3]
00000000: 3651 4bbc cc66 4bbc 776d 4bbc 9634 4bbc
00000010: 3048 4bbc cb63 4bbc 9618 4bbc 431c 4bbc
00000020: 5737 4bbc 88e7 153c f7ea 153c 21ee 153c
00000030: e2df 153c bbe3 153c b5e8 153c 13da 153c
00000040: dadb 153c b4e1 153c 32fb 2dbc 920d 2ebc
00000050: 9313 2ebc 4be3 2dbc 71f3 2dbc 0b0b 2ebc
00000060: b7cc 2dbc 1acf 2dbc ace5 2dbc 0762 003c
00000070: ef64 003c a967 003c b05b 003c e45e 003c
00000080: 1b63 003c f856 003c 6758 003c 4c5d 003c
00000090: 9988 a9bd 9499 a9bd 8da0 a9bd ed6f a9bd
000000a0: 9b7d a9bd de94 a9bd 855b a9bd 0b5b a9bd
000000b0: 1f70 a9bd 859d 7a3d f1a2 7a3d f5a8 7a3d
000000c0: 3d91 7a3d d096 7a3d 6f9f 7a3d 3e89 7a3d
000000d0: 3d8b 7a3d c094 7a3d b2df 23bc 93f2 23bc
000000e0: 74f7 23bc 44ca 23bc cedc 23bc 3bf4 23bc
000000f0: 5ab4 23bc c2b9 23bc 28d1 23bc 2bcf f13b
00000100: 46d5 f13b f6d9 f13b 62c3 f13b 4aca f13b
00000110: 3ad2 f13b a5b9 f13b 29bd f13b 8cc6 f13b
-0.012409499 -0.012414645 -0.012416235 -0.012402674 -0.012407348 -0.012413929 -0.012395998 -0.012396875
-0.012403331 0.00914944 0.009150258 0.009151013 0.009147616 0.009148533 0.00914972 0.009146231
0.009146655 0.00914805 -0.010618972 -0.010623353 -0.010624784 -0.010613273 -0.010617123 -0.01062275
-0.01060789 -0.010608459 -0.01061384 0.007835872 0.007836564 0.0078372145 0.00783436 0.007835124
0.007836129 0.007833235 0.007833577 0.007834744 -0.08278007 -0.08281246 -0.08282576 -0.08273301
-0.082759105 -0.08280347 -0.08269409 -0.08269318 -0.082733385 0.06118538 0.06119055 0.061196286
0.061173666 0.061178982 0.061187204 0.06116604 0.061167944 0.061177015 -0.010002064 -0.010006565
-0.010007728 -0.009996954 -0.010001374 -0.01000696 -0.00999173 -0.009993019 -0.009998597 0.0073794327
0.0073801605 0.0073807193 0.007378028 0.007378851 0.0073797973 0.007376867 0.007377286 0.007378405

exp_avg_sq f4 [4, 2, 3, 3]
00000000: 7b62 9e37 3884 9e37 a88e 9e37 c335 9e37
00000010: 6354 9e37 877f 9e37 0c0a 9e37 c70f 9e37
00000020: 0f3a 9e37 7a31 2c37 6539 2c37 ae40 2c37
00000030: db1f 2c37 b928 2c37 3334 2c37 7d12 2c37
00000040: 9316 2c37 0d24 2c37 d0fe 6737 f72f 6837
00000050: 0640 6837 e6be 6737 11ea 6737 3329 6837
00000060: 8b82 6737 eb88 6737 3dc5 6737 92a5 fc36
00000070: 07b1 fc36 cdbb fc36 8b8c fc36 2e99 fc36
00000080: d2a9 fc36 eb79 fc36 947f fc36 e792 fc36
00000090: f338 563a 9d64 563a 8876 563a 92f9 553a
000000a0: b41c 563a 7658 563a 14c5 553a dbc3 553a
000000b0: fff9 553a 1710 ea39 631a ea39 d125 ea39
000000c0: c6f8 e939 5d03 ea39 be13 ea39 96e9 e939
000000d0: 5fed e939 71ff e939 cd8c 4d37 58bc 4d37
000000e0: a1c8 4d37 df56 4d37 8685 4d37 82c0 4d37
000000f0: b91f 4d37 502d 4d37 3068 4d37 dac6 df36
00000100: 30d2 df36 e7da df36 f8b0 df36 cbbd df36
00000110: 89cc df36 e29e df36 6aa5 df36 d8b6 df36
1.8880926e-05 1.8896637e-05 1.8901497e-05 1.8860103e-05 1.8874363e-05 1.8894452e-05 1.8839746e-05 1.8842415e-05
1.8862103e-05 1.0263519e-05 1.0265362e-05 1.0267058e-05 1.0259416e-05 1.026148e-05 1.02641525e-05 1.02563035e-05
1.0257255e-05 1.0260393e-05 1.3828001e-05 1.3839445e-05 1.3843184e-05 1.381312e-05 1.3823171e-05 1.383787e-05
1.3799067e-05 1.3800552e-05 1.3814596e-05 7.52946e-06 7.530794e-06 7.532048e-06 7.5265466e-06 7.5280177e-06
7.529955e-06 7.5243784e-06 7.5250373e-06 7.527287e-06 0.0008171938 0.00081784447 0.00081811147 0.0008162494
0.0008167729 0.0008176634 0.0008154672 0.000815449 0.00081625575 0.00044643946 0.00044651618 0.00044660133
0.00044626574 0.00044634464 0.00044646667 0.00044615258 0.00044618078 0.00044631542 1.2251735e-05 1.2262804e-05
1.2265665e-05 1.2239178e-05 1.22500405e-05 1.2263774e-05 1.2226338e-05 1.2229502e-05 1.224321e-05 6.6690673e-06
6.670387e-06 6.6714015e-06 6.6665198e-06 6.6680127e-06 6.669729e-06 6.6644143e-06 6.6651746e-06 6.6672037e-06

exp_avg f4 [4]
00000000: bedb a13d 548e 8a3d 6540 123f 0ba7 823d
0.079032406 0.06765428 0.5712951 0.06379517

exp_avg_sq f4 [4]
00000000: 7300 423a 8f57 0e3a ce84 053d cde6 fa39
0.00074005796 0.00054299174 0.032597356 0.00047855676

exp_avg f4 [3, 1, 3, 3]
00000000: be10 8d3c 8a13 8d3c f515 8d3c 040a 8d3c
00000010: 9a0d 8d3c a311 8d3c 3a04 8d3c 5906 8d3c
00000020: b80b 8d3c a09f 713c 5fa4 713c 93a8 713c
00000030: 7494 713c 6e9a 713c 4ba1 713c 018b 713c
00000040: 6f8e 713c 7d97 713c 9b86 633c 8a8b 633c
00000050: 0a8f 633c 5c7c 633c c082 633c 0f89 633c
00000060: cc72 633c ca76 633c 5a7f 633c
0.017219897 0.017221231 0.017222384 0.01721669 0.0172184 0.017220324 0.01721393 0.01721494
0.017217502 0.01474753 0.014748662 0.014749664 0.014744867 0.014746292 0.014747928 0.014742614
0.0147434315 0.01474559 0.013887073 0.013888249 0.013889084 0.01388463 0.013886154 0.013887658
0.01388235 0.013883302 0.013885343

exp_avg_sq f4 [3, 1, 3, 3]
00000000: 285b 1838 3861 1838 7766 1838 944c 1838
00000010: 5a54 1838 195d 1838 0a40 1838 a244 1838
00000020: 4450 1838 ff8a df37 cb93 df37 9b9b df37
00000030: 3f76 df37 5981 df37 168e df37 b864 df37
00000040: 166b df37 e27b df37 bfeb c537 5df4 c537
00000050: 7bfa c537 dad9 c537 02e5 c537 09f0 c537
00000060: 26c9 c537 1fd0 c537 13df c537
3.632452e-05 3.6330166e-05 3.6335052e-05 3.6310943e-05 3.6318183e-05 3.6326328e-05 3.6299265e-05 3.6303543e-05
3.6314377e-05 2.6648397e-05 2.6652493e-05 2.6656131e-05 2.6638734e-05 2.6643904e-05 2.6649835e-05 2.6630572e-05
2.6633537e-05 2.6641359e-05 2.3594008e-05 2.359802e-05 2.360087e-05 2.3585675e-05 2.359087e-05 2.3596005e-05
2.3577897e-05 2.3581144e-05 2.3588107e-05
